checkpoint_actor.pth (torch_old, 548258 bytes, 10 tensors)

fc1.weight f4 [400, 33]
0	0x3d97efdc	0.074187964
1	0x3f1540f4	0.58302236
2	0xbfaa230d	-1.3291947
3	0xbf488013	-0.78320426
4	0xbeb7696e	-0.35822624
5	0x3eb4e6e3	0.35332403
6	0xbe960aea	-0.29305202
7	0xbc976957	-0.018482847
8	0xbeaf1312	-0.34194237
9	0x3b89c159	0.004203957
10	0x3d33e20e	0.043916754
11	0xbcb8d63b	-0.02256309
12	0xbe85abe2	-0.261077
13	0x3d24db74	0.04024835
14	0xbef373d9	-0.47549322
15	0x3f219989	0.631249
16	0x3e7d2312	0.2472041
17	0xbd1e0448	-0.0385783
18	0xbcdd6ab2	-0.027028415
19	0xbf1b3338	-0.6062503
20	0xbdd66628	-0.104687035
21	0xbe0c6bb9	-0.13712968
22	0x3da653aa	0.081214264
23	0xbd9d53fa	-0.07682033
24	0xbd766f00	-0.06016445
25	0xbdc76d6e	-0.09737669
26	0x3c39c4ff	0.011338471
27	0xbc9670c4	-0.018364318
28	0xbdc20345	-0.0947328
29	0x3c42acd8	0.0118820295
30	0x3d228477	0.03967711
31	0x3d01129b	0.031511884
32	0x3f0df6ea	0.55454886
33	0xbdf5d7d6	-0.12004058
34	0x3ef56c1f	0.47934052
35	0x3e53c855	0.2068189
36	0x3ef24646	0.4731924
37	0xbe1e890f	-0.15481971
38	0x3e3d5ea3	0.18493132
39	0x3f31c8cb	0.6944701
40	0xbe2f4cd8	-0.17119157
41	0xbe3a2d07	-0.18181239
42	0x3e4155dd	0.1888041
43	0x3e4c3f68	0.19946063
44	0xbd75ec62	-0.060039885
45	0x3e33d4c3	0.17561631
46	0xbd8716f0	-0.06596172
47	0xbe945fcb	-0.28979334
48	0xbe550ef9	-0.20806493
49	0x3f9ec3a4	1.2403455
50	0xbf6d4072	-0.9267646
51	0xbfc548b2	-1.541281
52	0x3ee73056	0.45154065
53	0x3ea8b43e	0.32950014
54	0xbcb7d6e0	-0.022441328
55	0xbf0acedd	-0.542219
56	0x3c984de8	0.018591836
57	0xbab4c03a	-0.0013790198
58	0x3c5d687b	0.01351368
59	0x3e781656	0.2422727
60	0x3d45f70f	0.048331317
61	0x3e9d4419	0.30716017
62	0x3d23b911	0.039971415
63	0x3d3d4f9f	0.04621851
64	0xbc6ab3ec	-0.014325123
65	0xbfe4022c	-1.7813163
66	0x3f0c6654	0.5484364
67	0x3d89b411	0.06723798
68	0x3eca2475	0.3948094
69	0x3e2be692	0.16787174
70	0x3e9e7ee8	0.30956197
71	0xc01555c4	-2.3333597
72	0x3e7760e1	0.2415805
73	0xbe603dde	-0.218986
74	0xbeaf584a	-0.34247047
75	0x3e80072c	0.25005472
76	0x3dd0d0ad	0.10196052
77	0xbf21f790	-0.63268375
78	0xbd62d82a	-0.05538193
79	0x3ea22396	0.31667775
80	0xbf1ffc01	-0.624939
81	0xbcd5a14b	-0.026077887
82	0xbf62a9bb	-0.8854024
83	0xbf41b337	-0.75664085
84	0xbecf89b3	-0.40534744
85	0xbe44762b	-0.19185703
86	0x3efdf006	0.49597186
87	0x3eb20d93	0.3477598
88	0x3d6cce2d	0.057813812
89	0xbda120ca	-0.07867582
90	0xbebe419a	-0.37159425
91	0xbd5eb14b	-0.0543683
92	0xbeb8e69d	-0.36113444
93	0x3d1b4763	0.037909877
94	0xbec4cdd9	-0.384383
95	0xbcd327bd	-0.025775785
96	0x3d22c73d	0.03974079
97	0x3bb6da70	0.005580239
98	0xbe62eba4	-0.22160202
99	0x3efbda18	0.4918983
100	0x3ecabc03	0.39596567
101	0x3ec65cbf	0.38742635
102	0xbec900eb	-0.39258513
103	0xbdb4c0ec	-0.088258594
104	0xbf3e9d6e	-0.7445897
105	0x3fa6a0fd	1.301788
106	0xbe2c33ae	-0.16816589
107	0xbc57c979	-0.013170593
108	0xbbeca4cd	-0.007221794
109	0x3e412644	0.18862253
110	0x3e79263d	0.24330993
111	0x3c815479	0.01578735
112	0x3eba6eb5	0.36412588
113	0x3d9975f4	0.07493201
114	0xbdd06b53	-0.101767205
115	0xbde14b7a	-0.11000724
116	0xbe47d2d7	-0.19514023
117	0x3eb7ca6f	0.35896632
118	0xbf01c38b	-0.50689
119	0xbe19c96a	-0.1501824
120	0xbcedf3fc	-0.029047005
121	0xbea50fc2	-0.32238585
122	0x3f0c744a	0.54864943
123	0x3ebeed7b	0.37290558
124	0xbd036a92	-0.032084055
125	0x3e0e1b23	0.1387754
126	0x3c80edc6	0.01573838
127	0xbe7109f2	-0.2353895
128	0xbc656054	-0.014000017
129	0x3c9565db	0.018237045
130	0x3cf67182	0.030083422
131	0x3fe1be23	1.763615
132	0xbe4d06c3	-0.2002211
133	0xbd6b4a50	-0.057443917
134	0x3f127f8d	0.5722588
135	0xbf5ad914	-0.85487485
136	0x3e625342	0.22102073
137	0x3f308de8	0.6896653
138	0x3f829206	1.0200813
139	0x3dc8e8be	0.09810017
140	0x3ecaaddd	0.39585772
141	0x3f0ece4c	0.55783534
142	0x3e75c140	0.239995
143	0xbe92c256	-0.28663892
144	0x3e34cee9	0.17657055
145	0x3f3fdc0c	0.7494514
146	0xbcbecbf9	-0.023290621
147	0xbddad0f0	-0.10684383
148	0x3ed80d3b	0.42197594
149	0x3e84291d	0.25812617
150	0xbec6c38d	-0.38821068
151	0x3f3cd31d	0.73759633
152	0x3e82778b	0.2548183
153	0xbe9ca7c4	-0.30596745
154	0xbc9cdada	-0.019147325
155	0x3edbdc56	0.4294154
156	0x3dde2145	0.108461894
157	0x3dd22089	0.10260112
158	0xbe09169a	-0.13387528
159	0x3d235262	0.03987349
160	0xbec38bf1	-0.38192704
161	0xbcaad52a	-0.020853598
162	0xbd17d3f6	-0.037067376
163	0xbc268348	-0.010163136
164	0xbf056427	-0.52105945
165	0x3ec2c7ed	0.38043156
166	0x3e9fd39f	0.31216142
167	0xbe5ec40a	-0.2175447
168	0x3f0b9cd5	0.5453618
169	0x3f1938b5	0.59852153
170	0xbfc8b178	-1.5679159
171	0xbefeb228	-0.49745297
172	0x3eaeaaa4	0.34114563
173	0x3efc7370	0.49306822
174	0x3e4d7c92	0.20067051
175	0xbcf77544	-0.030207284
176	0x3d163975	0.03667589
177	0xbda641fc	-0.08118054
178	0xbd902a3f	-0.07039308
179	0xbeb156dc	-0.3463658
180	0xbe9b5dfe	-0.30345148
181	0x3f367719	0.7127548
182	0xc0110fd3	-2.2665908
183	0x3e27a5a5	0.16371782
184	0x3e6fc56d	0.23415156
185	0x3d9615d7	0.07328384
186	0x3d772147	0.06033447
187	0x3f3d1fa1	0.73876387
188	0xbd8be9c9	-0.068317
189	0xbe4e45c6	-0.20143804
190	0xbeb22e1d	-0.34800807
191	0xbe2d1644	-0.16903025
192	0xbd2f8538	-0.042851657
193	0x3de62651	0.11237777
194	0xbd40f405	-0.047107715
195	0xbd08164d	-0.033224393
196	0x3c4f0804	0.012636188
197	0x3edbed4b	0.42954478
198	0x3ee5b85c	0.44867218
199	0xbf1add1e	-0.6049365
200	0xbf94cd8e	-1.162523
201	0xbe2af8d6	-0.16696486
202	0xbebb9969	-0.3664048
203	0x3ddb2a00	0.1070137
204	0x3e50e7f6	0.20400986
205	0x3d8ad6b3	0.06779232
206	0x3e5fa135	0.2183884
207	0x3d56dbe8	0.052455813
208	0x3e40e7e4	0.18838459
209	0xbe9c0203	-0.30470285
210	0xbe4282ff	-0.18995284
211	0xbe321113	-0.17389326
212	0xbf64b7ce	-0.89342964
213	0x3f11aeba	0.56907237
214	0xbebc71ae	-0.3680548
215	0xbe45628f	-0.19275878
216	0xbf46e606	-0.7769474
217	0xbf189945	-0.5960887
218	0x3e7268fc	0.23672861
219	0x3dbea432	0.093086615
220	0xbdfb3f38	-0.122679174
221	0xbd8f900c	-0.07009897
222	0xbebbd5f3	-0.36686668
223	0x3e1fc41a	0.1560215
224	0xbcb49cf5	-0.0220475
225	0x3c9c2a60	0.019063175
226	0x3c05271b	0.008126999
227	0x3cd8dea6	0.026473355
228	0x3d17d653	0.03706963
229	0x3d0e4079	0.034729455
230	0xbe068097	-0.1313499
231	0xbf1240db	-0.5713021
232	0xbeed7172	-0.46375614
233	0xbf257fe8	-0.64648294
234	0xbec1cad5	-0.3785006
235	0x3f66859f	0.9004764
236	0xbf2153d6	-0.6301855
237	0xbe6441c3	-0.22290711
238	0x3e50652d	0.20351095
239	0x3ee12e5c	0.43980682
240	0xbec4fb9a	-0.38473207
241	0x3dadba8d	0.08482847
242	0xbe99a339	-0.30007342
243	0x3e71a729	0.23598923
244	0x3d866d15	0.065637745
245	0xbe86a02c	-0.26294076
246	0x3f148f2b	0.58030957
247	0xbe84279c	-0.2581147
248	0x3ec18033	0.3779312
249	0x3e9959b6	0.29951257
250	0xbd415478	-0.047199696
251	0xbca58997	-0.02020721
252	0xbcd579a6	-0.026058983
253	0xbd5372f1	-0.05162329
254	0x3e35e27b	0.17762177
255	0x3dcee0e1	0.10101486

fc1.bias f4 [400]
0	0x3e0c25ff	0.1368637
1	0xbe0e9ac1	-0.13926221
2	0x3dad0c04	0.084495574
3	0xbdbf75aa	-0.093486145
4	0x3b1c360d	0.0023835928
5	0xbccd0233	-0.025025463
6	0xbca69e60	-0.020339191
7	0xbdb10f78	-0.086455286
8	0xbe03499b	-0.12821047
9	0xbe2d8ee9	-0.16949047
10	0xbe124283	-0.14283185
11	0x3db9e486	0.090767905
12	0xbdf80242	-0.12109806
13	0xbd6ef532	-0.058339305
14	0x3e13dbe8	0.14439356
15	0x3d4f17d4	0.050559834
16	0x3e202f23	0.15642981
17	0x3e2a2cf3	0.1661871
18	0x3db4145a	0.08792944
19	0x3dd66016	0.10467546
20	0xbe0bbe02	-0.13646701
21	0xbd9bc8cc	-0.07606658
22	0xbe1c0f1e	-0.15240142
23	0xbd2d7c4c	-0.042354867
24	0x3ddcf2e8	0.10788518
25	0xbc9f6a75	-0.019459942
26	0x3b6758a7	0.0035300644
27	0xbe197ec9	-0.14989771
28	0x3d24ba7c	0.040216908
29	0x3df52a5f	0.11970972
30	0x3d302569	0.043004427
31	0xbda00957	-0.078142814
32	0x3d94608c	0.07244977
33	0xbbcfb2ce	-0.006338454
34	0x3dcf8778	0.101332605
35	0x3df89952	0.121386185
36	0xbdbeb353	-0.09311547
37	0x3cdd04a8	0.02697976
38	0xbd596d12	-0.053082533
39	0xbd3af981	-0.0456481
40	0xbe2d4036	-0.16919026
41	0x3e248298	0.16065443
42	0x3d8060db	0.06268474
43	0xbc6965a3	-0.0142454235
44	0xbe09535d	-0.13410707
45	0xbdb116fb	-0.08646961
46	0x3d8df81c	0.06932089
47	0x3d9838c9	0.07432706
48	0x3dea90fc	0.11453435
49	0xbdb15501	-0.08658791
50	0x3e06b58c	0.13155192
51	0xbda35b15	-0.07976357
52	0x3daa46d6	0.08314292
53	0x3cab2d23	0.020895546
54	0x3c174172	0.009231912
55	0x3c60901a	0.0137062315
56	0xbe22ffd7	-0.15917908
57	0x3cd3ebec	0.025869332
58	0x3e12888a	0.14309898
59	0xbd216211	-0.039400164
60	0x3de09a1b	0.10966893
61	0x3d0b8cb4	0.03406973
62	0x3db4a111	0.088197835
63	0xbdb90eb6	-0.09036009
64	0x3d9f9468	0.07791978
65	0x3e0d0118	0.13769948
66	0xbdbc53dd	-0.09195683
67	0x3e1760da	0.1478304
68	0xbd681daa	-0.056668915
69	0xbccd3594	-0.025049962
70	0xbe247335	-0.16059573
71	0x3dcd66bc	0.10029361
72	0x3d2fa47c	0.042881474
73	0x3e15b94a	0.14621463
74	0xbdc2351e	-0.094827875
75	0x3ce87c49	0.028379576
76	0xbc7933d5	-0.015210112
77	0x3e189980	0.14902306
78	0x3d3b7d44	0.04577376
79	0xbe06b638	-0.13155448
80	0x3dccf726	0.10008077
81	0x3e069de5	0.1314617
82	0x3d2ec18c	0.04266505
83	0x3d69b6ad	0.05705898
84	0x3dbed633	0.09318199
85	0x3d5ad57d	0.053426255
86	0x3daa578f	0.08317482
87	0x3e2c6b93	0.16837911
88	0xbd6ec386	-0.058291934
89	0xbe09bdd0	-0.13451314
90	0x3b95482d	0.004555723
91	0xbd7b0a80	-0.06128931
92	0x3ab3be6f	0.001371337
93	0x3da60a15	0.08107392
94	0xbd463370	-0.0483889
95	0xbc4ba34d	-0.012429071
96	0x3da0c8ae	0.078507766
97	0xbe036934	-0.128331
98	0xbda148d9	-0.07875223
99	0x3cc9a27c	0.024613611
100	0x3ddfa6b8	0.10920471
101	0x3b8d5423	0.0043130084
102	0x3cc7b5ce	0.024378683
103	0x3e10525f	0.14093922
104	0x3e2d1ef6	0.16906342
105	0xbbf9d82f	-0.007624648
106	0xbd2fa824	-0.04288496
107	0xbd1deebb	-0.03855775
108	0xbd97626f	-0.073918216
109	0x3df0a580	0.117503166
110	0xbd675705	-0.056479473
111	0x3db5c89c	0.08876154
112	0xbdf10b79	-0.11769766
113	0xbdc9270b	-0.098219
114	0x3df21a29	0.11821396
115	0xbd9208ab	-0.071305595
116	0xbd8d458d	-0.068980314
117	0xbd515cb9	-0.051113818
118	0xbd0cb94d	-0.034356404
119	0xbd26ccec	-0.040722772
120	0x3c6a49c6	0.0142998155
121	0xbd1786f4	-0.036993936
122	0x3d52c0ba	0.05145333
123	0x3e000ac6	0.1250411
124	0xbe07ee09	-0.13274397
125	0x3e1a51dd	0.15070291
126	0x3dcd5ce5	0.10027484
127	0x3d5a5ae9	0.053309355
128	0xba82f201	-0.0009990336
129	0x3e0b147b	0.13582031
130	0x3df05fff	0.1173706
131	0xbdd2539f	-0.10269856
132	0x3d107530	0.03526801
133	0xbdf4b170	-0.11947906
134	0x3df5c0e3	0.11999681
135	0x3dbab4d8	0.091165245
136	0x3c903a69	0.017605977
137	0x3e0dc16a	0.13843313
138	0x3d07808b	0.033081573
139	0xbd74f391	-0.059802596
140	0xbd097d20	-0.033566594
141	0xbe0c64da	-0.13710347
142	0x3d9a1732	0.075239554
143	0x3c05bdac	0.008162897
144	0x3d4573c5	0.04820611
145	0xbdc2ff49	-0.09521348
146	0x3ce88573	0.028383946
147	0xba9fea87	-0.0012200632
148	0x3e1e363f	0.1545038
149	0x3dc86577	0.09784978
150	0x3e1a1c34	0.15049821
151	0xbe2dbef0	-0.16967368
152	0xbd64934d	-0.05580454
153	0xbc00551f	-0.007832794
154	0x3e26286c	0.16226357
155	0x3cf05c37	0.029340846
156	0xbd89c7c3	-0.06727555
157	0x3ddfd4ce	0.10929261
158	0xbe18429f	-0.14869164
159	0x3d85d121	0.06534029
160	0xbe24a881	-0.16079904
161	0x3e07e567	0.13271104
162	0x3e2d6c3d	0.16935821
163	0x3c1a2584	0.0094083585
164	0x3dbca3d5	0.09210936
165	0x3e1a5246	0.15070447
166	0xbe1990bd	-0.1499662
167	0xbd911394	-0.07083812
168	0xbd245314	-0.040118292
169	0xbd889564	-0.06669119
170	0x3e2b8dad	0.16753264
171	0x3dd7ca63	0.10536649
172	0x3dc0d178	0.09414953
173	0x3e110419	0.1416172
174	0xbd47d149	-0.048783574
175	0xbb65c190	-0.0035058
176	0x3dbcba0a	0.09215172
177	0x3d640de2	0.055677302
178	0xbd6a3c92	-0.05718667
179	0x3babd20c	0.0052435454
180	0x3e20fea5	0.15722139
181	0xbe28d419	-0.16487159
182	0x3e303d02	0.17210773
183	0xbe0f9169	-0.14020313
184	0x3c859abb	0.016309133
185	0x3cfd4228	0.030915335
186	0xbe293af3	-0.16526394
187	0xbd991965	-0.07475547
188	0x3dbe8f77	0.093047075
189	0xbe2f014a	-0.17090335
190	0xbd8c110f	-0.06839191
191	0xbda2f06b	-0.07956012
192	0x3c0bc605	0.008531098
193	0xbe05474f	-0.13015483
194	0x3de06d10	0.10958302
195	0xbe053640	-0.13008976
196	0xbd99f1ac	-0.075167984
197	0x3dfbc53f	0.12293481
198	0x3e287b48	0.16453278
199	0x3cc02e8d	0.023459697
200	0xbda80c6a	-0.08205493
201	0x3c5cdc7a	0.0134803
202	0xbd90a586	-0.07062821
203	0x3e1730c6	0.147647
204	0xbd80517d	-0.06265543
205	0x3ca7143b	0.020395389
206	0x3c805954	0.015667595
207	0xbe2f2c67	-0.17106782
208	0xbd5bc277	-0.053652253
209	0x3db571cd	0.088595964
210	0x3c97ffb9	0.018554555
211	0x3ceac7e8	0.028659776
212	0xbdb54fa2	-0.088530794
213	0x3e1c7f2c	0.15282887
214	0xbe0a7988	-0.13522923
215	0xbe02eb7a	-0.1278514
216	0xbd0a0868	-0.033699423
217	0x3dbe1fa4	0.09283379
218	0xbdda939f	-0.10672688
219	0xbd5719bd	-0.05251478
220	0x3d0fe233	0.03512783
221	0x3d7276c8	0.05919531
222	0xbd6439ae	-0.05571907
223	0x3dc60739	0.09669346
224	0x3dcca2fe	0.09992026
225	0x3d07a0ae	0.03311222
226	0x3cdcfdc2	0.02697647
227	0x3e20b32e	0.15693352
228	0x3d84dea3	0.06487777
229	0xbe0b6038	-0.13610923
230	0xbd06e2ac	-0.032931015
231	0x3d88b1c7	0.06674533
232	0xbd862645	-0.06550268
233	0x3df1f3f2	0.11814107
234	0xbd47016f	-0.04858535
235	0x3d44b8c5	0.048027772
236	0x3c5b87b5	0.013399054
237	0x3be10eee	0.006868235
238	0xbc5ceba3	-0.013483915
239	0xbbe949fb	-0.007119415
240	0xbcfeb655	-0.031092802
241	0xbc775de9	-0.0150980735
242	0xbd6dffc4	-0.058105245
243	0x3de22dc7	0.110438876
244	0x3db231b9	0.0870089
245	0x3e07cc54	0.13261539
246	0x3df9c6cb	0.1219612
247	0x3dccde14	0.100032955
248	0xbe1da34d	-0.15394326
249	0x3e0bf9af	0.13669465
250	0x3e22b6e4	0.1589008
251	0xbccf14e3	-0.025278514
252	0xbd23f010	-0.040023863
253	0xbd502c56	-0.050823532
254	0xbdc2beea	-0.0950907
255	0x3d1d186b	0.038353365

bn1.weight f4 [400]
0	0x3f1b85f4	0.6075127
1	0x3f501f0a	0.8129736
2	0x3f0ad3b4	0.54229283
3	0x3f212c23	0.6295797
4	0x3f52cfcb	0.82348317
5	0x3f1934c9	0.5984617
6	0x3f0a2ac6	0.5397152
7	0x3f5d2036	0.86377275
8	0x3f630364	0.8867705
9	0x3f4e5282	0.80594647
10	0x3f80749e	1.0035589
11	0x3f4ff0ca	0.8122679
12	0x3f5ad31c	0.8547838
13	0x3f3357fd	0.70056134
14	0x3f23f8df	0.6405162
15	0x3f47f1c2	0.7810327
16	0x3f0d9cce	0.5531739
17	0x3f3a06cb	0.72666615
18	0x3f745932	0.954486
19	0x3f5e204e	0.86768043
20	0x3f787d0a	0.97065794
21	0x3f42717e	0.75954425
22	0x3f29b1a8	0.66286707
23	0x3f42d69c	0.7610872
24	0x3f3f423d	0.74710447
25	0x3f53068b	0.8243186
26	0x3f7e22e4	0.9927199
27	0x3f45a41f	0.77203554
28	0x3f476ed1	0.7790347
29	0x3f3615f6	0.7112726
30	0x3f2aad6f	0.6667089
31	0x3f2eaba6	0.68230665
32	0x3fabce2f	1.3422297
33	0x3f0447f5	0.516723
34	0x3f7040e1	0.93849
35	0x3f843358	1.0328169
36	0x3f6c1cb0	0.92231274
37	0x3f3d12a8	0.7385659
38	0x3f3ce232	0.73782647
39	0x3f76f226	0.9646324
40	0x3fd206a9	1.6408283
41	0x3f5e036d	0.8672398
42	0x3f9e1b9a	1.2352173
43	0x3f6e4ea8	0.9308877
44	0x3f4722cf	0.7778749
45	0x3f1e1f7c	0.6176679
46	0xba1222b0	-0.0005574627
47	0x3f22fe31	0.63669115
48	0x3f1fbceb	0.6239764
49	0x3f0f2bb3	0.55926055
50	0x3f416fa5	0.7556098
51	0xbef3288f	-0.4749188
52	0x3f439d99	0.7641235
53	0x3f13d1dc	0.57742095
54	0x3f3b4e58	0.7316642
55	0x3f1a3071	0.60230166
56	0x3f183003	0.5944826
57	0x3f25070f	0.64463896
58	0x3f997a4b	1.1990446
59	0x3f827425	1.0191694
60	0x3f3134f3	0.6922142
61	0x3f28fdd3	0.66012305
62	0x3ec90341	0.39260295
63	0x3f4da203	0.80325335
64	0x3f201912	0.62538254
65	0x3f5496e5	0.83042747
66	0x3f32a765	0.69786674
67	0x3f435a20	0.76309395
68	0x3f283390	0.6570368
69	0x3f523fce	0.8212861
70	0x3f6ef3d4	0.933408
71	0x3f494b9b	0.7863099
72	0x3f8667c0	1.0500412
73	0x3f20b5c9	0.6277738
74	0x3f15e046	0.5854534
75	0x3f394aad	0.7237957
76	0x3f0b3022	0.5437032
77	0x3f48b85e	0.7840632
78	0xbab0d5da	-0.0013491467
79	0x3f4c5b76	0.7982706
80	0x3f26ebdd	0.6520365
81	0x3f6cf0a6	0.925547
82	0x3f5ebbfb	0.87005585
83	0x3f42c4b3	0.7608139
84	0x3f63a4df	0.8892345
85	0x3f877f73	1.058577
86	0x3f016e89	0.5055929
87	0x3f3ab0eb	0.72926205
88	0x3f3abf27	0.72947925
89	0x3f89b4f8	1.0758352
90	0x3f3553ac	0.708308
91	0x3f563fb1	0.83690935
92	0x3f521569	0.8206392
93	0x3f32fd9d	0.69918233
94	0x3f8bf832	1.0935118
95	0x3f312fee	0.6921376
96	0x3f134697	0.57529587
97	0x3f3297c2	0.69762814
98	0x3f31edc1	0.6950341
99	0x3f47be11	0.78024393
100	0x3f1acac8	0.6046567
101	0x3f6c5c72	0.9232856
102	0x3f11b664	0.5691893
103	0x3f48ebd0	0.7848482
104	0x3f7ab894	0.97937894
105	0x3f81d5eb	1.0143408
106	0x3f6e426c	0.930701
107	0x3f37cbb3	0.71795195
108	0x3f25854d	0.64656526
109	0x3f6867a6	0.90783155
110	0x3f5354f0	0.8255148
111	0xbaf8babe	-0.0018976552
112	0x3f1fefa7	0.62475055
113	0x3f82e18f	1.0225085
114	0x3f480816	0.7813734
115	0x3f082f40	0.531971
116	0x3f836ea9	1.0268146
117	0x3f59fb1d	0.85148793
118	0x3f64b9a0	0.8934574
119	0x3f3df6db	0.74204797
120	0x3f12629d	0.5718172
121	0x3f7aa7a3	0.97912043
122	0x3f5618bd	0.836315
123	0x3f3930b1	0.7233992
124	0x3f31aedd	0.69407445
125	0x3f41d3f4	0.7571404
126	0x3f5c9d3f	0.8617744
127	0x3f40eca5	0.7536109
128	0x3f3988b2	0.72474205
129	0x3f766974	0.9625466
130	0x3f3e4099	0.7431732
131	0x3f6cb0e3	0.9245741
132	0x3f808a59	1.004222
133	0x3f1e371b	0.61802834
134	0x3f4b9703	0.795273
135	0x3f383a61	0.7196408
136	0x3f2e47dd	0.68078405
137	0x3f43c408	0.76470995
138	0x3f3d6556	0.7398275
139	0x3f7c3020	0.9851093
140	0x3f695cf3	0.91157454
141	0x3f318c06	0.69354284
142	0x3f649b72	0.8929969
143	0x3f2f542b	0.68487805
144	0x3f358473	0.70905226
145	0x3f43ef20	0.7653675
146	0x3f156b63	0.58366984
147	0x3f3eb7ba	0.74499094
148	0x3f30cf1a	0.6906601
149	0x3f15071a	0.5821396
150	0x3f309adc	0.68986297
151	0x3f80296d	1.0012642
152	0x3f72060e	0.9454049
153	0x3f3a42a2	0.72757924
154	0x3f916770	1.1359692
155	0x3f22da53	0.63614386
156	0x3f47c2c7	0.7803158
157	0x3f209fa9	0.6274362
158	0x3f216b41	0.6305428
159	0x3f3c027e	0.734413
160	0x3f3e6998	0.74379873
161	0x3f25807d	0.6464918
162	0x3f635a14	0.88809323
163	0x3f61a21e	0.88137996
164	0x3f219359	0.6311546
165	0x3f0a8838	0.54114103
166	0x3faedabf	1.3660506
167	0x3f906f95	1.1284052
168	0x3f2e4ca6	0.68085706
169	0x3f1c6d5a	0.6110436
170	0x3f6df766	0.92955625
171	0x3f3d0d25	0.7384818
172	0x3f7e8ac6	0.994305
173	0x3f33edfb	0.70285004
174	0x3f3b2abe	0.73112094
175	0x3f674216	0.90335214
176	0x3f4599eb	0.77187985
177	0x3f4fb50c	0.8113563
178	0x3f811978	1.0085897
179	0x3f2faefc	0.6862638
180	0x3f5afc1e	0.8554095
181	0x3a84c298	0.0010128794
182	0x3f199ffb	0.60009736
183	0x3f5b1261	0.8557492
184	0x3eef098f	0.4668698
185	0x3f16a45b	0.58844537
186	0x3f40c543	0.75301
187	0x3f61a8f3	0.8814842
188	0x3f83dbc5	1.0301443
189	0x3fa9676b	1.3234686
190	0x3f577f88	0.8417897
191	0x3f04ba15	0.5184644
192	0x3f458785	0.7715991
193	0x3eec94d4	0.46207297
194	0x3f89b309	1.0757762
195	0x3f3e7c86	0.7440876
196	0x3f6b2745	0.91856796
197	0x3eec7683	0.46184167
198	0x3f3da437	0.74078697
199	0x3f3d862d	0.7403286
200	0x3f6035cc	0.8758209
201	0x3eec5b31	0.46163324
202	0x3f241882	0.64099896
203	0x3f1b6c54	0.6071217
204	0x3f4eabac	0.807307
205	0x3f383cf0	0.71967983
206	0x3f574cc5	0.84101516
207	0x3f489fb7	0.78368706
208	0x3f5156e2	0.817732
209	0x3f8910f8	1.0708303
210	0x3f3ea2cb	0.7446715
211	0x3f4305a4	0.7618048
212	0x3f6b3d68	0.91890574
213	0x3f6059fc	0.87637305
214	0x3f3e2ba3	0.74285334
215	0x3f333f57	0.70018524
216	0x3f2e123e	0.67996585
217	0x3f548235	0.8301118
218	0x3f5aa970	0.8541479
219	0x3f773b01	0.9657441
220	0x3f3f1026	0.74634016
221	0x3f679414	0.90460324
222	0x3f5a8341	0.8535653
223	0x3f2e839e	0.6816958
224	0x3f5faa5c	0.8736932
225	0x3f5de4ba	0.86677134
226	0x3f352a9d	0.7076815
227	0x3f5f2fcf	0.87182325
228	0x3f50f94c	0.81630397
229	0x3f2c8376	0.67388093
230	0x3f71c800	0.944458
231	0x3f6fd83a	0.9368931
232	0x3f648b35	0.89274913
233	0x3f778adc	0.9669626
234	0x3f62bfdc	0.88574004
235	0x3f355648	0.7083478
236	0x3f6605a0	0.89852333
237	0x3f50ddbf	0.8158836
238	0x3f2331c4	0.6374781
239	0x3f627c94	0.8847134
240	0x3f26b0dc	0.65113616
241	0x3f3c7f66	0.73631895
242	0x3f8442bd	1.0332867
243	0x3f7603d3	0.96099585
244	0x3f0e962d	0.556979
245	0xb9bf4092	-0.00036478468
246	0x3f66b28d	0.90116197
247	0x3f90b57c	1.1305385
248	0x3ef2c4ef	0.47415873
249	0x3f123ffd	0.5712889
250	0x3f2f5662	0.68491185
251	0x3f55aacf	0.8346376
252	0x3f6ddf63	0.92918986
253	0x3f18277f	0.59435266
254	0x3f9b9108	1.2153635
255	0x3f3340e5	0.70020896

bn1.bias f4 [400]
0	0xbeab3f21	-0.334466
1	0xbf8a2516	-1.0792568
2	0xbf13678c	-0.57579875
3	0xbf6e6aa7	-0.9313149
4	0xbf52fd5e	-0.8241786
5	0xbf3d7a36	-0.74014604
6	0xbefd5b5f	-0.49483773
7	0xbf110428	-0.56646967
8	0xbf81b724	-1.0134015
9	0xbf4689d0	-0.77554035
10	0xbf556327	-0.8335442
11	0xbf3b0600	-0.7305603
12	0xbee81bdc	-0.45333755
13	0xbeda86c1	-0.42680934
14	0xbf1a2724	-0.60215974
15	0xbf8f6dd6	-1.1205394
16	0xbf0e34be	-0.5554923
17	0xbf480372	-0.7813026
18	0xbf958de2	-1.1683924
19	0xbf9e273f	-1.2355727
20	0xbf21b910	-0.6317301
21	0xbf2028f5	-0.62562495
22	0xbf33d6e4	-0.7024977
23	0xbfa54af9	-1.2913505
24	0xbf70703d	-0.9392126
25	0xbf406106	-0.75148046
26	0xbe936a42	-0.28792006
27	0xbf235726	-0.6380485
28	0xbeffd485	-0.49966827
29	0xbf0695ac	-0.5257213
30	0xbf5ce511	-0.8628703
31	0xbf11a5f8	-0.56893873
32	0xbf86f10c	-1.0542312
33	0xbef7dcac	-0.48410547
34	0xbf3febc1	-0.74969107
35	0xbf5b2f79	-0.8561931
36	0xbebe37b0	-0.3715186
37	0xbf29f8aa	-0.66395056
38	0x3db71f16	0.08941476
39	0xbf5c96c2	-0.8616754
40	0xbf4862ea	-0.7827593
41	0xbf83074a	-1.02366
42	0xbe769454	-0.2408002
43	0xbf684f08	-0.9074559
44	0xbf4b03ac	-0.7930248
45	0xbf4f2208	-0.809113
46	0xbc6a8450	-0.014313772
47	0xbf0198f0	-0.5062399
48	0xbec76c6a	-0.389499
49	0xbe55bb10	-0.2087214
50	0xbf2b4499	-0.66901547
51	0xbbf6e0ed	-0.0075341375
52	0xbfbf1e32	-1.493109
53	0xbf169479	-0.588203
54	0xbf4caf98	-0.79955435
55	0xbef3fe3c	-0.47654903
56	0xbedbf498	-0.42960048
57	0xbf8c2335	-1.0948244
58	0xbf08ae7f	-0.5339126
59	0xbf84a358	-1.0362349
60	0xbf8076c5	-1.0036246
61	0xbf236f7b	-0.6384198
62	0xbe4c90f5	-0.19977172
63	0xbf5371ca	-0.82595503
64	0xbf41c479	-0.7569042
65	0xbf6b89ab	-0.9200694
66	0xbee5bd78	-0.44871116
67	0xbf9d27ac	-1.2277732
68	0xbef106b8	-0.47075438
69	0xbf413870	-0.7547674
70	0xbf67e5ad	-0.9058483
71	0xbf67ac24	-0.9049704
72	0xbf88a97b	-1.0676721
73	0xbf2cf43e	-0.67560184
74	0xbf6a8411	-0.9160777
75	0xbf7f9f7c	-0.9985273
76	0xbf3a9d8d	-0.72896653
77	0xbf600c24	-0.87518525
78	0xbc52e04a	-0.0128708575
79	0xbf3c4b9e	-0.7355288
80	0xbf219c18	-0.63128805
81	0xbf36e395	-0.7144101
82	0xbf857dca	-1.0429013
83	0xbe23d955	-0.16000874
84	0xbf4f848d	-0.8106163
85	0xbf48c921	-0.784319
86	0xbf056936	-0.52113664
87	0xbf6234a5	-0.8836158
88	0xbf543e62	-0.8290769
89	0xbf7881dc	-0.9707315
90	0xbf68d40e	-0.9094857
91	0xbf6edbbc	-0.9330404
92	0xbf62a2c3	-0.88529605
93	0xbf0609e2	-0.5235883
94	0xbf9fa2a0	-1.2471504
95	0xbf049f99	-0.51806027
96	0xbebd8969	-0.37018898
97	0xbf5f1579	-0.8714214
98	0xbf0b62b7	-0.544475
99	0xbf9619c0	-1.1726608
100	0xbf0b9293	-0.5452053
101	0xbf7ada7b	-0.97989625
102	0xbf592d8c	-0.84835124
103	0xbf27f0ce	-0.65601814
104	0xbf6654a9	-0.8997293
105	0xbf4fe399	-0.8120666
106	0xbf6c9d17	-0.924272
107	0xbf3c8304	-0.73637414
108	0xbea5c031	-0.32373193
109	0xbf3a6f03	-0.7282564
110	0xbf8704fd	-1.0548397
111	0xbc90ef41	-0.01769221
112	0xbef75b5f	-0.48311898
113	0xbf5d8749	-0.86534554
114	0xbec88eb9	-0.3917139
115	0xbf2cd7cb	-0.67516774
116	0xbf8e3ba3	-1.111195
117	0xbfa1904e	-1.2622163
118	0xbf868c01	-1.0511476
119	0xbf31f64b	-0.6951644
120	0xbf0606f2	-0.5235435
121	0xbf09b824	-0.537966
122	0xbf40aa84	-0.75260186
123	0xbf01c594	-0.50692105
124	0xbf29025e	-0.6601924
125	0xbf0a72d9	-0.54081494
126	0xbf6344ac	-0.8877666
127	0xbf7f8adf	-0.99821275
128	0xbf2ca585	-0.6744006
129	0xbf71ca8b	-0.9444968
130	0xbf6431cd	-0.8913849
131	0xbf3629d8	-0.711576
132	0xbf6227cf	-0.88341993
133	0xbf4579fe	-0.7713927
134	0xbeae4567	-0.34037325
135	0xbf0961ff	-0.53665155
136	0xbf867b6e	-1.0506418
137	0xbf35977e	-0.70934284
138	0xbf1f0546	-0.6211742
139	0xbf473835	-0.7782014
140	0xbf6aa7a1	-0.9166203
141	0xbefd68c4	-0.49493992
142	0xbf469955	-0.77577716
143	0xbf7f613e	-0.99757755
144	0xbf22c3e0	-0.6358013
145	0xbf118b68	-0.5685334
146	0xbf15aa5f	-0.5846309
147	0xbf4db396	-0.8035215
148	0xbf4f5e5c	-0.81003356
149	0xbedbd631	-0.42936853
150	0xbf677209	-0.9040838
151	0xbee73c73	-0.45163307
152	0xbf53585d	-0.82556707
153	0xbf62f6b8	-0.8865771
154	0xbf9f8096	-1.2461116
155	0xbf5bb348	-0.85820436
156	0xbf5d1acb	-0.8636901
157	0xbf07a932	-0.52992547
158	0xbf2958f0	-0.6615133
159	0xbf035686	-0.513039
160	0xbf850219	-1.0391265
161	0xbf384b04	-0.71989465
162	0xbf89db64	-1.0770078
163	0xbefb72ad	-0.49110928
164	0xbf1033dc	-0.5632913
165	0xbf335171	-0.70046145
166	0xbf6ef0b7	-0.9333605
167	0xbf7517bf	-0.9573936
168	0xbef21283	-0.47279748
169	0xbf2da248	-0.67825747
170	0x3d949acc	0.07256088
171	0xbf3b4c1d	-0.73163015
172	0xbf48f15d	-0.7849329
173	0xbf36d9cd	-0.7142609
174	0xbf4703b8	-0.7774005
175	0xbf7500b5	-0.95704204
176	0xbf83dee7	-1.0302399
177	0xbf8a8859	-1.082286
178	0xbf91022d	-1.1328789
179	0xbf49352e	-0.7859677
180	0xbedf9a6f	-0.4367251
181	0xbc76af8c	-0.015056502
182	0xbf08d59f	-0.5345096
183	0xbf4801a6	-0.78127515
184	0xbecef3a7	-0.40420267
185	0xbf4265f4	-0.7593682
186	0xbf0d3958	-0.55165625
187	0xbf5c49c2	-0.86050045
188	0xbf8d24e5	-1.1026884
189	0xbf5b0182	-0.85549176
190	0xbf509ed6	-0.81492364
191	0xbf553137	-0.8327822
192	0xbf8ea69a	-1.1144593
193	0xbce7fad4	-0.028317846
194	0xbf3dff61	-0.742178
195	0xbf0a24b3	-0.5396225
196	0xbf019bd6	-0.5062841
197	0xbf184ff8	-0.5949702
198	0xbf2dc223	-0.67874354
199	0xbf477755	-0.7791646
200	0xbf278659	-0.65439373
201	0xbed90100	-0.42383575
202	0xbf43e03f	-0.7651405
203	0xbed5d5e0	-0.41764736
204	0xbf541f7f	-0.8286056
205	0xbf1be780	-0.60900116
206	0xbe9031b3	-0.28162917
207	0xbf48801b	-0.78320473
208	0xbf744428	-0.954165
209	0xbf805d74	-1.002852
210	0xbf6685b0	-0.9004774
211	0xbf2da33d	-0.67827207
212	0xbf3190b4	-0.69361424
213	0xbf0b46a0	-0.5440464
214	0xbedd1ae0	-0.43184566
215	0xbf889015	-1.066897
216	0xbf4e012e	-0.8047055
217	0xbf35b4a9	-0.7097879
218	0xbf2ead5f	-0.68233293
219	0xbf646c59	-0.89227825
220	0xbf17d72c	-0.593127
221	0xbf521c5b	-0.82074517
222	0xbf386de7	-0.720427
223	0xbf7ed498	-0.9954314
224	0xbf88aea8	-1.0678301
225	0xbf9142da	-1.1348526
226	0xbf152704	-0.5826266
227	0xbf6b5c33	-0.9193756
228	0xbf1ef1fc	-0.6208799
229	0xbf329547	-0.6975903
230	0xbf223278	-0.6335826
231	0xbf26e042	-0.6518594
232	0xbf6c5f7b	-0.9233319
233	0xbf52ebf2	-0.82391274
234	0xbf885240	-1.0650101
235	0xbf716fe9	-0.94311386
236	0xbf94a237	-1.1612004
237	0xbf451dbf	-0.76998514
238	0xbf69d760	-0.9134426
239	0xbf831af5	-1.0242602
240	0xbf1e61ca	-0.61867964
241	0xbf550c17	-0.8322157
242	0xbf7a4fad	-0.97777826
243	0xbf799b8d	-0.97502977
244	0xbf0ec8e8	-0.5577531
245	0xbc6f833c	-0.014618691
246	0xbf99f4ec	-1.2027869
247	0xbf4f5c72	-0.81000435
248	0xbef16248	-0.47145295
249	0xbef28f94	-0.47375166
250	0xbf20e844	-0.6285441
251	0xbf52b6cc	-0.82310176
252	0xbf80549f	-1.0025824
253	0xbf20dea3	-0.62839717
254	0xbef79edf	-0.48363397
255	0xbf414b67	-0.7550568

bn1.running_mean f4 [400]
0	0xbf37076d	-0.71495706
1	0xbe2199ac	-0.15781277
2	0x3fe1bd21	1.7635843
3	0xbfea68e4	-1.831326
4	0xbf2363ef	-0.6382436
5	0x3ec0b2de	0.37636465
6	0x408497ad	4.143515
7	0x3fd87c5a	1.6912949
8	0x3f8a35b6	1.0797641
9	0x3e862fdc	0.2620839
10	0xbf4f051d	-0.8086718
11	0x3f4e3d80	0.8056259
12	0xbf24b076	-0.6433176
13	0x3ea18941	0.3155003
14	0x3fb4aca7	1.4115189
15	0xbea7dfd4	-0.32787955
16	0x3ef8119f	0.48450944
17	0xbf48454b	-0.7823073
18	0xbf92cee2	-1.1469386
19	0xc0a7726e	-5.2327185
20	0x3f2b45a1	0.6690312
21	0x3f15894d	0.5841263
22	0xbe65ae61	-0.22429802
23	0xbfef9124	-1.8716168
24	0xbf8c2ef1	-1.0951825
25	0x3f569b06	0.83830297
26	0xbe83f838	-0.25775313
27	0xbf87cba4	-1.0609021
28	0x3e4c2955	0.19937642
29	0x3d14299f	0.036172505
30	0x3faf0af0	1.3675213
31	0xbf4bffd8	-0.7968726
32	0xbe7b7f11	-0.2456019
33	0x4007f098	2.1240597
34	0x400f20eb	2.2363842
35	0x3fda31b3	1.7046417
36	0xbeb1e9e7	-0.34748766
37	0xc010a0eb	-2.2598217
38	0x3fce04b9	1.6095191
39	0xc01a9ffd	-2.416015
40	0xbe5afc0b	-0.2138521
41	0x3fca2b2b	1.5794424
42	0x3ecffb8e	0.40621608
43	0xc058a03c	-3.38478
44	0x3edfdd94	0.43723738
45	0xc0107fa0	-2.2577896
46	0xbd899a8f	-0.06718933
47	0xc0120c2f	-2.2819936
48	0x4027144c	2.6106138
49	0x3f40e374	0.75347066
50	0x400adf6c	2.1698866
51	0xbf2421cc	-0.6411407
52	0x3ea2fab1	0.31831887
53	0xbf8a8524	-1.0821881
54	0x3f8d3981	1.1033174
55	0xbf692d64	-0.91084886
56	0xc0245114	-2.5674486
57	0xc085e7d2	-4.1845484
58	0x3cb0f158	0.021599457
59	0x3fd87bb4	1.6912751
60	0xc059c2e9	-3.4025214
61	0x406eef73	3.7333648
62	0x401f9766	2.4936156
63	0xbfd89167	-1.6919373
64	0x3cc6071f	0.024173317
65	0xbfe3d0e9	-1.7798129
66	0x3e25b59c	0.1618256
67	0xbdbe539b	-0.0929329
68	0x3f7d6958	0.98988867
69	0xbf0eb3af	-0.55742925
70	0x3f87bec9	1.0605098
71	0x3e92266c	0.2854494
72	0xbe8f8585	-0.28031555
73	0xc03cbd1c	-2.9490423
74	0xc024f801	-2.577637
75	0xc0117121	-2.2725298
76	0x3f3cb671	0.73715883
77	0xbeb5b653	-0.35490665
78	0x3e0b20f2	0.13586786
79	0x400411ab	2.0635784
80	0xc0169f0f	-2.3534582
81	0x3f0947c3	0.53625125
82	0x3f6ee68d	0.9332054
83	0x3f2b68bd	0.6695669
84	0xbe618de8	-0.22026789
85	0x3e990435	0.29886022
86	0x400d9e17	2.212774
87	0xbe3e43d0	-0.18580556
88	0xbf30e11b	-0.69093484
89	0xbe990aa0	-0.2989092
90	0xbf1ea7c0	-0.61974716
91	0xbfa87e44	-1.3163533
92	0xbf776b27	-0.96647877
93	0x3f935c3f	1.1512526
94	0xbfcece6b	-1.6156744
95	0x4016689e	2.3501353
96	0x4002ed04	2.0457163
97	0xbfbf6dcb	-1.4955381
98	0xbfef39de	-1.8689535
99	0xc084d026	-4.1504087
100	0x3fb5b554	1.4195962
101	0xbf8d3bfe	-1.1033933
102	0xbf3d87a8	-0.7403512
103	0xbfcb92b3	-1.5904144
104	0xbf30aedf	-0.6901683
105	0x3fc0ab09	1.5052196
106	0xbf7a6ceb	-0.97822446
107	0xbca6a421	-0.020341935
108	0x3fa6ff69	1.3046695
109	0xc0095e3c	-2.1463766
110	0xbb7aae78	-0.0038250964
111	0x3eb3f2cc	0.35146177
112	0xc0158738	-2.336378
113	0x3fcb6b46	1.5892112
114	0x3fc38595	1.5275141
115	0x3ea9de39	0.33177355
116	0xbf03110f	-0.51197904
117	0xbfe5f5df	-1.7965659
118	0xbf139e28	-0.576632
119	0xbb65413a	-0.0034981505
120	0x4013da40	2.310196
121	0xbf4972c0	-0.7869072
122	0x4030630e	2.7560458
123	0x3fa26ea5	1.2690016
124	0x3fac95e2	1.3483241
125	0x3fdf8d98	1.7465086
126	0x3f8892bf	1.0669783
127	0xbff9f97c	-1.9529262
128	0x3d51a596	0.051183306
129	0xbee21c3f	-0.44162175
130	0xbef207e4	-0.47271645
131	0xbfc6f9f8	-1.5545034
132	0xbf632506	-0.8872837
133	0x40da2d30	6.818016
134	0xbe38c3c5	-0.1804343
135	0x3e2450b3	0.1604641
136	0xc05d0845	-3.4536297
137	0xbf3162bc	-0.6929128
138	0x3f1cd5cf	0.61263746
139	0x3fd68684	1.6759801
140	0xc016c208	-2.3555927
141	0x401a32b1	2.409344
142	0xbf5d206e	-0.8637761
143	0xbf54fabd	-0.83195096
144	0x3fc3c620	1.5294838
145	0xbfbccab1	-1.4749357
146	0xc05aecc4	-3.420701
147	0xbfbedd86	-1.4911354
148	0xbf232721	-0.6373158
149	0x3e0f5367	0.13996659
150	0x40009034	2.0088015
151	0x3ebe05bd	0.37113753
152	0xbf5fdb9f	-0.8744449
153	0x3f002c9c	0.5006807
154	0x3e990154	0.29883826
155	0x401315bc	2.2982016
156	0x3e5ce4e6	0.21571693
157	0xbcaaae35	-0.020835022
158	0x3fcd358b	1.6031965
159	0x3f94f523	1.163731
160	0xc090dd06	-4.5269804
161	0xbf7beebd	-0.9841116
162	0xc0150b12	-2.3288007
163	0x3d5080e1	0.05090416
164	0x4043f059	3.0615447
165	0x3f645a3e	0.892002
166	0xbc316547	-0.010827369
167	0x3fb374bf	1.4020003
168	0xbfdf6bfc	-1.7454829
169	0xbf905ead	-1.1278893
170	0x3c26ac29	0.010172882
171	0x3f87ed9b	1.0619386
172	0x3f72c1e4	0.94827104
173	0xbedcfe3d	-0.43162718
174	0xc04ece2c	-3.2313337
175	0x3ddb6cb3	0.10714092
176	0xc0157fbe	-2.3359218
177	0xbfd46c06	-1.6595466
178	0xbfb5ade1	-1.4193689
179	0x403fbcc0	2.9958954
180	0x3f004847	0.50110286
181	0xbe269b90	-0.1627028
182	0x3f947b84	1.1600194
183	0xbfdfcbdb	-1.7484087
184	0x3f003d45	0.5009349
185	0xc07b054d	-3.9221985
186	0x400a5999	2.1617186
187	0xbf9b7713	-1.2145714
188	0x3f76bc5b	0.9638116
189	0xbe69b942	-0.22824576
190	0x3e1f0c5a	0.15532055
191	0x3dc60652	0.09669174
192	0x3fb503e8	1.4141817
193	0x3fd5a7b6	1.6691806
194	0x3e33d159	0.17560329
195	0x3e807f7b	0.2509726
196	0xbe85cfa9	-0.26134995
197	0x3f1503f7	0.58209175
198	0x3fa7ad2a	1.309972
199	0xc027aa61	-2.619774
200	0xbf93f48a	-1.1559002
201	0x3f388dec	0.72091556
202	0x40f2c5f1	7.586663
203	0x3fa65a00	1.2996216
204	0xbff15154	-1.8852944
205	0x3f699928	0.9124932
206	0x3eab2f7b	0.33434662
207	0x3fac6f5e	1.3471487
208	0x3f69b5dd	0.91293126
209	0x3ba30aea	0.0049756663
210	0xc008a211	-2.1348917
211	0xbfe8101b	-1.8129915
212	0x3fccf894	1.601336
213	0x4048302e	3.1279407
214	0xbf08b194	-0.5339596
215	0xc09ee119	-4.9649777
216	0x3fd2dddc	1.6473956
217	0x3f5a9f26	0.8539909
218	0xbfd3c7b6	-1.6545322
219	0xbd2286d4	-0.039679363
220	0xbecdfdb8	-0.40232635
221	0xc05ccaaa	-3.4498696
222	0xbedce5f0	-0.43144178
223	0x3fd52772	1.6652663
224	0xbfd150ef	-1.6352824
225	0xc003e8d5	-2.061086
226	0xbf0ab77e	-0.54186237
227	0x3f4a2d9b	0.7897584
228	0xbf370cc9	-0.71503884
229	0x3e948d7f	0.29014203
230	0xbee557df	-0.44793603
231	0x3c33325a	0.010937298
232	0xbdc4b07b	-0.096039735
233	0xbfa89d7d	-1.3173062
234	0x3faad527	1.3346299
235	0x3e7a786c	0.2446
236	0xbf3eb3a8	-0.74492884
237	0x3fd832eb	1.6890539
238	0x3e17e900	0.14834976
239	0xc083024e	-4.0940313
240	0x3c03374b	0.008008788
241	0xbf1da20c	-0.6157539
242	0xbecc0dbb	-0.39854226
243	0xc0054166	-2.0821166
244	0xbf862eeb	-1.0483068
245	0x3df5ea87	0.12007623
246	0x3f3cfb43	0.73820895
247	0x3fffe5cb	1.9992002
248	0x40186d19	2.3816588
249	0x3fb149aa	1.3850605
250	0x401fe209	2.498171
251	0x3f1c872e	0.6114377
252	0xbf8083b3	-1.0040191
253	0xbf9526e2	-1.1652491
254	0x3d3be5bb	0.045873385
255	0xc054a1b3	-3.3223693

bn1.running_var f4 [400]
0	0x3fbc9e87	1.4735879
1	0x40a2ed60	5.0914764
2	0x40bc814e	5.8907843
3	0x4170d3c7	15.051703
4	0x411ee9d1	9.932084
5	0x40c52dde	6.161849
6	0x406236af	3.5345876
7	0x41aba1c4	21.453987
8	0x415ab4e9	13.6691675
9	0x4053c51c	3.3089056
10	0x40b92d92	5.786813
11	0x3ee79834	0.4523331
12	0x411544b0	9.329269
13	0x40c7361a	6.225354
14	0x4101e265	8.117772
15	0x40a4b0b5	5.1465707
16	0x40a96b1c	5.294325
17	0x403cc29d	2.9493783
18	0x40f1c6cb	7.5555167
19	0x41378f1b	11.472438
20	0x40e12bf2	7.0366144
21	0x40f4a427	7.645038
22	0x400777f5	2.1166966
23	0x40900d73	4.5016418
24	0x41373f7b	11.452998
25	0x4093ecf2	4.622674
26	0x40f68dbb	7.704801
27	0x423a66d6	46.600426
28	0x405ed23c	3.4815817
29	0x406ade0b	3.6698024
30	0x4116715a	9.402674
31	0x40975968	4.729664
32	0x41067ec7	8.4059515
33	0x4139abcb	11.604442
34	0x40ffe93f	7.9972224
35	0x4115fa2e	9.373579
36	0x4101600c	8.085949
37	0x406b28ad	3.6743577
38	0x41ce7324	25.806221
39	0x41df4107	27.906752
40	0x4102a6ea	8.1657505
41	0x4187188b	16.886984
42	0x408eef5c	4.4667187
43	0x409102c2	4.5315866
44	0x40fc6def	7.8884196
45	0x412b56c3	10.708682
46	0x3e3a053a	0.18166056
47	0x3ffa714e	1.9565828
48	0x40cb0a6c	6.345022
49	0x413a21e5	11.633275
50	0x41069654	8.411701
51	0x411e1e76	9.882437
52	0x40b9e5e6	5.809314
53	0x40713bf1	3.7692835
54	0x4105c7a0	8.361237
55	0x4155ada5	13.354894
56	0x41998781	19.191164
57	0x412c2d67	10.761085
58	0x410756dc	8.458706
59	0x40d83cf1	6.757439
60	0x407d9ce4	3.9627008
61	0x41549b4a	13.287912
62	0x40de416c	6.945486
63	0x407c484f	3.9419134
64	0x3fb558d6	1.4167736
65	0x40c7f947	6.2491794
66	0x4099d98c	4.807806
67	0x410db0f1	8.855699
68	0x40cd3859	6.4131284
69	0x40ec0ee4	7.3768177
70	0x412f9256	10.973227
71	0x408e59c5	4.448458
72	0x40ecc830	7.399437
73	0x4145096f	12.314803
74	0x40b534bc	5.6626873
75	0x40f14b8f	7.5404735
76	0x410cc18e	8.797255
77	0x40d881b0	6.765831
78	0x3e43e68e	0.19130918
79	0x4154ff0a	13.312265
80	0x4109c00e	8.609388
81	0x40ffebed	7.9975495
82	0x40d4b622	6.647233
83	0x3ffaf4dc	1.9605975
84	0x413ac497	11.672996
85	0x40adeaeb	5.4349265
86	0x41641959	14.256188
87	0x3ffb556e	1.9635446
88	0x41363752	11.388506
89	0x413f10ef	11.941634
90	0x4077459c	3.8636236
91	0x40ff2ffd	7.974608
92	0x41ba2c26	23.271557
93	0x40fa3eac	7.8201504
94	0x40be40f9	5.945431
95	0x411dcc13	9.862323
96	0x4122bb9c	10.170803
97	0x406c9e1b	3.69715
98	0x40cd4d34	6.415674
99	0x415f2191	13.945695
100	0x40df45c5	6.977267
101	0x4096cb3c	4.712309
102	0x407dfa14	3.9683886
103	0x40bf7d60	5.9840546
104	0x412d0432	10.813524
105	0x411d64fe	9.837156
106	0x4044edd4	3.0770159
107	0x41a7c624	20.971748
108	0x40d0e551	6.5279927
109	0x41493a9e	12.576811
110	0x412dbaf3	10.858142
111	0x3f1ad591	0.60482126
112	0x40ca7056	6.326213
113	0x41103825	9.013707
114	0x40cb220c	6.347906
115	0x413ab0e9	11.668191
116	0x40239eda	2.5565705
117	0x4168898f	14.533584
118	0x412a5c18	10.647484
119	0x416a4880	14.6427
120	0x40886c61	4.26323
121	0x40aa8b2b	5.3294883
122	0x4185cfc2	16.726444
123	0x40e1e822	7.0595865
124	0x40851352	4.1586084
125	0x41a07a1e	20.059628
126	0x420e4a89	35.57279
127	0x4174bc63	15.295993
128	0x40af8020	5.4843903
129	0x3f041c57	0.51605743
130	0x41483217	12.512229
131	0x41cce739	25.612902
132	0x41210010	10.062515
133	0x418c20c3	17.515997
134	0x407c63f4	3.9436007
135	0x40f6c607	7.7116733
136	0x41203fa6	10.015539
137	0x40d9d25e	6.8069296
138	0x40a63575	5.1940255
139	0x4164f405	14.309575
140	0x412483f9	10.28222
141	0x40aed51c	5.4635143
142	0x405eb7b4	3.4799623
143	0x40f75f6a	7.730397
144	0x408156cb	4.041845
145	0x40902d48	4.5055275
146	0x412e841b	10.907252
147	0x41ac1b22	21.513248
148	0x409bcd5a	4.8688173
149	0x40fe1497	7.9400134
150	0x41059004	8.34766
151	0x41262176	10.383169
152	0x40d7f0d3	6.7481475
153	0x41c979b5	25.184427
154	0x4028627f	2.6310117
155	0x41303c51	11.014726
156	0x41200056	10.000082
157	0x41746e53	15.276935
158	0x4156cc8a	13.424936
159	0x4123f525	10.24735
160	0x410da410	8.852554
161	0x42342689	45.037632
162	0x40a48cb7	5.142177
163	0x419103ce	18.126858
164	0x4148b0cc	12.543163
165	0x40898fa7	4.2987857
166	0x40dc4ee0	6.8846283
167	0x40f999e0	7.8000336
168	0x424674c0	49.614014
169	0x41b043d8	22.033127
170	0x409d415d	4.914229
171	0x4130fb7e	11.061399
172	0x413f5c2e	11.960005
173	0x411176a6	9.091467
174	0x409c8e86	4.892398
175	0x40eaf36f	7.342216
176	0x40b6caf7	5.712276
177	0x40c63c99	6.194897
178	0x419a7b11	19.310091
179	0x413fb804	11.982426
180	0x40cef8e4	6.467882
181	0x3d96e741	0.07368327
182	0x418b345d	17.400568
183	0x402e3870	2.7221947
184	0x413c125a	11.75448
185	0x419524c1	18.642946
186	0x40e4a3ac	7.1449795
187	0x40e37984	7.1085835
188	0x40ae0ac2	5.438813
189	0x410ea5c1	8.915467
190	0x4158fcd1	13.561723
191	0x40a8e1bc	5.2775555
192	0x4135ef43	11.3709135
193	0x41406da0	12.026764
194	0x40a368b8	5.106533
195	0x40e1a090	7.05085
196	0x40ea7b10	7.3275223
197	0x40fcf421	7.904801
198	0x41acc772	21.597385
199	0x40a30893	5.0947967
200	0x4178995d	15.537442
201	0x40c0abfe	6.020995
202	0x4104bb29	8.295693
203	0x40d012b1	6.5022817
204	0x40e3833f	7.1097713
205	0x40c69da5	6.2067437
206	0x40e36ef5	7.1072946
207	0x4234ce9b	45.201763
208	0x40785283	3.880036
209	0x41092126	8.570593
210	0x408c5a98	4.386059
211	0x410695c5	8.411565
212	0x41648c76	14.284292
213	0x41daf62a	27.370197
214	0x3fdbdc4d	1.7176605
215	0x40b28fc9	5.580052
216	0x40ec9c5d	7.3940873
217	0x41168153	9.406573
218	0x410aedfa	8.6831
219	0x40e07a8a	7.0149584
220	0x3f7cc97e	0.9874495
221	0x413beba7	11.745032
222	0x3f8ab7b0	1.0837307
223	0x40f86482	7.762269
224	0x411cd77f	9.802611
225	0x41dd0b9f	27.630674
226	0x40d38aa5	6.6106744
227	0x41771e35	15.444875
228	0x40f37d03	7.60901
229	0x4096d6e5	4.7137322
230	0x40932506	4.5982695
231	0x40d0affc	6.5214825
232	0x40b5d39c	5.682081
233	0x412b2347	10.696113
234	0x41aba274	21.454323
235	0x411e5c13	9.897479
236	0x403a675e	2.912559
237	0x40759e71	3.8377955
238	0x40cd5107	6.416141
239	0x414a816f	12.6566
240	0x411e98b1	9.912278
241	0x4136e2c7	11.430366
242	0x3fcd9ea1	1.6064035
243	0x40e4ebf9	7.1538053
244	0x416f67c9	14.962838
245	0x3d9e70dd	0.07736371
246	0x406a56f5	3.6615574
247	0x410441d0	8.2660675
248	0x41247d5f	10.280608
249	0x40642453	3.564717
250	0x40e07538	7.014309
251	0x40896f09	4.294804
252	0x4143ff15	12.249776
253	0x40e7029f	7.21907
254	0x40f78771	7.7352834
255	0x419b9f74	19.452858

fc2.weight f4 [300, 400]
0	0x3dc887a6	0.09791498
1	0xbeed767a	-0.46379453
2	0xbf170b0d	-0.5900124
3	0x3ec8d7c5	0.3922712
4	0x3e7acaf6	0.24491486
5	0x3d0eeb3c	0.034892306
6	0x3db82df4	0.0899314
7	0xbdc09be0	-0.09404731
8	0x3ed96041	0.42456248
9	0xbea5b45a	-0.3236416
10	0xbee79a3c	-0.4523486
11	0x3eb25577	0.3483083
12	0xbd2c5fa4	-0.042083398
13	0xbeef010a	-0.4668048
14	0xbfa83b59	-1.3143111
15	0xbf0994bd	-0.5374258
16	0x3f07664c	0.5289047
17	0x3e2771b9	0.16351976
18	0x3d741aed	0.05959599
19	0x3ecebe9e	0.40379804
20	0x3e23a7b9	0.1598195
21	0x3d1831f3	0.03715701
22	0x3c0285ed	0.007966501
23	0xbe9441ad	-0.28956357
24	0xbd2df446	-0.042469285
25	0xbf80f2f0	-1.0074139
26	0x3de0b9da	0.10972948
27	0x3e8091c6	0.25111216
28	0x3e37d25e	0.17951342
29	0xbf086109	-0.53273064
30	0x3e924d9d	0.2857484
31	0x3e83eb13	0.25765285
32	0xbf813bd9	-1.0096389
33	0x3f2bbe72	0.6708747
34	0xbf2d289f	-0.6764011
35	0xbf272d60	-0.6530361
36	0xbfa33b48	-1.2752466
37	0xbf0f001b	-0.55859536
38	0x3e396630	0.18105388
39	0xbeea48e8	-0.45758748
40	0xc05ebf42	-3.4804235
41	0x3dee7ee9	0.116453
42	0x3f29d06e	0.66333663
43	0xbf8f79c5	-1.1209036
44	0xbcf1e15d	-0.029526407
45	0xbdfa5d6d	-0.12224851
46	0x3d4833d6	0.04887756
47	0x3e31ac9d	0.17351003
48	0xbe9620b3	-0.29321823
49	0xbe1ed82c	-0.1551215
50	0x3f4417dd	0.7659891
51	0xbdc4a30f	-0.096014135
52	0xbebca26b	-0.36842665
53	0x3e9d2bf9	0.3069761
54	0x3baade4a	0.005214487
55	0x3f02bcc5	0.5106929
56	0x3df40f30	0.11916959
57	0x3f0b42aa	0.54398596
58	0xbeb1e2ae	-0.34743255
59	0xbf4c3579	-0.7976909
60	0x3d69cd89	0.05708078
61	0x3d0ed2a7	0.034868862
62	0x3d7ec52d	0.06219976
63	0x3f2c9c69	0.6742616
64	0x3e066018	0.13122594
65	0x3dd2e230	0.10297048
66	0x3f1f85bf	0.62313455
67	0xbebd4c85	-0.36972442
68	0x3c897375	0.016778687
69	0xbe1b3d97	-0.15160213
70	0xbe462940	-0.19351673
71	0xbf13f382	-0.5779344
72	0x3d857566	0.065165326
73	0xbeb61d76	-0.35569352
74	0x3ed3426b	0.4126161
75	0xbe480ecc	-0.19536895
76	0xbe94c1e5	-0.2905418
77	0x3e6c1be7	0.23057519
78	0xbd0b1f64	-0.033965483
79	0x3f1a5c20	0.6029682
80	0xbf50e453	-0.81598395
81	0x3da02fe3	0.07821634
82	0x3ec06bc5	0.37582222
83	0xbee4cede	-0.44689077
84	0x3e1c5510	0.15266824
85	0xbf0a1fcc	-0.5395477
86	0xbf1ed54b	-0.6204421
87	0x3e777a02	0.24167636
88	0x3d9ef82a	0.07762177
89	0x3e74447c	0.2385425
90	0xbf319536	-0.693683
91	0xbdd1f7ad	-0.102523185
92	0x3e9023a0	0.2815218
93	0xbdb0159a	-0.0859787
94	0xbcfedac0	-0.031110168
95	0xbf0aa249	-0.5415388
96	0x3e8d8885	0.2764322
97	0x3e9342c7	0.28761885
98	0x3e8bdb0c	0.27315557
99	0xbe636441	-0.22206213
100	0x3dce2b2c	0.10066828
101	0xbf8dee6e	-1.1088388
102	0x3f046f91	0.51732737
103	0x3e57e315	0.21082719
104	0xbdfd3458	-0.123634994
105	0x3e00b360	0.12568426
106	0xbe8eee33	-0.27916107
107	0x3eb3b50d	0.35099068
108	0xbf8b133b	-1.0865244
109	0x3da83625	0.08213452
110	0x3e1e65ba	0.15468493
111	0x3d2aeae4	0.041727915
112	0xbf3959a8	-0.7240243
113	0x3eec142d	0.46109143
114	0x3e19dad1	0.15024878
115	0xbe71e536	-0.23622593
116	0x3ec7140d	0.38882485
117	0x3f46656c	0.7749851
118	0x3eb718cd	0.3576111
119	0xbe2ebc67	-0.17064057
120	0xbea9ef3a	-0.33190328
121	0xbe23b6f5	-0.15987761
122	0xbf51d689	-0.8196798
123	0x3d3053b3	0.04304857
124	0x3e9e2ec5	0.30895057
125	0xbf242181	-0.6411362
126	0x3e8c708f	0.27429625
127	0x3d526adf	0.05137145
128	0xbbd21cfb	-0.006412146
129	0x3e83c2e6	0.25734633
130	0x3e15f339	0.14643563
131	0x3e25206c	0.16125649
132	0x3cabb60d	0.020960832
133	0xbe2224be	-0.15834329
134	0xbedfea23	-0.4373332
135	0x3d54771a	0.051871397
136	0xbf38f41b	-0.72247475
137	0xbeaddb81	-0.3395653
138	0xbef4d76f	-0.47820613
139	0xbe7b6351	-0.24549605
140	0xbcf03c18	-0.02932553
141	0xbf2c26a5	-0.67246467
142	0xbd17430a	-0.036929168
143	0x3f0defd3	0.5544407
144	0xbca6b4be	-0.020349856
145	0xbd973c66	-0.07384567
146	0x3ee0e664	0.43925774
147	0x3eafb000	0.34313965
148	0xbe612f22	-0.21990636
149	0xbdf7b7e8	-0.12095624
150	0x3c3b9daa	0.011451164
151	0xbe0527ed	-0.13003512
152	0xbd0fe4ce	-0.035130315
153	0x3ebe1314	0.3712393
154	0xbde6eba2	-0.11275412
155	0xbd86bc94	-0.06578937
156	0x3e5a9730	0.21346736
157	0xbe382e29	-0.17986359
158	0xbecf7370	-0.4051776
159	0xbfa0773b	-1.2536386
160	0x3e5984df	0.21242093
161	0xbd9a1c6a	-0.07524951
162	0xbdb78b43	-0.08962109
163	0x3e163061	0.14666893
164	0x3eef9c06	0.46798724
165	0x3f3f8f14	0.74827695
166	0xbef8fa93	-0.48628673
167	0xbf81cbeb	-1.0140356
168	0xbf19725a	-0.5994011
169	0xbe83443a	-0.2563799
170	0x3f132aa5	0.57486945
171	0xbf149c1f	-0.5805072
172	0xbf0eec58	-0.5582938
173	0xbdcf530e	-0.10123263
174	0x3f2d8514	0.67781186
175	0x3ea438c5	0.32074562
176	0x3eca8dc1	0.39561275
177	0xbe05cc30	-0.13066173
178	0x3e2d7d31	0.16942288
179	0x3e23140f	0.1592562
180	0x3f06376a	0.52428305
181	0xbd182d13	-0.03715236
182	0x3d613d2f	0.05498999
183	0x3e373c7f	0.17894171
184	0x3eeb667a	0.4597662
185	0x3e56c4bc	0.20973486
186	0x3dc7c5ab	0.09754499
187	0x3dadc4b1	0.084847815
188	0xbfe68f99	-1.8012573
189	0xbeb075c4	-0.34464848
190	0xbb1abde1	-0.0023611712
191	0x3bb72d20	0.005590096
192	0xbec1e3b9	-0.3786905
193	0xbf01579a	-0.50524294
194	0x3c5dda0c	0.013540756
195	0x3b2b46f4	0.002613482
196	0x3dddebac	0.108359665
197	0xbec6885a	-0.38775903
198	0x3eaf4b9e	0.3423738
199	0x3f56a1c3	0.8384058
200	0xbefa7102	-0.48914343
201	0x3e1041c2	0.14087585
202	0xbf8b8062	-1.0898554
203	0xbbf69023	-0.0075245067
204	0x3db4211e	0.08795379
205	0xbe0b73bc	-0.13618368
206	0xbf32ce0e	-0.69845665
207	0x3eb67413	0.35635433
208	0x3f09ebad	0.5387524
209	0x3d9da53a	0.0769753
210	0xbedcfc8a	-0.43161422
211	0xbe253d13	-0.16136579
212	0xbf4d67ac	-0.80236316
213	0x3ea7c233	0.3276535
214	0x3d772039	0.060333464
215	0x3ebec001	0.37255862
216	0xbf2aef38	-0.6677127
217	0xbeb0d08d	-0.34534112
218	0xbf47d5d4	-0.7806065
219	0xbe0d4539	-0.13795938
220	0xbda5d6db	-0.08097621
221	0xbf71df4e	-0.9448136
222	0x3e03e9dc	0.12882179
223	0xbf71daca	-0.9447447
224	0xbd93e3af	-0.072211616
225	0xbf2855f6	-0.65756166
226	0x3ec38e9d	0.38194743
227	0x3ef107a6	0.47076148
228	0x3e84a7e7	0.2590935
229	0x3de6fd70	0.11278808
230	0x3e40e8d3	0.18838815
231	0xbe850afa	-0.25984937
232	0x3d2bbe5e	0.041929595
233	0xbdd82fd2	-0.10555996
234	0x3e6d4ea0	0.23174524
235	0x3eb90568	0.36136937
236	0xbb246331	-0.0025083537
237	0x3f2ff3a6	0.68731153
238	0xbe302623	-0.17202048
239	0x3e10ab9f	0.14127968
240	0xbe9e367d	-0.30900946
241	0x3ecd9b5a	0.40157586
242	0xbeef3652	-0.4672113
243	0xbf6649da	-0.8995644
244	0x3f1cff62	0.61327183
245	0x3ce3e902	0.027821068
246	0xbf4a668f	-0.7906274
247	0xbf012fb8	-0.5046344
248	0xbf23091c	-0.63685775
249	0x3e4be94c	0.19913214
250	0x3ef10be0	0.47079372
251	0xbf6e94d6	-0.93195856
252	0x3cbb551a	0.022867728
253	0x3eb86fed	0.36022893
254	0xbf858f07	-1.0434273
255	0x3f1551dc	0.5832803
