checkpoint_critic.pth (torch_old, 549457 bytes, 9 tensors)

fcs1.weight f4 [400, 33]
0.014398097 -0.16286337 0.2141419 -0.40894812 -0.06952223 0.5522555 -0.29087642 -0.19535235
-0.092929214 0.09497024 0.07589628 -0.0397965 -0.014310848 0.19893923 -0.6728197 -0.010371949
-0.22466187 0.17177054 -0.34318668 -0.022928026 -0.01337429 0.15545323 -0.05171591 0.17312223
0.0023500891 -0.06625418 0.22218083 0.045573454 0.27117825 0.029426169 0.021529133 -0.04951809
-0.6554343 -0.097184904 -0.3440528 0.3075348 0.14054462 -0.15888941 -0.07077786 -0.6605435
0.20875224 -0.5073293 0.03987263 -0.1899909 0.06494545 0.18568777 0.023395713 0.3078449
-0.30779943 -0.47007483 -0.23274845 -0.32527715 0.17921984 0.02459774 -0.40089753 0.3459672
0.4557138 0.19315763 0.08279523 -0.03286496 -0.0028063983 -0.041581206 0.04198553 0.007853154
-0.03743553 0.21240163 0.21713364 -0.5349567 0.108027235 0.22420998 0.073527254 -0.5119803
-0.63458073 -0.29588372 -0.2973661 -0.054663796 -0.078453094 0.060934752 -0.20223618 -0.22239289
0.6065552 -0.2750855 -0.03184197 -0.018842947 -0.2879879 0.08131661 0.1256787 -0.027957259
0.29681468 0.115953304 0.06501503 -0.17072031 0.005578502 -0.048842594 0.120682426 0.034657624
0.01414144 0.04886647 0.5183251 -0.12298151 0.06814572 -0.32393032 -0.63226247 0.34214866
0.111700244 -0.08729296 0.009626852 -0.20799913 -0.117407314 0.35959098 0.17135406 0.63310117
0.18546407 3.7300426e-05 0.18755576 -0.22341157 0.022065451 -0.13490942 -0.34000438 -0.043139074
0.09681943 -0.38483465 -0.18267521 0.018375264 -0.15565018 0.101013295 0.040389802 0.10198953
0.011116296 -0.016931 0.047439378 -0.29988882 -0.29570657 0.17492968 -0.33425957 -0.24160397
0.80832165 -0.4373244 -0.27349588 0.070552506 -0.060682386 -0.25117037 0.03467633 -0.09090072
0.069890715 0.22699913 -0.13531901 0.07516405 -0.14505343 0.024447212 -0.44481945 0.10081409
-0.012901861 -0.3769579 -0.027515525 0.057906397 0.051019326 0.16210216 -0.15860766 0.01929769
0.37897155 -0.017455138 0.015064188 0.04695255 0.7999535 -0.16406049 -0.32013968 -0.16287161
-0.36729765 0.124470346 0.35048145 0.58865166 0.044778563 -0.13758774 0.4661195 0.08778094
0.26568693 -0.05847541 0.1408194 0.41986206 -0.41728118 0.23664899 -0.010844265 -0.026709395
-0.16466492 -0.23666129 0.41646624 -0.23513521 -0.1498183 -0.10578515 -0.23873499 0.095079914
-0.0011594968 0.073427886 -0.036237426 -0.029473148 -0.009227119 0.18713306 -0.24350256 0.1473524
0.26866513 -0.17031918 0.014503518 -0.114898734 -0.015739124 -0.099413805 0.28256705 -0.030221071
-0.027987845 -0.021698028 0.047641426 0.30649275 -0.07304096 -0.50085616 0.05495597 0.070676014
-0.091909915 0.010903586 0.029882746 -0.020303922 -0.043667816 0.04806681 -0.03768241 -0.09335164
-0.11990593 -0.039137702 0.34359956 0.016985375 -0.04111203 0.033821184 0.14059094 0.07945475
0.1325904 0.08463864 0.118466444 0.20009296 0.035437 -0.10525255 0.163155 -0.088243715
0.13999435 -0.105592914 0.08550221 -0.01042253 0.12533066 0.078098685 0.06221048 0.4191856
-0.06840717 -0.054848906 -0.11124982 -0.07222139 0.1627717 0.33324313 0.34617037 0.044465616
00000000: ffe5 6b3c a8c5 26be 0448 5b3e a661 d1be
00000010: ac61 8ebd 9e60 0d3f c1ed 94be 720a 48be
00000020: ac51 bebd c27f c23d 826f 9b3d a801 23bd
00000030: 0c78 6abc bab6 4b3e e93d 2cbf 1bef 29bc
00000040: c30d 66be 9ee4 2f3e 2ab6 afbe 8ed3 bbbc
00000050: d71f 5bbc 222f 1f3e 10d4 53bd f446 313e
00000060: f403 1a3b 46b0 87bd 5f83 633e 3bab 3a3d
00000070: e0d7 8a3e 260f f13c dd5d b03c 7bd3 4abd
00000080: 8bca 27bf e108 c7bd b027 b0be 3475 9d3e
00000090: eeea 0f3e e8b3 22be fcf3 90bd 6119 29bf
000000a0: 26c3 553e 55e0 01bf 7c51 233d f98c 42be
000000b0: 1f02 853d ef24 3e3e 5ea8 bf3c d99d 9d3e
000000c0: e397 9dbe a6ad f0be 9c55 6ebe ba8a a6be
000000d0: 6885 373e 3381 c93c 7142 cdbe 9d22 b13e
000000e0: 5253 e93e 1dcb 453e 8c90 a93d 699d 06bd
000000f0: 8deb 37bb 0e51 2abd 05f9 2b3d 84aa 003c
00000100: 0056 19bd d07f 593e 4858 5e3e ecf2 08bf
00000110: 623d dd3d 4d97 653e 7595 963d 2411 03bf
00000120: e273 22bf 127e 97be 5f40 98be 25e7 5fbd
00000130: 04ac a0bd b896 793d 0017 4fbe f6ba 63be
00000140: 3447 1b3f 02d8 8cbe ba6c 02bd 865c 9abc
00000150: 2673 93be 5389 a63d ebb1 003e 9f06 e5bc
00000160: 18f8 973e ed78 ed3d 9a26 853d 4ed1 2ebe
00000170: decb b63b 2c0f 48bd 5928 f73d 27f5 0d3d
00000180: 80b1 673c 3528 483d f4b0 043f bbdd fbbd
00000190: fc8f 8b3d 32da a5be f4db 21bf 1c2e af3e
000001a0: 19c3 e43d a7c6 b2bd f2b9 1d3c b9fd 54be
000001b0: 3f73 f0bd 4f1c b83e 7077 2f3e eb12 223f
000001c0: 4bea 3d3e 0773 1c38 9e0e 403e 01c6 64be
000001d0: 9bc2 b43c b225 0abe 0e15 aebe 99b2 30bd
000001e0: 4449 c63d 0c09 c5be 360f 3bbe b987 963c
000001f0: c362 1fbe 0fe0 ce3d c76f 253d e3df d03d
00000200: 2021 363c e1b2 8abc cb4f 423d 078b 99be
00000210: da66 97be c420 333e 1224 abbe 0867 77be
00000220: 2bee 4e3f fce8 dfbe a707 8cbe d57d 903d
00000230: 188e 78bd 6799 80be c408 0e3d 282a babd
00000240: dd22 8f3d 7672 683e 1191 0abe 9cef 993d
00000250: e388 14be 8545 c83c 60bf e3be 9e77 ce3d
00000260: 5462 53bc a000 c1be 3d68 e1bc 422f 6d3d
00000270: a4f9 503d 1cfe 253e 0c6a 22be 3016 9e3c
00000280: 8f08 c23e 14fe 8ebc c9cf 763c 5151 403d
00000290: c1c9 4c3f 79ff 27be 59e9 a3be d1c7 26be
000002a0: 700e bcbe 4fea fe3d 4e72 b33e e0b1 163f
000002b0: ba69 373d cde3 0cbe 37a7 ee3e 7ec6 b33d
000002c0: 1e08 883e e983 6fbd f632 103e 29f8 d63e
000002d0: e1a5 d5be 1d54 723e 25ac 31bc a9cd dabc
000002e0: ec9d 28be 5657 72be 103b d53e 49c7 70be
000002f0: f869 19be e2a5 d8bd f276 74be 42b9 c23d
00000300: 42fa 97ba 5c61 963d b26d 14bd ac71 f1bc
00000310: 582d 17bc cf9f 3f3e bc58 79be 8ce3 163e
00000320: 7a8e 893e 2768 2ebe 2aa0 6d3c 0750 ebbd
00000330: 56ef 80bc 7799 cbbd a1ac 903e 2e92 f7bc
00000340: c446 e5bc 10c0 b1bc a823 433d 9eec 9c3e
00000350: 8096 95bd 1c38 00bf 8319 613d 96be 903d
00000360: 443b bcbd f4a4 323c a9cc f43c 6954 a6bc
00000370: 06dd 32bd b4e1 443d df58 1abd 252f bfbd
00000380: 3d91 f5bd db4e 20bd 48ec af3e ea24 8b3c
00000390: 1765 28bd 1588 0a3d 12f7 0f3e 2cb9 a23d
000003a0: c7c5 073e 0657 ad3d 899e f23d 2be5 4c3e
000003b0: 6326 113d a68e d7bd 1b12 273e 1fb9 b4bd
000003c0: ae5a 0f3e 1941 d8bd c81b af3d 42c3 2abc
000003d0: ae56 003e 34f2 9f3d 6bd0 7e3d 7f9f d63e
000003e0: 0f19 8cbd 3fa9 60bd f2d6 e3bd cfe8 93bd
000003f0: a0ad 263e d89e aa3e 3e3d b13e 9421 363d

fcs1.bias f4 [400]
0.13620126 -0.13946374 0.084460646 -0.093391486 0.0023382031 -0.02527573 -0.019798424 -0.08624563
-0.12844636 -0.1691392 -0.14217114 0.0919217 -0.121393636 -0.058145702 0.14438409 0.050068267
0.15640932 0.16605656 0.08793622 0.10478599 -0.13652718 -0.07656814 -0.15218674 -0.04260562
0.10712264 -0.01963029 0.003582848 -0.14988582 0.0402342 0.119495556 0.042800825 -0.07782911
0.07294382 -0.0062587997 0.10142571 0.121629864 -0.0932507 0.026806336 -0.052998673 -0.045519818
-0.16908984 0.16062227 0.06275382 -0.014682405 -0.134056 -0.08636706 0.06932089 0.07365706
0.11472823 -0.086564444 0.13147601 -0.079962656 0.08279966 0.020834763 0.009586093 0.0135418065
-0.1591258 0.02498174 0.14316949 -0.039348047 0.10985275 0.03420417 0.08806254 -0.08991054
0.07737014 0.13791014 -0.09198043 0.14800315 -0.056402244 -0.02498272 -0.16056748 0.100741945
0.042991765 0.14615336 -0.09389263 0.02844631 -0.015288224 0.14889078 0.045692254 -0.1316156
0.10014217 0.13136157 0.04287882 0.05766553 0.09295116 0.052364685 0.08305754 0.16781868
-0.05846584 -0.13435355 0.004357513 -0.06122564 0.001422964 0.08111229 -0.04828427 -0.012043709
0.07871868 -0.12854493 -0.07899591 0.024293603 0.109345585 0.0044453205 0.024498068 0.14065275
0.16954716 -0.0075227576 -0.042781312 -0.038424976 -0.07394286 0.11711436 -0.056565434 0.088726856
-0.117637105 -0.09843978 0.11806685 -0.0714647 -0.068890415 -0.052221928 -0.034414135 -0.040703923
0.013922404 -0.037545502 0.051708978 0.124980636 -0.13277805 0.15052046 0.100121595 0.053218886
-0.00073580456 0.13517736 0.11742271 -0.10272826 0.03506382 -0.119232655 0.11992556 0.09095124
0.01768626 0.13838394 0.03340164 -0.05978589 -0.033535466 -0.13795255 0.07504796 0.008321151
0.04807275 -0.09533577 0.028236775 -0.0008049578 0.15471691 0.097684875 0.15054964 -0.1694901
-0.055589024 -0.007783286 0.16228123 0.029086992 -0.06723864 0.10954868 -0.14868052 0.06564538
-0.16107047 0.13227923 0.16897961 0.009534491 0.092100166 0.15060446 -0.15012479 -0.07103015
-0.04011252 -0.0666714 0.16745831 0.10570527 0.094074056 0.14125757 -0.04839376 -0.003910708
0.092015475 0.055576805 -0.057003696 0.00516059 0.157347 -0.16486405 0.17205313 -0.1401867
0.01609148 0.030513477 -0.1650517 -0.07478314 0.09294977 -0.17030303 -0.068210885 -0.07960426
0.008763226 -0.13010705 0.10969454 -0.13004038 -0.075723045 0.1229272 0.16481341 0.023365233
-0.08174181 0.013238947 -0.071093194 0.14664215 -0.06274191 0.020230124 0.015560815 -0.1710866
-0.05372204 0.08861808 0.018320827 0.028444791 -0.08859461 0.1528796 -0.13572377 -0.12746984
-0.0333901 0.09260694 -0.10681588 -0.052272763 0.035134885 0.05948802 -0.054865886 0.09668915
0.099898435 0.03313716 0.027075917 0.15692684 0.064844176 -0.13586143 -0.032821376 0.0669189
-0.0652642 0.11803825 -0.048468385 0.048183165 0.013687376 0.006776052 -0.013598637 -0.006766501
-0.031152517 -0.015088499 -0.058127567 0.11042188 0.0868497 0.13261539 0.12162586 0.10024957
-0.15250173 0.13663232 0.1590383 -0.025231555 -0.040020898 -0.05109714 -0.095010415 0.03823372
00000000: 5878 0b3e 95cf 0ebe b4f9 ac3d 0944 bfbd
00000010: 8a3c 193b 0c0f cfbc 4e30 a2bc 8da1 b0bd
00000020: 7187 03be d432 2dbe 5095 11be 7241 bc3d
00000030: 3a9d f8bd 302a 6ebd 6cd9 133e 6214 4d3d
00000040: c429 203e bb0a 2a3e e817 b43d 0a9a d63d
00000050: c8cd 0bbe c2cf 9cbd d7d6 1bbe 3b83 2ebd
00000060: 1d63 db3d b4cf a0bc 37ce 6a3b ab7b 19be
00000070: 9ecc 243d 16ba f43d eb4f 2f3d de64 9fbd
00000080: 9263 953d 9e16 cdbb 48b8 cf3d 1419 f93d
00000090: 39fa bebd f698 db3c 2315 59bd fd72 3abd
000000a0: e325 2dbe 2a7a 243e 1385 803d 788e 70bc
000000b0: fa45 09be 37e1 b0bd 1cf8 8d3d 83d9 963d
000000c0: a2f6 ea3d b348 b1bd a6a1 063e 76c3 a3bd
000000d0: de92 a93d aaad aa3c fd0e 1d3c 74de 5d3c
000000e0: e0f1 22be 82a6 cc3c 069b 123e 6b2b 21bd
000000f0: 7bfa e03d ac19 0c3d 225a b43d 0423 b8bd
00000100: 3c74 9e3d 5138 0d3e 3c60 bcbd 238e 173e
00000110: 0a06 67bd 90a8 ccbc cd6b 24be cb51 ce3d
00000120: 2218 303d 3aa9 153e c74a c0bd 3c08 e93c
00000130: 767b 7abc d376 183e cd27 3b3d 3dc6 06be
00000140: 5717 cd3d a683 063e b4a1 2f3d b132 6c3d
00000150: 2e5d be3d 5a7c 563d 121a aa3d a9d8 2b3e
00000160: e079 6fbd fa93 09be 78c9 8e3b bdc7 7abd
00000170: c082 ba3a 331e a63d bac5 45bd fa52 45bc
00000180: 4237 a13d 48a1 03be 9cc8 a1bd 6103 c73c
00000190: 94f0 df3d 0daa 913b 2cb0 c83c 4607 103e
000001a0: c59d 2d3e 7781 f6bb 753b 2fbd 8263 1dbd
000001b0: 5b6f 97bd a7d9 ef3d 28b1 67bd 6db6 b53d
000001c0: b9eb f0bd cc9a c9bd 08cd f13d 165c 92bd
000001d0: 6b16 8dbd a9e6 55bd d6f5 0cbd 28b9 26bd
000001e0: cb1a 643c 50c9 19bd cbcc 533d d9f5 ff3d
000001f0: f8f6 07be 0922 1a3e 8d0c cd3d 0cfc 593d
00000200: 02e3 40ba ef6b 0a3e 517b f03d 3263 d2bd
00000210: 159f 0f3d 4030 f4bd 889b f53d a544 ba3d
00000220: c7e2 903c 85b4 0d3e 28d0 083d 0de2 74bd
00000230: 7c5c 09bd 6f43 0dbe bfb2 993d 7055 083c
00000240: efe7 443d 663f c3bd cf50 e73c ce03 53ba
00000250: 1c6e 1e3e 020f c83d af29 1a3e d08e 2dbe
00000260: 51b1 63bd ef0a ffbb 0d2d 263e d847 ee3c
00000270: 69b4 89bd 0f5b e03d b53f 18be 1671 863d
00000280: a8ef 24be 3574 073e fe08 2d3e 8e36 1c3c
00000290: 039f bc3d 0e38 1a3e 50ba 19be 4178 91bd
000002a0: 074d 24bd 048b 88bd 317a 2b3e 017c d83d
000002b0: e6a9 c03d d3a5 103e 8938 46bd 6525 80bb
000002c0: 9c72 bc3d 81a4 633d b57c 69bd 2b1a a93b
000002d0: 921f 213e 1fd2 28be b22e 303e 1a8d 0fbe
000002e0: 48d2 833c 66f7 f93c 5003 29be e727 99bd
000002f0: 735c be3d eb63 2ebe 26b2 8bbd 8f07 a3bd
00000300: a293 0f3c c83a 05be 88a7 e03d 4e29 05be
00000310: af14 9bbd 41c1 fb3d d9c4 283e 7268 bf3c
00000320: 4068 a7bd 2be8 583c 4f99 91bd 5c29 163e
00000330: d57e 80bd a5b9 a53c caf2 7e3c 5331 2fbe
00000340: a40b 5cbd 657d b53d 8f15 963c 0d05 e93c
00000350: 1771 b5bd 788c 1c3e 2cfb 0abe 7487 02be
00000360: 0fc4 08bd b5a8 bd3d 49c2 dabd f71b 56bd
00000370: 99e9 0f3d b6a9 733d 0dbb 60bd f604 c63d
00000380: 8d97 cc3d d5ba 073d 50ce dd3c 6eb1 203e
00000390: 06cd 843d 421f 0bbe b56f 06bd c70c 893d
000003a0: 3da9 85bd 0abe f13d c986 46bd b65b 453d
000003b0: 0441 603c a509 de3b d1cc 5ebc 86b9 ddbb
000003c0: 9033 ffbc c035 77bc 2c17 6ebd de24 e23d
000003d0: 41de b13d 54cc 073e fb16 f93d a64f cd3d
000003e0: 6a29 1cbe 58e9 0b3e f0da 223e 68b2 cebc
000003f0: f4ec 23bd 3c4b 51bd d294 c2bd f69a 1c3d

bn1.weight f4 [400]
0.4500895 0.28676766 0.17537782 0.18832915 0.41768077 0.2873917 0.43305764 0.7751502
0.36661354 0.42565057 0.53187555 0.2296774 0.7598009 0.26395518 0.37714624 0.3281328
0.004300426 0.22951749 0.4002849 0.30109924 0.22778894 0.3421846 0.2616862 0.30968028
0.2039235 0.2407222 0.26556855 0.26761287 0.20350963 0.25635314 0.39855564 0.5835528
0.39121196 0.27312142 0.4621178 0.40712708 0.42902374 0.28169855 0.59614384 0.5273679
0.27355185 0.35381523 0.36042014 0.24931586 0.3213257 0.22498295 0.001440763 0.3311247
0.29377806 0.50491315 0.27244437 -0.0005238562 0.48249167 0.35981163 0.40086958 0.2804265
0.25407884 0.67644 0.33776224 0.527094 0.4056457 0.44252008 0.23958433 0.57724035
0.2619074 0.29957935 0.18800661 0.36338705 0.37598157 0.3383426 0.22717048 0.32761088
0.27409583 0.14552853 0.27036238 0.27755415 0.39450914 0.65372074 0.2541401 0.36237785
0.41683507 0.274083 0.6215836 0.27000087 0.7909711 0.43357015 0.40155035 0.34613127
0.55373204 0.5296121 0.22164536 0.42167875 0.23290028 0.2232801 0.318035 0.25427228
0.3445655 0.14127506 0.32441857 0.7890369 0.32397816 0.78404695 0.24223162 0.37437022
0.35329548 0.3868403 0.43593946 0.57372665 0.40111503 0.42641398 0.24388343 0.18514234
0.3656096 0.29091397 0.7977981 0.3451759 0.21447848 0.39444348 0.32279822 0.38550392
0.41369665 0.28911322 0.46543893 0.33437604 0.41430303 0.21822535 0.33473134 0.23387079
0.36058053 0.3271246 0.68103904 0.33637884 0.32110494 0.41079056 0.15603822 0.5634799
0.5236813 0.3906191 0.3860097 0.366607 0.22894125 0.5762665 0.26387355 -0.00066928833
0.44429022 0.6572965 0.32361063 0.22431801 0.8601611 0.31433266 0.38062313 0.6495676
0.20331715 0.34546435 0.26486263 0.35965595 0.31785947 0.30985603 0.2902967 0.31007838
0.4955837 0.2522626 0.3345043 0.53739834 0.18567836 0.2866056 0.32882982 0.37806034
0.25936887 0.42431977 0.29231036 0.22207089 0.40569046 0.22921315 0.36505583 0.3386598
0.2869267 0.35292715 0.5565328 0.22261883 0.48026976 0.3198466 0.21264984 0.4370537
0.17996004 0.5223554 0.37291726 0.41795164 0.57057476 -0.004593386 0.8404888 0.29058653
0.24418454 0.21154217 0.41066685 0.5190941 0.5166358 0.4798955 0.49090427 0.44250616
0.791725 0.2509389 0.37187776 0.3407105 0.33399293 0.32190394 0.36981001 0.41716477
0.16849138 0.564655 0.29315192 0.45996293 0.39635077 0.55411315 0.22884043 0.57897514
0.24422327 0.44440517 0.32705635 0.31997138 0.30442786 0.44841647 0.17747653 0.32164046
0.37947467 0.2952227 0.28340763 0.26494995 0.2201926 0.3469829 0.42676306 0.6209681
0.5877018 0.32381654 0.68795085 0.51101774 0.39620048 0.40144265 0.30215502 0.5471882
0.28116298 0.353794 0.31646755 0.44069266 0.25277936 -0.005687306 0.44335008 0.2905088
0.32254258 0.36608484 0.32168472 0.30671167 0.3241868 0.3217906 0.39899117 0.24287587
00000000: 2272 e63e 36d3 923e 3e96 333e 5bd9 403e
00000010: 41da d53e 0125 933e bbb9 dd3e 3e70 463f
00000020: c5b4 bb3e dfee d93e ff28 083f 8d30 6b3e
00000030: 5082 423f 2225 873e 5019 c13e 0601 a83e
00000040: 97ea 8c3b a206 6b3e 24f2 cc3e ae29 9a3e
00000050: 8141 693e d232 af3e bcfb 853e 6a8e 9e3e
00000060: 52d1 503e e17f 763e 9af8 873e 8e04 893e
00000070: d464 503e b840 833e 7c0f cc3e b763 153f
00000080: ef4c c83e 92d6 8b3e b49a ec3e f672 d03e
00000090: 00a9 db3e cb3a 903e e29c 183f 9501 073f
000000a0: fd0e 8c3e 4527 b53e fd88 b83e a84c 7f3e
000000b0: cd84 a43e ee61 663e fcd7 bc3a 2d89 a93e
000000c0: 146a 963e fd41 013f d47d 8b3e 6553 09ba
000000d0: 2609 f73e 3b39 b83e c73e cd3e 1094 8f3e
000000e0: 9f16 823e 2c2b 2d3f 2cef ac3e a2ef 063f
000000f0: cbb0 cf3e fe91 e23e 9855 753e 06c6 133f
00000100: ba18 863e 7762 993e ce84 403e de0d ba3e
00000110: a880 c03e 3e3b ad3e 619f 683e 9dbc a73e
00000120: 4a56 8c3e 6e05 153e f06c 8a3e 941b 8e3e
00000130: 1afd c93e 3e5a 273f a71e 823e 9789 b93e
00000140: 686b d53e 9b54 8c3e 1a20 1f3f 8e3d 8a3e
00000150: 157d 4a3f e8fc dd3e 0298 cd3e 1e38 b13e
00000160: 62c1 0d3f a994 073f 00f7 623e 47e6 d73e
00000170: 697d 6e3e 8aa3 643e 7cd5 a23e fa2f 823e
00000180: e46a b03e 69aa 103e 311a a63e 53fe 493f
00000190: 77e0 a53e 4db7 483f 910b 783e 74ad bf3e
000001a0: 25e3 b43e ef0f c63e 7533 df3e c0df 123f
000001b0: f35e cd3e ef52 da3e 94bc 793e f495 3d3e
000001c0: 2e31 bb3e adf2 943e 7f3c 4c3f e5ba b03e
000001d0: 3fa0 5b3e 7ff4 c93e cf45 a53e c560 c53e
000001e0: 0cd0 d33e a606 943e 034e ee3e 5633 ab3e
000001f0: 871f d43e 7776 5f3e e861 ab3e d37b 6f3e
00000200: 039e b83e e07c a73e 9358 2e3f d939 ac3e
00000210: de67 a43e 2453 d23e 7cc8 1f3e 3840 103f
00000220: fa0f 063f 3aff c73e 10a3 c53e eab3 bb3e
00000230: 936f 6a3e 3486 133f 6f1a 873e 2e73 2fba
00000240: 027a e33e 9544 283f 4bb0 a53e 9fb3 653e
00000250: 8533 5c3f 36f0 a03e 09e1 c23e 104a 263f
00000260: 5f32 503e b4e0 b03e 139c 873e d324 b83e
00000270: 7abe a23e 73a5 9e3e c5a1 943e 98c2 9e3e
00000280: 26bd fd3e 9028 813e 2644 ab3e f092 093f
00000290: 7822 3e3e f8bd 923e 625c a83e 2091 c13e
000002a0: ffcb 843e 7140 d93e b4a9 953e 8d66 633e
000002b0: a9b6 cf3e dab6 6a3e 99e8 ba3e d164 ad3e
000002c0: 0ee8 923e deb2 b43e ef78 0e3f 31f6 633e
000002d0: ebe5 f53e efc2 a33e e1c0 593e 81c5 df3e
000002e0: 7247 383e 15b9 053f 03ef be3e c2fd d53e
000002f0: 3011 123f 1d84 96bb 462a 573f c2c7 943e
00000300: 830b 7a3e 839e 583e ed42 d23e 5ae3 043f
00000310: 3e42 043f ddb4 f53e ce57 fb3e 2b90 e23e
00000320: 7dae 4a3f 107b 803e c366 be3e 9b71 ae3e
00000330: 1f01 ab3e 98d0 a43e bd57 bd3e 9f96 d53e
00000340: 0189 2c3e 3b8d 103f 0218 963e 4380 eb3e
00000350: 7dee ca3e 5cda 0d3f 2555 6a3e b737 143f
00000360: aa15 7a3e 1389 e33e ee73 a73e 4ad3 a33e
00000370: f8dd 9b3e d896 e53e 68bc 353e 0fae a43e
00000380: 814a c23e 6e27 973e ce1a 913e 85a7 873e
00000390: 2b7a 613e bea7 b13e b080 da3e c4f7 1e3f
000003a0: a073 163f 48cb a53e 8c1d 303f 0fd2 023f
000003b0: cada ca3e e489 cd3e 10b4 9a3e 8714 0c3f
000003c0: 98f4 8f3e 7d24 b53e 0908 a23e 78a2 e13e
000003d0: 4c6c 813e 955c babb c8fe e23e 92bd 943e
000003e0: 4d24 a53e 796f bb3e dcb3 a43e 5009 9d3e
000003f0: d0fb a53e bdc1 a43e 9248 cc3e 74b4 783e

bn1.bias f4 [400]
-0.48360756 -0.34975597 -0.14587964 -0.3580508 -0.57299554 -0.27202845 -0.61370426 -0.04925153
-0.45546943 -0.12868322 -0.32083744 -0.09380879 -0.071812734 -0.3410334 -0.34346732 -0.3251776
-0.043947734 -0.354662 -0.49084544 -0.6516758 -0.20649153 0.19898716 -0.42531493 -0.43795276
-0.26744217 -0.36425248 -0.4348113 -0.2545167 0.042921208 -0.39572516 -0.49956062 -0.7988436
-0.027496325 -0.19472627 -0.335979 -0.6408413 -0.40172142 -0.31867206 -0.3967832 -0.2081743
-0.46632233 -0.31732163 -0.2495693 -0.3181183 -0.2550322 -0.377003 -0.012727885 -0.38514328
-0.46195728 -0.2124459 -0.2510929 -0.00487556 -0.29110157 -0.4701722 -0.40170887 -0.49394718
-0.1565674 -0.611646 -0.29328296 -0.13146582 -0.3342301 -0.60606307 -0.30352256 -0.18127161
-0.5574016 -0.26968092 -0.2484107 0.087234385 -0.64900005 -0.23614061 -0.3623413 -0.24914873
-0.13582371 -0.106992416 -0.356536 -0.27968147 -0.36010602 -0.4174594 -0.37362853 -0.36397433
-0.6320283 -0.19996713 -0.6920226 -0.5201566 0.3294913 -0.44952142 -0.05347211 -0.44296983
-0.63197166 -0.6295307 -0.439848 -0.5646973 -0.49833176 -0.21885927 -0.3638223 -0.29325524
-0.50777 0.038147964 -0.5838859 -0.5025556 -0.3118698 -0.36934608 -0.31772122 -0.6278763
-0.22382872 -0.58730805 0.1451187 -0.06158638 -0.47096613 -0.6650675 -0.36579135 -0.40900147
-0.3496498 -0.48865718 -0.39089054 -0.24783772 -0.36534846 -0.12170732 -0.2642861 -0.0330419
-0.38883254 -0.32708237 -0.7030699 -0.40071574 -0.2793783 -0.36291245 -0.61980283 -0.3463527
-0.39604884 -0.19066533 -0.34199756 -0.64668924 -0.5342508 -0.53586054 -0.33796886 -0.2677046
-0.41392216 -0.45537287 -0.35606986 -0.397548 -0.11645043 -0.40223175 -0.37920249 -0.013735196
-0.49249238 -0.39939454 0.27990213 -0.35908803 -0.42282337 -0.3979169 -0.47625268 -0.60588694
-0.37755308 -0.44939816 -0.26977104 -0.041095596 -0.398152 0.034204308 -0.6561951 -0.14404015
-0.43307093 -0.08442673 -0.82004535 0.063485645 -0.37681356 -0.32025713 -0.38826284 -0.52497774
-0.3737339 -0.52937746 -0.24974088 -0.02842682 -0.21313415 -0.5377735 -0.07065538 -0.47644264
-0.22784592 -0.6299461 -0.11848355 -0.536562 -0.32550937 -0.4684761 -0.39352313 -0.5154999
-0.23606046 -0.63638055 -0.431692 -0.45934552 0.12601414 -0.04750269 -0.35681045 -0.4919055
-0.35364255 -0.23733468 -0.4347981 -0.22190082 -0.5099815 -0.32050106 -0.61244977 -0.67807055
-0.82493687 -0.28704995 -0.28741604 -0.43792742 -0.124950305 -0.49760458 -0.39291772 -0.40528336
-0.29356635 -0.37563166 -0.3535885 -0.38333336 -0.45071232 -0.7162085 -0.35302895 -0.514668
-0.23255391 -0.76294047 -0.4938306 -0.38587615 -0.50212383 -0.21513122 -0.45755187 -0.44674212
-0.5569415 -0.3954304 -0.35126078 -0.3963343 -0.3559412 -0.300215 -0.40916577 -0.7314066
-0.7361581 -0.37259024 -0.7743004 -0.29252934 -0.5461409 -0.17498109 -0.42657536 -0.16344303
-0.5753662 -0.4541518 -0.26834452 -0.46457228 -0.24997325 -0.06191955 -0.71848786 -0.15279579
-0.502464 -0.44575682 -0.13253535 -0.3024767 -0.43569693 -0.3375651 -0.62401646 -0.33737984
00000000: 699b f7be 3713 b3be 7961 15be 6f52 b7be
00000010: d6af 12bf 5047 8bbe b91b 1dbf f9bb 49bd
00000020: 4a33 e9be 89c5 03be ce44 a4be d31e c0bd
00000030: 8e12 93bd ee9b aebe f3da afbe ae7d a6be
00000040: 8a02 34bd 4296 b5be 1850 fbbe 3ad4 26bf
00000050: 8472 53be 4ac3 4b3e e1c2 d9be 583b e0be
00000060: 2eee 88be 4d7f babe 969f debe 0350 82be
00000070: 26ce 2f3d 7d9c cabe 69c6 ffbe 0481 4cbf
00000080: f93f e1bc 5366 47be 7105 acbe 2d0e 24bf
00000090: 6eae cdbe fc28 a3be 2b27 cbbe a52b 55be
000000a0: cdc1 eebe fb77 a2be 188f 7fbe 67e0 a2be
000000b0: 9593 82be 8a06 c1be 9e88 50bc 8031 c5be
000000c0: aa85 ecbe 6b8b 59be 408f 80be 29c3 9fbb
000000d0: 440b 95be 69ba f0be c9ac cdbe a5e6 fcbe
000000e0: 3453 20be d594 1cbf 2f29 96be fa9e 06be
000000f0: 3520 abbe f326 1bbf 4f67 9bbe 449f 39be
00000100: dfb1 0ebf 9e13 8abe 605f 7ebe f1a7 b23d
00000110: de24 26bf d8ce 71be cd84 b9be d820 7fbe
00000120: 5f15 0bbe d71e dbbd e38b b6be 6932 8fbe
00000130: d15f b8be 3dbd d5be 3d4c bfbe d85a babe
00000140: 9bcc 21bf 2fc4 4cbe 6528 31bf fc28 05bf
00000150: 15b3 a83e ac27 e6be 9205 5bbd f1cc e2be
00000160: e5c8 21bf ed28 21bf c233 e1be 0190 10bf
00000170: 5725 ffbe a51c 60be eb46 babe 8d25 96be
00000180: 37fd 01bf 0a41 1c3d 8c79 15bf 7ca7 00bf
00000190: 66ad 9fbe ee1a bdbe 5bac a2be 80bc 20bf
000001a0: 5b33 65be d259 16bf ff99 143e 0042 7cbd
000001b0: 7922 f1be dd41 2abf 0149 bbbe a468 d1be
000001c0: 4c05 b3be 4631 fabe ce22 c8be 2cc9 7dbe
000001d0: f40e bbbe b041 f9bd 8250 87be f156 07bd
000001e0: 0f15 c7be 5777 a7be 64fc 33bf 9d2a cdbe
000001f0: ac0a 8fbe a9cf b9be 66ab 1ebf 2455 b1be
00000200: eac6 cabe c63d 43be 4e1a afbe 6d8d 25bf
00000210: a9c4 08bf 282e 09bf 410a adbe 9410 89be
00000220: 9bed d3be a226 e9be ca4e b6be 698b cbbe
00000230: 907d eebd 52f1 cdbe d426 c2be 9609 61bc
00000240: f627 fcbe 717d ccbe 554f 8f3e 63da b7be
00000250: 4e7c d8be c4bb cbbe 64d7 f3be 681b 1bbf
00000260: a34e c1be 8417 e6be 6e1f 8abe db53 28bd
00000270: 94da cbbe d119 0c3d 67fc 27bf 437f 13be
00000280: 79bb ddbe ece7 acbd 7eee 51bf c304 823d
00000290: b5ed c0be bef8 a3be 63ca c6be f164 06bf
000002a0: 0d5a bfbe 4885 07bf 13bc 7fbe 5ddf e8bc
000002b0: d73f 5abe 86ab 09bf c5b3 90bd 4af0 f3be
000002c0: 7150 69be 2644 21bf 81a7 f2bd 215c 09bf
000002d0: 2aa9 a6be 19dc efbe dd7b c9be cdf7 03bf
000002e0: d5b9 71be d6e9 22bf bc06 ddbe 562f ebbe
000002f0: da09 013e 2e92 42bd dcaf b6be 0adb fbbe
00000300: a310 b5be dd07 73be db9d debe f839 63be
00000310: 268e 02bf b718 a4be 82c9 1cbf 0896 2dbf
00000320: 102f 53bf 36f8 92be 3228 93be 0638 e0be
00000330: f2e5 ffbd 07c6 febe 832c c9be 4d81 cfbe
00000340: 544e 96be cb52 c0be 8d09 b5be 4544 c4be
00000350: c4c3 e6be 7159 37bf 36c0 b4be 48c1 03bf
00000360: 9d22 6ebe 1150 43bf 5dd7 fcbe 8f91 c5be
00000370: 308b 00bf 5c4b 5cbe 3d44 eabe 62bb e4be
00000380: b893 0ebf da75 cabe 74d8 b3be 54ec cabe
00000390: ed3d b6be c8b5 99be 2d7e d1be 773d 3bbf
000003a0: db74 3cbf 26c4 bebe 8d38 46bf 68c6 95be
000003b0: e4cf 0bbf 3e2e 33be 1668 dabe 9c5d 27be
000003c0: 334b 13bf 9686 e8be 7464 89be 6bdc edbe
000003d0: fdf8 7fbe 5b9f 7dbd d2ee 37bf 8076 1cbe
000003e0: 7ba1 00bf 3d3a e4be 59b7 07be 3ade 9abe
000003f0: ab13 dfbe 55d5 acbe 8bbf 1fbf 0dbd acbe

bn1.running_mean f4 [400]
2.3270464 0.006008793 -0.05701477 -0.9388892 -0.3401161 -0.9216462 -0.47788942 -0.5110079
-0.8291114 0.46407574 0.16372536 0.20237835 -0.29695302 0.8991145 0.041999303 0.023924015
0.030936923 -0.09472447 -0.014018204 -0.10575801 0.31259903 1.4491242 -2.5914414 -0.7595357
1.6051599 -0.18311739 -1.2458616 0.100895055 0.45386258 -0.6098929 -1.5597754 -1.5567997
0.5524203 -0.7378115 -0.075465135 -0.63012516 0.69863313 -0.99718875 -0.025721889 0.21291037
-1.4468962 1.1210325 0.22117531 -0.47751662 -1.5394928 -0.12055956 0.06438899 0.594363
-0.7135898 -0.37973404 -0.15099841 -0.019992067 -1.3824414 0.21925344 0.3481009 -0.8064189
0.081656545 -0.37705657 -0.7782493 0.050284866 0.25983447 -2.14084 0.8403153 0.05976246
0.19236849 -0.61557 -0.3759602 2.8651755 -0.18388066 -0.5065352 -2.5921438 2.0642958
-1.1074971 -1.4572527 0.9282288 1.5031755 1.2102764 -0.2375944 0.5146691 -0.86886364
-1.4985598 0.46201235 -1.4306022 -2.3528874 -1.0519885 0.13151674 -0.08357417 -1.1095854
-0.22475736 -0.7292202 -0.1617577 -0.11972932 -1.7114762 0.35198286 -1.3557594 -2.7328215
1.2008348 -0.3813123 -0.6295505 -0.5923604 -0.7976743 -0.11898505 -1.3093745 -0.77326256
-0.7117827 -0.16078608 0.53706497 -0.41290137 -0.68569744 -1.7617857 -0.16795439 -0.80338746
-0.89800715 -0.19865824 0.09773092 0.42739615 -1.825726 1.2899102 -1.7283899 -0.08487679
-1.242465 -0.6259118 -0.6740087 0.11471065 1.5442787 0.16753274 -2.1648936 0.3943037
-1.8076795 1.9121729 0.3168561 -1.7796752 0.078687854 -0.34739447 -1.5990746 -0.3334165
0.48550823 -0.26428357 -0.5826593 -0.17745419 0.83137345 -1.3202007 -0.32504874 0.11031043
-1.0890716 -0.059187226 -0.87456137 -2.1073892 0.3544588 -0.52888584 0.37859708 -0.46236226
-0.68223524 0.41856772 1.6335 0.09812887 -0.6082892 2.6706858 -0.5844345 1.1454428
-0.7016733 0.55236757 -2.5357893 -0.40628117 -1.5693568 -0.85014504 -0.08347117 -2.1881762
-1.0281576 -0.95644665 0.30872977 0.5489466 -0.23092969 0.21771124 -0.3539455 -1.2741365
1.2351335 -2.1341183 -0.2728505 -0.6196029 0.13060746 0.9660814 -2.213189 -0.22941686
-2.548565 -0.83486176 1.4536998 -1.0737367 1.3105223 -0.32511213 -0.113611996 0.7270639
-0.9499889 -1.331988 0.6580625 -1.6125404 0.08169257 0.03939046 -0.19622485 -0.03595742
-0.04691755 1.7418884 -0.32146907 0.556471 0.3004348 -0.67443067 -1.5043536 -2.3781173
-0.54052943 -0.03710269 0.30799794 1.1274037 0.08399726 -0.1525858 0.28398183 -0.17025271
2.566292 0.22648907 -0.45531246 -0.83293027 0.7141825 -0.57833856 1.1554005 -1.3936305
-1.5347981 -0.66000617 -1.4467824 -1.8084344 -0.3688486 -2.0886364 0.5562685 -0.60925025
0.14137934 1.2799364 -0.9127652 0.29546195 -0.1082267 1.1266207 0.0073316563 0.498303
0.24205324 0.8947171 -0.7750782 -0.29942137 -1.0010601 0.3391063 0.21794386 1.739526
-0.31188354 0.24507153 0.7458161 0.19939665 2.0130553 0.71391106 -1.2250429 0.56245637
00000000: 54ee 1440 69e5 c43b 5288 69bd 0b5b 70bf
00000010: b323 aebe 01f1 6bbf ecad f4be 6ad1 02bf
00000020: a540 54bf 569b ed3e 9fa7 273e 453c 4f3e
00000030: 3a0a 98be 5e2c 663f 7607 2c3d 4cfc c33c
00000040: 6e6f fd3c e7fe c1bd 9cac 65bc a897 d8bd
00000050: fb0c a03e e77c b93f 2dda 25c0 ee70 42bf
00000060: e175 cd3f 2083 3bbe 6578 9fbf 11a2 ce3d
00000070: ad60 e83e f121 1cbf b8a6 c7bf 3645 c7bf
00000080: 6b6b 0d3f 37e1 3cbf 778d 9abd e24f 21bf
00000090: 9fd9 323f c347 7fbf b6b6 d2bc 2d05 5a3e
000000a0: e533 b9bf fe7d 8f3f c87b 623e 0f7d f4be
000000b0: 1a0e c5bf eee7 f6bd 60de 833d 2c28 183f
000000c0: d2ad 36bf 806c c2be 549f 1abe 67c6 a3bc
000000d0: d7f3 b0bf f983 603e 483a b23e 7871 4ebf
000000e0: 8c3b a73d 8f0d c1be 593b 47bf 81f7 4d3d
000000f0: 0609 853e 8603 09c0 e71e 573f 7bc9 743d
00000100: 3ffc 443e ff95 1dbf db7d c0be 095f 3740
00000110: 364b 3cbe 4aac 01bf afe5 25c0 6c1d 0440
00000120: 77c2 8dbf 4287 babf 67a0 6d3f 0e68 c03f
00000130: 56ea 9a3f f24b 73be 5bc1 033f d96d 5ebf
00000140: cfd0 bfbf e28c ec3e f91d b7bf b595 16c0
00000150: 8fa7 86bf 53ac 063e ef28 abbd e506 8ebf
00000160: cb26 66be 2dae 3abf cfa3 25be a534 f5bd
00000170: a711 dbbf 1937 b43e 8689 adbf 8ce6 2ec0
00000180: f4b4 993f 5e3b c3be 392a 21bf eea4 17bf
00000190: 6234 4cbf 6fae f3bd 9599 a7bf 89f4 45bf
000001a0: 6437 36bf 1ba5 24be 177d 093f cf67 d3be
000001b0: de89 2fbf 3282 e1bf 3cfc 2bbe cdaa 4dbf
000001c0: cce3 65bf 116d 4bbe 2627 c83d abd3 da3e
000001d0: 64b1 e9bf c71b a53f e13b ddbf e2d3 adbd
000001e0: 1809 9fbf c13b 20bf d68b 2cbf 6bed ea3d
000001f0: edaa c53f b48d 2b3e 9e8d 0ac0 2de2 c93e
00000200: 0b62 e7bf 15c2 f43f f63a a23e 66cc e3bf
00000210: 1927 a13d b0dd b1be 7aae ccbf 91b5 aabe
00000220: 8994 f83e 2d50 87be 2929 15bf 8db6 35be
00000230: e4d4 543f 56fc a8bf ca6c a6be 6fea e13d
00000240: b366 8bbf 4e6e 72bd 41e3 5fbf 77df 06c0
00000250: a07b b53e 1065 07bf 7ad7 c13e bfba ecbe
00000260: f8a6 2ebf 824e d63e 8716 d13f caf7 c83d
00000270: d7b8 1bbf 84ec 2a40 809d 15bf df9d 923f
00000280: dda0 33bf f667 0d3f 5f4a 22c0 1604 d0be
00000290: afe0 c8bf 1ba3 59bf eff2 aabd 140b 0cc0
000002a0: ab9a 83bf b0d9 74bf d411 9e3e c487 0c3f
000002b0: d578 6cbe b2ef 5e3e 5838 b5be e816 a3bf
000002c0: db18 9e3f 6595 08c0 10b3 8bbe 4c9e 1ebf
000002d0: f6bd 053e 1c51 773f e3a4 0dc0 41ec 6abe
000002e0: b01b 23c0 80b9 55bf d612 ba3f 3470 89bf
000002f0: 32bf a73f 1975 a6be 68ad e8bd dc20 3a3f
00000300: 7932 73bf 957e aabf c976 283f b967 cebf
00000310: 6f4e a73d e457 213d 2bef 48be 1648 13bd
00000320: 9e2c 40bd 33f6 de3f 9897 a4be e274 0e3f
00000330: 97d2 993e 7da7 2cbf a98e c0bf 1333 18c0
00000340: 2360 0abf fef8 17bd e8b1 9d3e c44e 903f
00000350: c106 ac3d 743f 1cbe 1166 913e ba56 2ebe
00000360: 213e 2440 c0ec 673e b71e e9be eb3a 55bf
00000370: aad4 363f ff0d 14bf 2ae4 933f 7c62 b2bf
00000380: 4474 c4bf 2af6 28bf 2a30 b9bf c77a e7bf
00000390: b9d9 bcbe 38ac 05c0 9d67 0e3f d3f7 1bbf
000003a0: bfc5 103e f5d4 a33f fbaa 69bf ca46 973e
000003b0: f6a5 ddbd 1b35 903f 643e f03b 9221 ff3e
000003c0: cedc 773e 2e0c 653f 866b 46bf c24d 99be
000003d0: bd22 80bf 579f ad3e ad2c 5f3e caa8 de3f
000003e0: 33af 9fbe 08f4 7a3e ceed 3e3f a32e 4c3e
000003f0: e6d5 0040 e0c2 363f 35ce 9cbf 24fd 0f3f

bn1.running_var f4 [400]
8.789666 3.18647 1.187007 3.121568 4.07753 4.5054555 0.22828133 11.07251
4.2206078 2.8522038 3.6387255 1.7563035 17.108578 8.937294 0.32847655 7.105741
0.12070368 1.4176905 4.5461574 0.8287792 4.3045263 4.7267513 0.9618797 2.471651
3.795818 3.1113167 2.811437 2.775619 1.8151596 5.962549 3.923433 3.1240017
5.0377145 3.055495 3.153923 1.9586676 2.379601 3.7259855 2.2489471 5.0848937
1.2269591 10.115643 6.6829467 3.1926649 2.191858 2.1492481 0.05022861 9.537865
5.9123125 3.0184777 5.7821207 0.030640606 2.9825377 1.0528316 1.8501356 2.0131783
3.3161445 2.3514936 3.0230403 0.76862335 1.3216574 1.9247295 8.894442 2.572558
0.8249098 0.9619112 2.755774 6.4242525 2.4394763 3.5363867 2.803205 2.227968
4.938202 2.2125068 5.1300006 4.9588046 2.924062 2.1998441 4.5255704 1.9786427
10.111585 1.220543 2.7566726 2.1989822 25.39163 0.5081052 13.956168 7.8999453
3.7123678 2.2601376 2.9180498 1.4960593 1.576159 0.22430392 3.2385497 2.5350113
3.1991136 4.621756 2.5848403 2.7003963 2.62573 2.1677897 1.8601736 1.9975967
4.1086745 2.9386775 5.3751726 8.002371 13.510106 3.8566606 2.235463 2.8589292
3.6077461 1.5927843 2.9970531 4.31105 1.9942703 2.0722861 4.1083283 1.1100918
5.598241 1.1935562 1.5301275 1.614499 2.921547 0.23577318 5.3071365 1.2049977
2.3885407 5.833724 1.4704474 1.4994588 6.714232 8.308376 1.618398 2.7760694
2.5774171 2.2865922 0.7670248 5.725507 6.6690946 1.0991731 2.4556057 0.26505867
1.8089591 1.9384178 25.741306 2.0465162 1.832621 2.1139143 1.4074395 2.9976566
2.0091553 1.6791798 3.8588758 4.879207 6.5176206 3.573565 2.7184587 4.090874
2.2860866 4.264729 3.1205304 8.771214 2.3049963 20.718847 4.900654 2.381246
3.3707392 1.3623232 7.92881 6.388541 5.001934 3.2946732 2.1241539 0.82459694
4.6471357 4.9392314 2.0590107 2.0717654 2.418494 3.012928 1.6413816 2.2006106
2.2899973 1.4599036 2.0167475 5.754003 25.174587 0.15447964 2.4914277 1.3473302
2.2455306 2.7465057 1.7742232 15.824424 2.5363274 2.4576035 2.5686407 0.20382808
1.391459 3.9682066 4.0245256 1.891452 2.106327 0.6916139 8.601673 4.0938296
2.4699764 2.9608862 1.4385206 10.4949875 2.4087813 2.5791886 1.4949112 2.3607407
3.3673348 4.848275 5.2367334 2.6652646 5.297211 1.9527829 3.8729854 2.3515358
5.4624004 1.2335303 2.3499813 10.424318 2.3230247 4.7368245 4.846592 1.0809724
1.4513758 4.2580338 2.8444908 3.5027194 6.722184 4.203804 0.45198947 5.8674436
3.1251752 2.0010314 6.399897 7.151769 3.6544473 0.09236823 4.3002477 8.261918
0.37983936 2.5531056 2.4664812 3.6277485 2.5640817 4.1025934 4.8538985 4.7165966
00000000: 79a2 0c41 20ef 4b40 d8ef 973f c5c7 4740
00000010: 207b 8240 b12c 9040 95c2 693e 0029 3141
00000020: 380f 8740 828a 3640 e1e0 6840 8ece e03f
00000030: 5ede 8841 28ff 0e41 142e a83e 3b62 e340
00000040: 7e33 f73d e276 b53f 1f7a 9140 e02a 543f
00000050: aebe 8940 8c41 9740 bf3d 763f 882f 1e40
00000060: afee 7240 d01f 4740 95ee 3340 bea3 3140
00000070: 2657 e83f 34cd be40 8719 7b40 a5ef 4740
00000080: f534 a140 3b8d 4340 e0d9 4940 9fb5 fa3f
00000090: 624b 1840 8c76 6e40 c0ee 0f40 73b7 a240
000000a0: ff0c 9d3f acd9 2141 b3da d540 9f54 4c40
000000b0: 6747 0c40 488d 0940 84bc 4d3d 189b 1841
000000c0: aa31 bd40 bd2e 4140 2207 b940 0202 fb3c
000000d0: e6e1 3e40 30c3 863f 3ed1 ec3f ead7 0040
000000e0: b63b 5440 df7e 1640 7e79 4140 80c4 443f
000000f0: 122c a93f 895d f63f a24f 0e41 caa4 2440
00000100: 4a2d 533f d03f 763f 9a5e 3040 7a93 cd40
00000110: 6120 1c40 2954 6240 b667 3340 0797 0e40
00000120: c005 9e40 b699 0d40 f728 a440 87ae 9e40
00000130: d523 3b40 3fca 0c40 79d1 9040 2a44 fd3f
00000140: 0dc9 2141 c13a 9c3f 536d 3040 20bc 0c40
00000150: 0f22 cb41 2f13 023f 774c 5f41 5acc fc40
00000160: 6f97 6d40 18a6 1040 54c1 3a40 df7e bf3f
00000170: 94bf c93f edaf 653e 6644 4f40 a03d 2240
00000180: 47be 4c40 6de5 9340 066e 2540 4bd3 2c40
00000190: f60b 2840 11bd 0a40 2b1a ee3f 40b1 ff3f
000001a0: 437a 8340 4b13 3c40 6a01 ac40 b609 0041
000001b0: 6529 5841 87d3 7640 d311 0f40 b2f8 3640
000001c0: 50e5 6640 5be0 cb3f b8cf 3f40 1ff4 8940
000001d0: 4044 ff3f 56a0 0440 6d77 8340 7d17 8e3f
000001e0: ca24 b340 73c6 983f 38db c33f e7a7 ce3f
000001f0: a0fa 3a40 866e 713e 10d4 a940 5d3d 9a3f
00000200: dadd 1840 dead ba40 9f37 bc3f 44ee bf3f
00000210: fdda d640 1cef 0441 aa27 cf3f 1fab 3140
00000220: 67f4 2440 8757 1240 bd5b 443f 5a37 b740
00000230: 3969 d540 b4b1 8c3f a528 1d40 c5b5 873e
00000240: f98b e73f 131e f83f 32ee cd41 1ffa 0240
00000250: 5393 ea3f 5f4a 0740 fa26 b43f 9bd9 3f40
00000260: 0096 0040 5def d63f d2f7 7640 7722 9c40
00000270: 5990 d040 4ab5 6440 3afb 2d40 71e8 8240
00000280: 3e4f 1240 a978 8840 c5b6 4740 e456 0c41
00000290: 0f85 1340 33c0 a541 28d2 9c40 5666 1840
000002a0: 31ba 5740 9b60 ae3f d0b8 fd40 ee6e cc40
000002b0: d80f a040 eddb 5240 23f2 0740 c918 533f
000002c0: 56b5 9440 2f0e 9e40 d5c6 0340 ce97 0440
000002d0: 9bc8 1a40 d0d3 4040 cb18 d23f ced6 0c40
000002e0: 518f 1240 1fde ba3f 6412 0140 cb20 b840
000002f0: 8e65 c941 e92f 1e3e 8d73 1f40 5175 ac3f
00000300: c6b6 0f40 c0c6 2f40 bf19 e33f d730 7d41
00000310: 3053 2240 6049 1d40 9c64 2440 4fb8 503e
00000320: 541b b23f 19f7 7d40 eac8 8040 191b f23f
00000330: 10ce 0640 9c0d 313f 74a0 0941 a700 8340
00000340: 1814 1e40 297f 3d40 7121 b83f 78eb 2741
00000350: 7929 1a40 6d11 2540 4059 bf3f 6016 1740
00000360: 6a82 5740 1225 9b40 5293 a740 b293 2a40
00000370: c182 a940 caf4 f93f fede 7740 907f 1640
00000380: fccb ae40 52e4 9d3f 1866 1640 02ca 2641
00000390: 70ac 1440 1194 9740 4817 9b40 4e5d 8a3f
000003a0: afc6 b93f d041 8840 230c 3640 8e2c 6040
000003b0: 221c d740 9085 8640 2a6b e73e 19c2 bb40
000003c0: df02 4840 e610 0040 f5cb cc40 4bdb e440
000003d0: 77e2 6940 8e2b bd3d a19b 8940 d130 0441
000003e0: 4e7a c23e 1566 2340 d4da 1d40 082d 6840
000003f0: ea19 2440 7248 8340 2353 9b40 5cee 9640

fc2.weight f4 [300, 404]
0.10508841 0.12322237 -0.09715307 0.23781164 0.0013615681 0.22961253 -0.042627305 0.057820614
0.03783741 -0.35856014 0.041748617 -0.04345832 0.13503057 0.3651031 -0.36718616 0.14718178
-0.034441568 -0.010871225 0.16781968 -0.3395331 -0.057092864 0.06757747 -0.10441138 0.24535143
-0.024783248 0.18905221 0.107072845 0.096998446 -0.28764915 0.36889693 -0.22830096 -0.15835904
-0.22556464 0.0078319125 -0.40795025 -0.10808477 -0.022916278 0.09721144 0.030461289 -0.08526518
0.007768762 0.07014598 0.043625094 0.21844147 0.18087341 -0.07768321 -0.004106471 0.006713013
-0.26054424 -0.010055481 -0.045722473 0.04918623 -0.16724291 -0.47487944 -0.08870572 -0.27361298
0.08376556 0.36663675 0.04491924 0.056429382 -0.08531743 -0.020419331 0.04982733 -0.03968762
-0.12286657 -0.32245594 0.047977418 0.09755644 -0.09133394 0.022684567 -0.14158544 -0.0059709884
-0.14142661 0.6842279 -0.062093455 -0.059369765 0.21266048 0.09783551 0.006681906 -0.12574154
-0.053460523 -0.105154015 -0.13859947 -0.09615661 -0.12181782 -0.12610084 -0.083913706 0.1370794
0.12557504 0.15868832 0.05857402 -0.050255686 0.3729633 0.10760303 -0.03457463 -0.28827128
0.017958926 0.14229223 -0.052752372 0.09042015 -0.017491367 -0.047645424 -0.039568458 -0.028337374
0.23023716 -0.03974518 0.0131962905 0.106225036 -0.9155746 0.17730886 0.24719673 0.15320319
0.19047557 0.17889585 0.04460982 0.14775759 0.08458203 0.1788212 -0.21898575 0.018950341
0.04224886 0.2559917 -0.21745728 0.09139915 0.042181812 0.043837506 -0.105571434 -0.18700555
-0.046576086 -0.081856236 -0.34229133 -0.029544847 0.15273187 0.24933483 0.11028686 0.07337093
-0.71090657 -0.024265196 -0.25792244 -0.3073326 0.12571603 -0.061423372 -0.16764034 0.015594141
-0.107752696 -0.12704442 -0.2984179 0.3579262 -0.52693903 0.06157398 -0.15174659 0.120795146
-0.0752379 0.014869923 -0.5397182 0.000756511 0.13676715 0.0523272 0.13216111 0.043948933
-0.32243422 -0.31027448 0.03608393 -0.17645375 0.23615454 0.34853414 0.051933605 -0.16211355
-0.11947072 -0.41376138 -0.07374146 0.11741994 0.07250026 0.11229738 -0.34491712 0.12841876
-0.08739191 0.09678896 -0.044351127 0.27129832 0.026587328 0.10453317 0.10757904 -0.08873787
-0.27345738 -0.13472955 -0.26266897 -0.010363407 0.19156758 0.0126784975 -0.9228202 -0.32677054
0.41756108 0.108556844 -0.11357067 -0.08094326 -0.28218448 -0.2124551 -0.37887108 0.19202538
0.06766432 0.24609655 -0.13197392 -0.07904461 -0.028572284 -0.003623665 0.030408615 -0.0022671665
0.2725465 0.20709789 -0.08103637 0.13909824 -0.051762182 -0.20846345 0.16769747 0.070207134
0.21107674 -0.008364751 -0.17977107 0.09067382 0.089542784 0.06683647 -0.08992735 0.0067328294
0.12031889 -0.00754791 -0.0008025457 -0.1908365 -0.058609262 0.27141437 0.29481563 -0.052092496
-0.07670635 -0.26545042 0.0437599 -0.18657298 -0.0082392525 0.073415704 -0.19703206 0.082676895
-0.043940187 0.2407051 0.017326223 0.010298032 -0.27336505 -0.055436164 -0.008904408 -0.08937804
-0.16315043 0.13563116 0.01769982 0.08998607 0.1794212 -0.48835525 0.31632492 0.09510144
00000000: 9838 d73d 035c fc3d 30f8 c6bd e584 733e
00000010: a576 b23a 8c1f 6b3e f899 2ebd 4fd5 6c3d
00000020: 66fb 1a3d 3295 b7be 9900 2b3d 5a01 32bd
00000030: 7445 0a3e cbee ba3e d3ff bbbe d2b6 163e
00000040: 9a12 0dbd 391d 32bc ecd8 2b3e 48d7 adbe
00000050: 35da 69bd 0e66 8a3d a2d5 d5bd 683d 7b3e
00000060: 3d06 cbbc e796 413e 0249 db3d 1fa7 c63d
00000070: c046 93be 0fe0 bc3e bac7 69be df28 22be
00000080: 6bfa 66be 6c51 003c dbde d0be 8c5b ddbd
00000090: ebba bbbc cb16 c73d f489 f93c 839f aebd
000000a0: 1991 fe3b b2a8 8f3d 3ab0 323d 1faf 5f3e
000000b0: e136 393e 6018 9fbd 938f 86bb d6f8 db3b
000000c0: 0e66 85be bfbf 24bc 7d47 3bbd 8077 493d
000000d0: ba41 2bbe 6623 f3be 58ab b5bd 0017 8cbe
000000e0: 478d ab3d d0b7 bb3e 3dfd 373d 7f22 673d
000000f0: e8ba aebd 7146 a7bc be17 4c3d 7c8f 22bd
00000100: 78a1 fbbd f218 a5be f883 443d accb c73d
00000110: 4a0d bbbd fcd4 b93c c6fb 10be 48a8 c3bb
00000120: 23d2 10be 8f29 2f3f b555 7ebd b62d 73bd
00000130: abc3 593e fc5d c83d e4f3 da3b 64c2 00be
00000140: 6cf9 5abd fd5a d7bd 05ed 0dbe c2ed c4bd
00000150: 9f7b f9bd 9420 01be f3da abbd 8b5e 0c3e
00000160: be96 003e 317f 223e 50eb 6f3d e8d8 4dbd
00000170: 0cf5 be3e fa5e dc3d 219e 0dbd 4b98 93be
00000180: 991e 933c 0eb5 113e df12 58bd 332e b93d
00000190: 0e4a 8fbc d927 43bd 8912 22bd c823 e8bc
000001a0: 4ac3 6b3e d8cb 22bd 4135 583c 838c d93d
000001b0: 1963 6abf 7490 353e 2421 7d3e 4ce1 1c3e
000001c0: 070c 433e 7930 373e c9b8 363d c44d 173e
000001d0: 5839 ad3d e81c 373e cd3d 60be bf3d 9b3c
000001e0: 240d 2d3d 5811 833e 1fad 5ebe 7a2f bb3d
000001f0: d6c6 2c3d f58e 333d d635 d8bd 627e 3fbe
00000200: 91c6 3ebd 3ea4 a7bd cf40 afbe 0908 f2bc
00000210: be65 1c3e a151 7f3e 14de e13d 8043 963d
00000220: f9fd 35bf cec7 c6bc 690e 84be b35a 9dbe
00000230: b4bb 003e 1397 7bbd e9a9 2bbe 917e 7f3c
00000240: 72ad dcbd ef17 02be 3bca 98be 1a42 b73e
00000250: 7ae5 06bf ff34 7c3d 7563 1bbe 7263 f73d
00000260: 5416 9abd faa0 733c f92a 0abf 9850 463a
00000270: b00c 0c3e 0c55 563d 3e55 073e cc03 343d
00000280: 1916 a5be 4cdc 9ebe becc 133d 4bb0 34be
00000290: 7fd2 713e 1173 b23e 55b8 543d 1801 26be
000002a0: 11ad f4bd 88d8 d3be c305 97bd de79 f03d
000002b0: 047b 943d 2bfc e53d fa98 b0be 3580 033e
000002c0: 88fa b2bd 4a39 c63d 87a9 35bd 9de7 8a3e
000002d0: abcd d93c 7d15 d63d 6652 dc3d 33bc b5bd
000002e0: 9b02 8cbe 8bf6 09be 8c7c 86be 48cb 29bc
000002f0: 4b2a 443e 79b9 4f3c f23d 6cbf 784e a7be
00000300: 91ca d53e 0d53 de3d bd97 e8bd 94c5 a5bd
00000310: 7c7a 90be d48d 59be 64fb c1be 4da2 443e
00000320: 9793 8a3d bc00 7c3e 2c24 07be 24e2 a1bd
00000330: 6c10 eabc 037b 6dbb 7d1b f93c be94 14bb
00000340: 378b 8b3e 7811 543e 65f6 a5bd c56f 0e3e
00000350: 9504 54bd 7177 55be e3b8 2b3e c2c8 8f3d
00000360: 8024 583e 4f0c 09bc e815 38be 32b3 b93d
00000370: 3562 b73d 8fe1 883d d52b b8bd 119f dc3b
00000380: c069 f63d 7554 f7bb ee61 52ba a56a 43be
00000390: 4410 70bd d3f6 8a3e 13f2 963e f15e 55bd
000003a0: 3818 9dbd 1ee9 87be 953d 333d fd0c 3fbe
000003b0: eefd 06bc f95a 963d c6c2 49be 8152 a93d
000003c0: a0fa 33bd 667b 763e b9ef 8d3c 14b9 283c
000003d0: 81f6 8bbe 0811 63bd cbe3 11bc d50b b7bd
000003e0: e810 27be e5e2 0a3e 37ff 903c 9e4a b83d
000003f0: 31ba 373e b309 fabe 57f5 a13e 8bc4 c23d

fc2.bias f4 [300]
0.35580963 -0.19372314 0.19792023 -0.013833302 -0.10186072 0.23392442 -0.029140987 0.03418314
-0.029291283 -0.19933803 0.14027253 0.1344521 0.06749711 -0.027666688 -0.07257236 -0.14966187
-0.3022246 -0.090021014 0.30717865 -0.085090466 -0.18812683 -0.121271804 -0.19773576 -0.08913442
-0.34757382 -0.23323183 -0.058245014 -0.0963822 -0.041377816 -0.047148816 0.07720063 -0.24401553
-0.16785033 -0.06985797 0.20265304 0.13337965 -0.061614104 -0.025317488 0.18189032 0.33236566
0.27843276 -0.019720491 -0.03423313 -0.17176962 0.32864285 0.15507893 -0.040823434 -0.18434368
-0.101943314 -0.042323247 -0.045955844 -0.28212678 0.08247692 -0.21241413 0.2939834 -0.12515892
-0.26127508 -0.052684348 -0.08965852 0.018555043 0.042220414 -0.021234317 -0.22481038 -0.12750487
0.061682224 0.011356238 -0.1136094 -0.16096123 -0.19170019 -0.08386301 0.40370512 -0.011166057
-0.21128877 -0.11373444 0.06477583 0.060273908 -0.110182755 -0.04384845 -0.23919638 -0.21925333
0.08425482 -0.25990143 0.058452886 0.21737361 -0.19004479 -0.2699247 -0.15852024 -0.061714366
0.29385078 0.03067616 -0.15327604 -0.06823969 -0.06644073 -0.15418606 0.35102203 -0.091874145
0.5414141 0.44461715 -0.246521 -0.16364463 -0.20857638 0.34473714 0.1734873 -0.0273695
-0.069279425 0.36471507 -0.09592831 -0.22675994 0.2678094 -0.163981 -0.0212817 0.1007015
-0.09879424 -0.25175723 0.07604029 -0.07312939 -0.076385245 -0.0901372 -0.12900311 -0.19980201
-0.018231839 -0.16648446 -0.060717363 0.3448906 -0.05588364 0.074382156 0.14651696 -0.11031418
0.3809989 -0.2724317 -0.107393205 0.015899437 -0.067246184 -0.06698798 -0.23291802 -0.11898075
-0.056763124 0.16645905 -0.2843168 0.41064987 0.14255267 -0.066416815 -0.11458226 0.33860922
-0.044572145 0.09572875 -0.0043474934 -0.04771239 -0.03608151 0.24044307 0.21293321 -0.016154394
-0.25106993 -0.059911415 -0.1766485 0.031554993 -0.086741365 0.2917528 -0.059635215 0.4509948
-0.07649209 -0.10120361 0.11098676 -0.21197654 -0.098996684 -0.058361504 0.0051379977 -0.035329033
0.2727595 -0.02497882 0.28480175 0.2850526 0.31111595 0.15871307 -0.028153997 -0.040156744
-0.10406787 -0.038511217 -0.039918378 0.20189986 0.10135925 0.1290591 -0.1524782 -0.07374517
-0.014286815 0.24929063 0.118388765 0.34710652 -0.1406577 0.30666932 -0.0625851 0.09988598
0.07828993 -0.03703591 0.51643986 -0.23069566 0.049401205 0.46511444 -0.13611604 -0.07093127
-0.0872947 -0.11703989 0.05383669 -0.06212419 -0.23007558 -0.11680046 -0.07454471 -0.01828471
-0.013997397 -0.07398619 0.027324975 0.19286445 -0.28927007 -0.16727851 -0.020390041 -0.08687484
0.12331684 -0.18755095 -0.18810399 -0.1483918 0.2362218 -0.012852427 -0.101362534 -0.13315198
-0.05129808 -0.016591046 0.29251108 -0.036808662 0.3612478 -0.060463212 0.0023672362 0.41065615
0.022598935 -0.07561122 0.007462544 -0.23424779 -0.043064997 -0.20628011 0.30661312 0.1333476
-0.054211512 0.6785556 -0.29660153 0.20524547 0.17212877 -0.27376783 -0.07805432 -0.10531538
0.41219354 0.0053338883 -0.16932806 -0.09469983 -0.23091654 -0.10692985 -0.0692285 -0.16468458
00000000: ae2c b63e 5c5f 46be 9aab 4a3e 13a5 62bc
00000010: 5a9c d0bd e289 6f3e 14b9 eebc 9f03 0c3d
00000020: 46f4 efbc 451f 4cbe 9aa3 0f3e d0ad 093e
00000030: ed3b 8a3d 40a5 e2bc d1a0 94bd f640 19be
00000040: 2fbd 9abe f05c b8bd 8546 9d3e e943 aebd
00000050: 52a4 40be 5a5d f8bd 3e7b 4abe 1b8c b6bd
00000060: 32f5 b1be 53d4 6ebe 5392 6ebd 0864 c5bd
00000070: c97b 29bd 1e1f 41bd 5d1b 9e3d 35df 79be
00000080: f5e0 2bbe b211 8fbd 4784 4f3e ad94 083e
00000090: 125f 7cbd 9f66 cfbc 7541 3a3e d52b aa3e
000000a0: bd8e 8e3e de8c a1bc 0a38 0cbd 60e4 2fbe
000000b0: e043 a83e 03cd 1e3e 7936 27bd 97c4 3cbe
000000c0: a8c7 d0bd 245b 2dbd 323c 3cbd ec72 90be
000000d0: a9e9 a83d 1783 59be fe84 963e a929 00be
000000e0: d9c5 85be 8bcb 57bd e39e b7bd bf00 983c
000000f0: 50ef 2c3d 97f3 adbc b134 66be a390 02be
00000100: 80a6 7c3d 840f 3a3c 0cac e8bd 05d3 24be
00000110: 0e4d 44be 5fc0 abbd 70b2 ce3e d6f1 36bc
00000120: 155c 58be 9aed e8bd 31a9 843d c6e1 763d
00000130: 7fa7 e1bd 6f9a 33bd e5ef 74be f283 60be
00000140: cb8d ac3d cd11 85be 4b6c 6f3d 3097 5e3e
00000150: 1a9b 42be 9233 8abe 2153 22be 34c8 7cbd
00000160: 9c73 963e 924c fb3c 65f4 1cbe 40c1 8bbd
00000170: 1412 88bd f3e2 1dbe 29b9 b33e 8328 bcbd
00000180: 1d9a 0a3f dca4 e33e 0070 7cbe 7592 27be
00000190: 0c95 55be 6381 b03e a8a6 313e 0036 e0bc
000001a0: 5fe2 8dbd efbb ba3e 1076 c4bd c233 68be
000001b0: 501e 893e a3ea 27be f656 aebc 973c ce3d
000001c0: a254 cabd 53e6 80be 03bb 9b3d ddc4 95bd
000001d0: de6f 9cbd da99 b8bd 6419 04be e698 4cbe
000001e0: f05a 95bc e77a 2abe c5b2 78bd 8095 b03e
000001f0: 3ee6 64bd ac55 983d 8b08 163e 67ec e1bd
00000200: 4a12 c33e 2b7c 8bbe f8f0 dbbd 893f 823c
00000210: 5eb8 89bd fe30 89bd 1082 6ebe 2eac f3bd
00000220: 7380 68bd 3e74 2a3e f991 91be b340 d23e
00000230: 54f9 113e 8a05 88bd 1baa eabd 305e ad3e
00000240: 4891 36bd 6f0d c43d 6b75 8ebb 116e 43bd
00000250: 35ca 13bd b536 763e 2a0b 5a3e 3856 84bc
00000260: 3d8c 80be ac65 75bd 58e3 34be cf3f 013d
00000270: 75a5 b1bd 9f60 953e 0e44 74bd cae8 e63e
00000280: e3a7 9cbd d743 cfbd 074d e33d 6110 59be
00000290: c6be cabd 790c 6fbd a65c a83b 2db5 10bd
000002a0: 22a7 8b3e 62a0 ccbc 89d1 913e 6af2 913e
000002b0: 974a 9f3e ae85 223e 36a3 e6bc 667b 24bd
000002c0: 8921 d5bd f0bd 1dbd 7481 23bd d6be 4e3e
000002d0: 7095 cf3d 1228 043e 3f23 1cbe b507 97bd
000002e0: 3f13 6abc 0b46 7f3e cf75 f23d f2b7 b13e
000002f0: 9208 10be c303 9d3e 9e2c 80bd 0591 cc3d
00000300: 7956 a03d f7b2 17bd 6735 043f 7c3b 6cbe
00000310: eb58 4a3d 7b23 ee3e 0162 0bbe 6a44 91bd
00000320: 90c7 b2bd 9cb2 efbd dc83 5c3d ef75 7ebd
00000330: ef98 6bbe 1435 efbd e6aa 98bd d1c9 95bc
00000340: 5755 65bc 1286 97bd a0d8 df3c 427e 453e
00000350: 351b 94be 0f4b 2bbe 0409 a7bc 70eb b1bd
00000360: 8a8d fc3d 5b0d 40be 559e 40be 05f4 17be
00000370: 21e4 713e fc92 52bc 2997 cfbd fe58 08be
00000380: ef1d 52bd f2e9 87bc 03c4 953e aec4 16bd
00000390: 79f5 b83e 46a8 77bd a223 1b3b 8641 d23e
000003a0: 6721 b93c 0eda 9abd 5b88 f43b a7de 6fbe
000003b0: ec64 30bd 183b 53be 65fc 9c3e 468c 083e
000003c0: e40c 5ebd d2b5 2d3f 28dc 97be de2b 523e
000003d0: 8642 303e 4c2b 8cbe f1da 9fbd 97af d7bd
000003e0: 080b d33e e6c7 ae3b 5664 2dbe fcf1 c1bd
000003f0: 6375 6cbe 0afe dabd acc7 8dbd 13a3 28be
