checkpoint_critic.pth (torch_old, 549449 bytes, 9 tensors)

fcs1.weight f4 [400, 33]
000000 b3 d1 01 3d 80 f1 70 3e 70 cf 94 3b 18 8f 5b be
       0.031694125 0.23529625 0.00454133 -0.21441305
000010 4e cc 26 3f e4 39 c1 be ce be 81 3f 2f f6 f6 3d
       0.65155494 -0.3773948 1.0136354 0.120586745
000020 47 08 da 3e 56 6e c1 3e 1f 79 d8 bc 9d 2e 26 be
       0.4258444 0.37779492 -0.026424943 -0.16228719
000030 a8 26 a7 3d 56 4e df 3c 9e 5c 95 bf e0 23 c1 bb
       0.0816167 0.027259033 -1.166889 -0.005894169
000040 ff ad 27 bf 96 53 4e 3f c6 47 b4 3e 7e 91 98 be
       -0.6549987 0.8059629 0.3521101 -0.29798502
000050 17 7f 87 bd 4a 94 88 3d 46 57 d0 bd 51 aa d6 3c
       -0.06616037 0.06668909 -0.10172896 0.02620426
000060 be be 58 be 78 f9 31 3c 68 d4 4c 3e 5e 40 3c 3d
       -0.21166512 0.010862701 0.20002902 0.045959823
000070 74 4c 82 3e 26 0f f1 3c e2 31 ad 3c 7b d3 4a bd
       0.25448954 0.029426169 0.02114195 -0.04951809
000080 f5 24 30 bd 87 80 d8 3e 48 cb 0f 3e c1 b4 9a 3d
       -0.043003995 0.4228556 0.1404239 0.07554007
000090 46 4e 2f bf 28 e8 59 3e 18 34 e0 be 1c 5f 32 3e
       -0.6847881 0.21279967 -0.43789744 0.17419094
0000a0 d1 6f 02 3c af 6f 6f be 7f 35 2e 3f 7e 4d aa 3e
       0.007961229 -0.23382448 0.6805038 0.33262247
0000b0 3f 08 a3 bd db bf 23 3c 29 50 66 3e e1 5e 93 3e
       -0.07960557 0.009994472 0.22491516 0.28783324
0000c0 91 d7 df bd c2 39 c8 bd cc 12 08 bf a6 09 28 bf
       -0.10929788 -0.097766414 -0.5315368 -0.6563972
0000d0 ab f2 0d 3f 1e 4b 93 3e e3 07 20 3d ea b5 04 be
       0.55448407 0.28768247 0.03907002 -0.1296002
0000e0 3f a3 f3 3e 76 1d 87 3e 6f 59 82 3e e7 d2 53 be
       0.47585484 0.26389664 0.25458857 -0.20685922
0000f0 05 1d 3e bb 31 94 d6 3e 05 f9 2b 3d 20 37 02 3c
       -0.0029008996 0.41909936 0.04198553 0.007947713
000100 00 56 19 bd 19 21 d9 3d fa 6a b7 3e bc 49 c1 3e
       -0.03743553 0.10602016 0.35823804 0.37751567
000110 a1 ca a3 3e 3c d2 0e bf 74 54 50 3f 9b fb 8f 3e
       0.3199053 -0.5578954 0.81378865 0.28121647
000120 f5 8c 83 bf 3e c8 06 3d eb d1 68 3d 8b 6a 48 bf
       -1.0277392 0.03290581 0.05684082 -0.7828757
000130 74 b2 0c 3d e3 6e 21 bd dc d2 8a 3c 03 30 92 be
       0.034349874 -0.03941239 0.016946249 -0.28552255
000140 41 20 48 3f 08 00 92 bc ed ea 22 bf ed f9 9d be
       0.78174216 -0.01782228 -0.6363972 -0.3085474
000150 53 05 ff be 72 58 15 bf 00 a7 55 be 42 cf f0 3d
       -0.4980875 -0.5833808 -0.20864487 0.11758281
000160 04 8b d2 bd 02 66 14 3e 23 1d a9 be ce 5f d8 3e
       -0.102804214 0.14492038 -0.33030042 0.42260593
000170 d5 6e 30 3c f3 05 48 bd 89 f9 89 bd 27 f5 0d 3d
       0.010768612 -0.0488338 -0.06737048 0.034657624
000180 f9 8f 67 3c 35 28 48 3d 13 03 31 bf bd b3 d0 be
       0.014133447 0.04886647 -0.69145316 -0.4076213
000190 66 db 0e bf ab b7 c6 be f5 dc 41 3d 3c 8d 52 3f
       -0.55803525 -0.38812003 0.04732986 0.82246757
0001a0 d3 5b aa bf 81 9c 06 3f 10 c4 1a 3b 0b 99 ec be
       -1.3309273 0.52582556 0.0023615398 -0.46210513
0001b0 ce 62 67 3e f9 d0 8b 3d 38 8b 05 be 8b 7f 85 3d
       0.22596285 0.06826968 -0.13041389 0.065184675
0001c0 c8 56 81 3e e2 e7 90 3d 92 f8 89 3e ce 83 4b be
       0.2526152 0.07075478 0.26947457 -0.19874498
0001d0 78 8c 2b be 8d 84 32 3e e6 18 26 3f b3 37 b9 3d
       -0.16752803 0.17433377 0.6488174 0.09043827
0001e0 ce f8 10 be d4 51 10 be 62 88 61 3e f3 25 e6 3c
       -0.14157411 -0.14093715 0.22024682 0.028094267
0001f0 5d dc 67 3e 30 d0 4b bd cf cc 25 3d 2d b9 e0 3d
       0.22642656 -0.04975909 0.040478524 0.109728195
000200 20 21 36 3c 31 6e 8b bc cb 4f 42 3d 08 08 e0 bf
       0.011116296 -0.017020317 0.047439378 -1.7502451
000210 5f 5d 26 3e 4d 46 e1 bd 4b 80 9a be 4c d9 52 be
       0.16246556 -0.10999737 -0.30176005 -0.20590705
000220 71 55 9f be 03 6c af 3d a4 26 9a be ba 6b 09 bd
       -0.31119874 0.085655235 -0.30107605 -0.03355
000230 37 4e e0 be 28 43 af 3e 08 b6 87 3d 28 bd 0d 3e
       -0.43809673 0.34230924 0.066265166 0.13841689
000240 63 a7 d7 3d e5 92 3c 3e e7 43 02 3f f3 f2 cb 3e
       0.10529973 0.18415411 0.5088486 0.39833793
000250 d4 de df 3e 03 8d d1 3d 51 25 fe 3d ff ed d8 bd
       0.43724692 0.10231974 0.12409461 -0.10592269
000260 8b e3 47 3d 6b 29 73 be ec 69 a9 bd c1 df 24 3e
       0.048800986 -0.23746268 -0.08272156 0.1610098
000270 70 08 c1 3c d7 a3 df 3d 44 e4 1a bf 7d 25 9c 3c
       0.023563594 0.10919922 -0.60504556 0.019060845
000280 2d e0 80 3e 14 fe 8e bc 9d b0 7a 3c 51 51 40 3d
       0.25171033 -0.017455138 0.015300897 0.04695255
000290 bf 36 09 3e df ea 27 bf 0e eb 91 3e af 3d 6d 3e
       0.1339979 -0.6559276 0.28499645 0.23168062
0002a0 10 7b cd 3e 2d a7 af 3e 25 38 60 3f 76 06 ec 3e
       0.40132952 0.34307232 0.8758567 0.4609868
0002b0 bf 7e e9 bd e3 36 2d 3d 1e bb 1d bf df 01 a7 bd
       -0.11401128 0.042288672 -0.61613643 -0.08154654
0002c0 16 1a fc bc 14 05 5b bd 02 ab 84 3e 68 be 49 be
       -0.030774157 -0.05347164 0.2591172 -0.1970154
0002d0 74 e1 89 be 0a 35 ae 3e d0 05 dc 3f e1 3d 96 3f
       -0.2692982 0.3402484 1.7189274 1.1737634
0002e0 99 67 9a be 57 86 8f 3d f7 a1 0f 3e 5f 4c 15 3e
       -0.30157164 0.07008045 0.14026628 0.14579915
0002f0 0d 06 18 3d ac 40 7e bd 1d 99 8a bd 69 1d 1e be
       0.037115145 -0.062073395 -0.06767485 -0.15440907
000300 42 75 bd ba 5f e9 4b 3e b2 6d 14 bd ab 19 ef bc
       -0.0014454501 0.19913243 -0.036237426 -0.029187044
000310 58 2d 17 bc 71 d3 72 3f d9 bb 23 bf 35 8d 85 3e
       -0.009227119 0.94853884 -0.6395851 0.26084295
000320 0b fa 9b 3e f5 18 e4 bd 00 37 42 3f f1 73 a2 3f
       0.30464205 -0.11137573 0.75865173 1.2691633
000330 02 3e 1c be f6 56 fc 3c b4 8d 85 bd eb b3 46 be
       -0.15258029 0.030803185 -0.06521168 -0.19404571
000340 8f 75 94 bd b9 52 45 3b 74 19 b3 3d 24 34 11 3f
       -0.07248985 0.003010912 0.08745089 0.56720185
000350 c1 2a 90 be 1e 2c a8 be 85 f4 3e 3d da 9d 51 3e
       -0.2815762 -0.3284616 0.04661991 0.20470372
000360 af 72 19 be 67 c2 2c bf 98 ea 25 3d d0 04 9f bd
       -0.14985155 -0.67484134 0.04050693 -0.0776459
000370 77 2e 23 3e 58 84 d8 3d 22 e7 52 bd c3 95 30 3d
       0.15935694 0.105721176 -0.051489957 0.043111574
000380 92 50 c6 bc 43 c7 20 bd a4 03 e3 3e ea 24 8b 3c
       -0.02420834 -0.03925253 0.44338715 0.016985375
000390 af ec 27 bd 15 88 0a 3d 52 7c 41 3f 23 72 03 be
       -0.040997203 0.033821184 0.7558032 -0.12836508
0003a0 f0 20 23 3e f4 fe a7 bc b5 04 8c 3e e2 8e 2c 3e
       0.15930533 -0.020507313 0.2734734 0.1685138
0003b0 a0 50 54 be c4 50 48 bf ca 7a bb bc b1 a7 a0 be
       -0.20733881 -0.7824824 -0.022885699 -0.31377938
0003c0 95 0b 42 be 62 11 04 3e 63 7d e1 bc 38 a3 96 bc
       -0.1894973 0.12897256 -0.02752561 -0.018388376
0003d0 f7 8b 9d be 0a 67 b2 be cf 7e 7a bd 6e f9 cc bd
       -0.30770847 -0.34844238 -0.06115609 -0.100085124
0003e0 ed 9b 79 3e 14 11 59 bf e7 d5 dd be 65 8d 16 3d
       0.24375887 -0.84791684 -0.43327257 0.036755938
0003f0 57 b9 b9 3c 05 3c 4e bd b9 6b ae 3c f0 4b cd bc
       0.022671385 -0.050350208 0.0212916 -0.025060624

fcs1.bias f4 [400]
000000 dd 5d 0b 3e d9 d5 0e be d7 ed ac 3d 4c 38 bf bd
       0.13610025 -0.13948764 0.08443802 -0.0933691
000010 45 5e 2a 3b 7b 3f cf bc 19 03 a5 bc 6a cd b0 bd
       0.002599613 -0.025298825 -0.020143079 -0.086329296
000020 17 98 03 be 34 10 2d be c1 d8 11 be ec 01 bc 3d
       -0.12850986 -0.16900712 -0.14242841 0.09180054
000030 ba b8 f7 bd 44 47 6e bd ac 8f 13 3e fd f9 4b 3d
       -0.12095781 -0.058173433 0.14410275 0.049798954
000040 c4 29 20 3e 13 c9 29 3e c0 f1 b3 3d 60 da d5 3d
       0.15640932 0.1658061 0.087863445 0.10442042
000050 b8 94 0b be fd 35 9c bd c1 b6 1b be f7 8b 2e bd
       -0.1363095 -0.07627485 -0.15206434 -0.04261395
000060 1d e2 db 3d cc bf 9b bc 1d 14 5a 3b b9 6a 19 be
       0.10736487 -0.019012354 0.0033276149 -0.14982118
000070 45 44 25 3d 04 b9 f4 3d eb 5b 2f 3d 47 67 a0 bd
       0.04034831 0.119493514 0.04281227 -0.078321986
000080 74 96 94 3d 97 47 cc bb 9c 96 cf 3d 48 2f f9 3d
       0.07255259 -0.00623412 0.10136148 0.12167221
000090 0d 49 be bd 5f 70 df 3c a9 ab 58 bd e1 89 3a bd
       -0.09291277 0.027275262 -0.052898083 -0.045541648
0000a0 33 03 2d be 14 75 24 3e 2b 63 80 3d 82 36 6e bc
       -0.16895752 0.16060287 0.06268915 -0.014539363
0000b0 c5 ca 09 be 18 9e b0 bd 1c f8 8d 3d 13 b6 96 3d
       -0.13456257 -0.08623904 0.06932089 0.07358947
0000c0 4e be eb 3d 5b 72 b1 bd 61 9a 06 3e 76 c3 a3 bd
       0.11510907 -0.0866439 0.13144828 -0.079962656
0000d0 73 1e aa 3d 86 43 ac 3c fa 47 1d 3c 7c 6f 5f 3c
       0.08306589 0.021028291 0.00959968 0.01363742
0000e0 09 e3 22 be c2 60 d0 3c 85 9a 12 3e a8 d0 21 bd
       -0.1590692 0.025436763 0.14316757 -0.03950563
0000f0 78 19 e0 3d 64 24 0c 3d 9f 79 b4 3d 49 72 b8 bd
       0.10942358 0.034214392 0.0881226 -0.09006173
000100 ab 48 9e 3d 0e 52 0d 3e e6 12 bc bd 65 4e 17 3e
       0.07728704 0.13800833 -0.09183292 0.14775999
000110 78 66 67 bd 6c f9 ca bc 7f 67 24 be 94 0e ce 3d
       -0.056494206 -0.024777137 -0.16055106 0.10061374
000120 57 42 30 3d a8 b4 15 3e 82 3d c0 bd 61 e0 e9 3c
       0.043032017 0.14619696 -0.09386732 0.028549375
000130 cb b0 76 bc 49 8d 18 3e 7e 0f 3c 3d 1b da 06 be
       -0.015056799 0.14897646 0.045913212 -0.13169138
000140 2c 37 cd 3d 67 71 06 3e f5 dc 2e 3d 40 d0 6a 3d
       0.10020289 0.13129197 0.04269119 0.05732751
000150 67 46 be 3d 66 c7 57 3d ed e5 a9 3d 56 e4 2b 3e
       0.09290772 0.052680396 0.08295808 0.16786322
000160 c1 5f 6f bd 4a c3 09 be 00 1c 8d 3b 62 a2 7a bd
       -0.058440927 -0.13453403 0.0043063164 -0.061190017
000170 f1 df ae 3a 98 62 a6 3d 9f 8a 44 bd d8 e7 49 bc
       0.0013341886 0.08124274 -0.047983762 -0.012323342
000180 5f 2c a1 3d 6d 8d 03 be 72 ec a1 bd 6b 34 c8 3c
       0.07869791 -0.12846918 -0.079064265 0.024439057
000190 aa f8 df 3d a7 cd 91 3b ca ad c7 3c fd b9 0f 3e
       0.10936101 0.0044495645 0.024374861 0.14035793
0001a0 f5 a7 2d 3e e4 b1 eb bb ee e3 2e bd 47 51 1e bd
       0.16958602 -0.007192837 -0.04269784 -0.03865173
0001b0 b5 4e 97 bd e4 ff ef 3d 76 1a 67 bd 38 5e b5 3d
       -0.07388059 0.11718729 -0.05642172 0.088558614
0001c0 7e 54 f1 bd 02 69 c9 bd 45 99 f1 3d e3 55 92 bd
       -0.11783694 -0.09834482 0.11796812 -0.07145288
0001d0 e4 86 8c bd 75 15 55 bd e3 2b 0b bd 6c c6 24 bd
       -0.06861666 -0.052022416 -0.0339774 -0.040228292
0001e0 e7 76 63 3c 02 70 19 bd 25 50 52 3d 6d bf ff 3d
       0.013883329 -0.037460335 0.051345963 0.124876834
0001f0 be 16 08 be c3 c9 19 3e ec 27 cd 3d 34 de 59 3d
       -0.13289925 0.15018372 0.1001738 0.053190425
000200 a5 76 8f ba 93 57 0a 3e 58 9e f0 3d d3 46 d2 bd
       -0.0010945393 0.1350997 0.11748952 -0.10267415
000210 36 ee 0f 3d b2 55 f4 bd 40 7f f5 3d ae ff b9 3d
       0.035139285 -0.119304076 0.11987162 0.0908197
000220 a4 04 92 3c e2 93 0d 3e fb 9d 07 3d 6e fb 74 bd
       0.017824478 0.13825944 0.033109646 -0.059810095
000230 c3 16 08 bd aa a1 0c be c3 ad 99 3d 70 55 08 3c
       -0.033224832 -0.13733545 0.075038455 0.008321151
000240 de 1b 44 3d 7b 98 c2 bd 73 a3 e6 3c cd f2 40 ba
       0.04787814 -0.095017396 0.02815411 -0.0007360399
000250 5b 62 1e 3e f4 72 c7 3d f7 85 1a 3e cf 8a 2d be
       0.15467207 0.097387224 0.15090166 -0.16947483
000260 55 e4 63 bd b7 80 fc bb 2d 40 26 3e c9 51 f1 3c
       -0.055637676 -0.0077057737 0.16235419 0.029457944
000270 09 fc 89 bd f3 8c df 3d 47 14 18 be 34 c2 86 3d
       -0.06737525 0.10915556 -0.14851485 0.0658001
000280 2c 02 25 be c8 89 07 3e 4c 34 2d 3e de dd 1a 3c
       -0.1611411 0.13236153 0.16914481 0.009452311
000290 a0 0a bd 3d 47 23 1a 3e 29 a8 19 be e9 58 91 bd
       0.09230542 0.1505252 -0.15005554 -0.070970364
0002a0 ef 02 24 bd ae 62 88 bd 2f 80 2b 3e 6e f8 d8 3d
       -0.04004186 -0.06659447 0.16748117 0.10594259
0002b0 45 d0 c0 3d 05 4a 10 3e 4b b4 45 bd 90 7a 6d bb
       0.09414724 0.14090736 -0.048267644 -0.0036236383
0002c0 43 d1 bc 3d 30 3b 62 3d d6 3b 6a bd 62 37 aa 3b
       0.09219601 0.055232227 -0.05718597 0.0051945904
0002d0 2d f6 20 3e 19 d4 28 be 34 33 30 3e 9b 30 10 be
       0.15718909 -0.16487159 0.17207032 -0.14081042
0002e0 d6 97 85 3c ac 07 fb 3c b0 e5 28 be c0 a2 99 bd
       0.016307753 0.030643307 -0.16493869 -0.07501745
0002f0 17 db bd 3d 22 6b 2e be 2f 7a 8b bd d0 21 a3 bd
       0.09270304 -0.17033055 -0.06810414 -0.079654336
000300 bc d2 10 3c 6d 1c 05 be 72 d4 e0 3d 43 02 05 be
       0.0088393055 -0.12999125 0.10978021 -0.12989144
000310 b8 23 9b bd e3 82 fc 3d 7e 51 28 3e 1a 48 c0 3c
       -0.07575172 0.12329652 0.16437337 0.02347188
000320 3e ad a8 bd 23 ca 56 3c 6a 09 92 bd 6e f4 15 3e
       -0.08236168 0.013109717 -0.07130702 0.14644024
000330 96 c5 80 bd eb f5 a4 3c fc 21 7a 3c 64 76 2f be
       -0.062876865 0.020136794 0.015266892 -0.17135006
000340 cd ff 5b bd 37 36 b5 3d 67 8a 97 3c 67 3f e9 3c
       -0.053710748 0.08848231 0.018498613 0.028472615
000350 ae 95 b5 bd 59 a7 1c 3e d1 fa 0a be ff 47 02 be
       -0.0886644 0.15298213 -0.13572241 -0.12722777
000360 d3 68 08 bd 7d de bd 3d b5 d0 da bd 37 75 56 bd
       -0.033303093 0.09270952 -0.10684339 -0.05235788
000370 87 d7 0f 3d d6 16 75 3d 9d ad 60 bd 58 a7 c5 3d
       0.035117652 0.05983623 -0.05485307 0.09651059
000380 f6 c8 cd 3d d4 e9 06 3d 0f b7 dc 3c 8b b5 20 3e
       0.10048096 0.03293784 0.026942758 0.15694253
000390 ca b5 84 3d 0c 42 0b be 75 ae 06 bd c7 68 88 3d
       0.06479986 -0.13599414 -0.03288122 0.0666061
0003a0 92 98 85 bd 45 df f1 3d 3a a7 46 bd 54 ee 44 3d
       -0.06523241 0.118101634 -0.048499323 0.04807885
0003b0 23 09 60 3c 81 5d dd 3b a7 76 5f bc ed 73 e1 bb
       0.013674053 0.0067555313 -0.013639129 -0.0068802745
0003c0 d9 4b ff bc 3f 0d 76 bc b1 ab 6d bd a4 5f e2 3d
       -0.031164097 -0.015017807 -0.058025066 0.11053398
0003d0 7d 75 b1 3d 5d c5 07 3e 5b aa f8 3d 9c d7 cc 3d
       0.08664987 0.13258882 0.12141868 0.10002062
0003e0 8b 17 1d be 70 0c 0c 3e b6 ed 22 3e 4f c7 ce bc
       -0.15341012 0.1367662 0.15910992 -0.025241522
0003f0 3a 5c 23 bd 6c aa 50 bd 3f b7 c2 bd 58 6d 1c 3d
       -0.039882876 -0.050943777 -0.09507608 0.038190216

bn1.weight f4 [400]
000000 98 b3 f7 3e 69 ad c8 3d 4c ba 73 3e 77 80 9c 3e
       0.48379207 0.097987 0.23801535 0.3056676
000010 e5 56 fd 3e 65 5e a8 3e 95 18 d4 3e 30 98 d1 3e
       0.49480358 0.32884517 0.41425005 0.40936422
000020 0e 2c a7 3e 12 b0 d4 3e 96 0b 11 3f 4b ec 87 3e
       0.326508 0.4154058 0.56658304 0.26547465
000030 7e c3 a9 3e c0 92 66 3e a4 42 2b 3e a4 ac ab 3e
       0.3315696 0.22516918 0.1672464 0.33530152
000040 e6 c1 80 3a 33 1c 28 3f 4b 21 5e 3f ff c4 59 3f
       0.0009823411 0.6566803 0.8676955 0.8506622
000050 50 c7 99 3e 9a 13 5f 3e 1c 9b 98 3e da 9e c8 3e
       0.30034876 0.21784821 0.2980584 0.39183694
000060 c8 ee 5d 3e 74 86 86 3e 40 78 af 3e be 8e c1 3e
       0.21673119 0.26274455 0.3427143 0.37804216
000070 68 1e 6a 3e c7 15 80 3e 41 e4 c2 3e 49 e6 01 3f
       0.22863162 0.25016615 0.3806477 0.5074201
000080 06 84 c5 3e 88 aa 57 3e ac d1 f2 3e 05 71 a9 3e
       0.38577288 0.21061146 0.47425592 0.3309404
000090 1e 18 a9 3e 59 f0 65 3e 7e 3f 1b 3f 4e 23 99 3e
       0.33026212 0.22454967 0.60643756 0.29909748
0000a0 b7 b6 8c 3e 41 5e cd 3d e2 28 bd 3e 02 46 aa 3e
       0.2748315 0.10027743 0.36945254 0.33256537
0000b0 90 de bf 3e ca 78 73 3e 38 55 c0 3a dc fa db 3e
       0.3747449 0.23776546 0.0014673835 0.42964828
0000c0 8a de 5d 3f e4 a4 d5 3e 9f 11 31 3e 79 22 9c 39
       0.8666769 0.41727364 0.17291878 0.00029780323
0000d0 ea f4 f2 3e 73 9d cb 3e b5 eb b2 3e fa 49 0e 3e
       0.4745248 0.39768562 0.34945455 0.13895407
0000e0 79 b3 8b 3e 38 a9 3f 3e 29 8d 97 3e b9 a4 bb 3e
       0.27285364 0.18716896 0.29599884 0.3664911
0000f0 34 f3 7d 3e d0 c7 96 3e d4 50 d8 3e db f0 dc 3e
       0.24799806 0.2944932 0.42249167 0.43152508
000100 34 47 94 3e 6a c6 f7 3e 67 6d da 3e 4a 53 96 3e
       0.28960574 0.48393565 0.42661592 0.2936042
000110 7b 08 87 3e 03 f1 80 3e 1f 11 96 3e 2c f1 c0 3e
       0.26373658 0.25183877 0.29309937 0.37684
000120 6e c4 95 3e f2 84 5d 3e a1 57 15 3e 88 03 3b 3e
       0.29251426 0.21632746 0.14584209 0.18263066
000130 48 c5 f0 3e fd c0 c8 3e 91 b5 8f 3e 55 eb b2 3e
       0.47025514 0.39209738 0.28068212 0.3494517
000140 84 0e b2 3e 80 27 93 3e a1 36 4f 3f a9 a1 f0 3e
       0.347767 0.28741074 0.8094273 0.46998337
000150 95 4e 94 3e 95 84 98 3e d8 f4 62 3e 13 3e 8c 3e
       0.28966203 0.29788652 0.22163713 0.2739111
000160 81 a3 66 3e a5 8f a7 3e 0f 01 b3 3e 15 c0 18 3e
       0.2252331 0.3272678 0.34961745 0.14917023
000170 b9 2f ca 3e ed 8b 66 3e 6b e4 c1 3e be c2 75 3e
       0.39489534 0.22514315 0.37869582 0.2400007
000180 b0 ed a2 3e ce 31 77 3e ef 96 62 3f b1 ad f3 3e
       0.31821966 0.24140093 0.88511556 0.47593454
000190 e9 31 9f 3e 91 b9 bf 3e 5d b0 a5 3e 82 57 d6 3e
       0.31092766 0.37446263 0.32361117 0.41863638
0001a0 63 b1 fb 3e 80 4b d1 3e df 39 82 3e 53 7b 9e 3e
       0.49158773 0.40877914 0.25434777 0.30953464
0001b0 85 fa af 3e d8 0b 84 3e a8 5a 38 3f 73 1b 9a 3e
       0.3437082 0.25790286 0.7201333 0.30099067
0001c0 89 0e 14 3f 25 a3 97 3e 0b c4 dd 3e 03 5c c0 3e
       0.5783468 0.29616657 0.4331363 0.375702
0001d0 bf 40 41 3e ce e7 0a 3f 1a 58 96 3e 60 c4 ad 3e
       0.18872355 0.54259956 0.2936409 0.33938885
0001e0 c3 bb 85 3e 4b 6a a4 3e f8 c8 81 3e 4a 3b 62 3f
       0.26119813 0.32112345 0.2534864 0.8837172
0001f0 9d c9 a2 3e 1a 02 aa 3e 7b 89 43 3f 5c e0 07 3f
       0.31794444 0.33204728 0.76381654 0.5307672
000200 13 9a b6 3e 10 49 44 3e 96 33 f1 3e 9d 6e b2 3e
       0.35664424 0.19168496 0.4710967 0.34850016
000210 31 96 70 3e 41 5f 9f 3e 82 11 58 3e 0a 9d 17 3f
       0.23494793 0.3112736 0.21100429 0.59224
000220 69 d1 c7 3e 63 81 87 3e c6 f1 ec 3e c6 bc bc 3e
       0.39026955 0.26465902 0.46278208 0.36862773
000230 9a f3 9c 3e 60 e3 09 3f 07 31 c6 3e 5e 64 3a 3a
       0.30654603 0.5386257 0.3870928 0.0007110293
000240 b2 60 ae 3e 8d 2f e7 3e ba bf 71 3e bf 09 56 3e
       0.34058148 0.45153466 0.23608294 0.20902155
000250 cc 94 09 3f 5a a3 d8 3e bc 94 d3 3e 37 cd 09 3f
       0.5374267 0.42312127 0.41324413 0.5382876
000260 f8 91 d7 3e c6 09 92 3e 5d b5 73 3e 5c f9 a8 3e
       0.42103553 0.28523082 0.23799653 0.33002746
000270 50 a1 00 3f 58 0c 98 3e ae 5c 77 3e aa 8a ab 3e
       0.50246143 0.29696918 0.24156448 0.3350423
000280 86 5f cc 3e 6e 99 88 3e 7b 6e 89 3e b0 5a b1 3e
       0.3991663 0.26679558 0.26842102 0.34639502
000290 8c df b2 3e 78 89 af 3e 19 90 c8 3e 4a 74 b1 3e
       0.34936178 0.34284568 0.39172438 0.34659034
0002a0 db cc b3 3e 7b 32 cd 3e f4 5f c7 3e 60 7e 9f 3e
       0.3511723 0.40077576 0.38940394 0.31151104
0002b0 64 10 98 3e d4 d4 7a 3e 65 1e 84 3e bd 9b 7d 3e
       0.29700005 0.2449525 0.2580444 0.2476644
0002c0 c9 b8 63 3e eb 2f 8c 3e 06 87 8f 3e 64 7d 9a 3e
       0.22238459 0.27380309 0.28032702 0.3017379
0002d0 fe d0 8d 3e 98 54 04 3b ea 1d 20 3e c3 ef 8f 3f
       0.2769851 0.0020192023 0.15636411 1.1245044
0002e0 8e 34 79 3e 72 50 8d 3e 90 4e b1 3e f1 07 cb 3e
       0.24336454 0.27600437 0.3463025 0.39654496
0002f0 e2 b2 6a 3e c8 d0 94 3e 3c 69 5c 3e e1 f5 95 3e
       0.22919801 0.29065537 0.21524519 0.29289153
000300 64 a6 24 3e 38 2d 11 3e 4c c4 08 3f dc 0d b1 3e
       0.16079098 0.14177406 0.53424525 0.34580886
000310 dd 3a 41 3f 2b 76 20 3e cb 4a 73 3e 48 13 27 3f
       0.75480443 0.15670078 0.23759 0.65263796
000320 eb 4b 65 3f 21 3c df 3e 6b af 99 3e 00 a8 a0 3e
       0.89568967 0.43600562 0.30016646 0.31378174
000330 aa 24 a9 3e 71 02 03 3f 55 84 df 3e 78 1d d5 3e
       0.33035785 0.511756 0.4365565 0.41624045
000340 32 ee 5b 3e 36 5a 72 3e a7 b7 cf 3e a0 ac 98 3e
       0.21477583 0.23667225 0.40569803 0.29819202
000350 4f c6 94 3e eb b5 a9 3e 50 bd 6a 3e d1 08 8f 3e
       0.29057547 0.33146605 0.2292378 0.27936414
000360 ce 30 b8 3e d8 39 e4 3e 37 7e b1 3e 24 94 13 3f
       0.35974735 0.4457538 0.34666607 0.5764792
000370 20 3f f0 3e 44 5d 9d 3e 69 cb 30 3e 45 39 c6 3e
       0.4692316 0.3073522 0.17265095 0.38715568
000380 e7 64 63 3f 5e fa a4 3e 70 a2 7e 3e cd e0 a9 3e
       0.8882584 0.32222265 0.24866652 0.33179322
000390 35 15 81 3e 17 93 d7 3e 19 96 f1 3e 4d 42 97 3e
       0.25211492 0.42104408 0.47184828 0.2954277
0003a0 25 b8 40 3f ff e0 bd 3e fc 0c e7 3e 16 10 e6 3e
       0.7528098 0.3708572 0.45127094 0.44934148
0003b0 67 a9 ed 3e 25 80 0c 3f 0e 7f 0d 3e e9 15 1a 3f
       0.46418306 0.54883033 0.13817999 0.6018968
0003c0 af 09 81 3e 6d 35 57 3e bc 6e a2 3e 3b d3 a2 3e
       0.252027 0.21016474 0.3172511 0.3180178
0003d0 62 1a 88 3e e8 de a5 3e b6 f0 d5 3e ba d4 2a 3f
       0.26582628 0.32396626 0.4178521 0.66730845
0003e0 49 ea 03 3f 11 c5 3b 3e 34 d5 9f 3e 06 e4 6f 3e
       0.51529366 0.18336894 0.3121735 0.23426828
0003f0 ab 1c 37 3e 95 2a 72 3e 2b ca 42 3e f3 bb b0 3e
       0.1788203 0.23649056 0.19022433 0.34518394

bn1.bias f4 [400]
000000 66 3b 37 bf e8 bd ab bd 27 c4 12 bf 9d 60 69 be
       -0.7157501 -0.08385831 -0.57330555 -0.22790761
000010 e4 c0 e2 be 12 9d b0 be 81 74 d0 be 59 16 03 bf
       -0.4428779 -0.34494835 -0.40713885 -0.51205975
000020 b8 63 d4 be cb f7 43 bf ee 78 85 be 0e 85 b3 be
       -0.4148233 -0.7654998 -0.26068825 -0.3506245
000030 46 f4 f5 be 77 b7 b3 be d2 2b 51 be 3e 4e a7 3c
       -0.48037928 -0.3510091 -0.20426872 0.020423051
000040 5a 08 6d bc f3 8d 16 bf bf 62 e6 be 7c 75 2f bf
       -0.014467323 -0.5881035 -0.44997212 -0.6853864
000050 46 8a 12 bf 17 87 88 be 55 3e cc be b6 40 43 be
       -0.5724224 -0.26665565 -0.39891306 -0.19067654
000060 1f e8 c8 be 6e 66 e6 be 11 c4 0a bf 2f 3d 21 bf
       -0.39239594 -0.45000023 -0.54205424 -0.62983984
000070 f9 ed 02 be d8 21 fa be b0 3a c6 be d2 3e 08 bf
       -0.12786092 -0.48853946 -0.3871665 -0.53220856
000080 2d fe 19 bf 4d 51 90 be 39 9d ff be b0 e3 85 be
       -0.60153466 -0.28187028 -0.4992464 -0.26150274
000090 97 30 9b be 38 51 c3 be 70 7a 89 bf 5a b6 b4 be
       -0.3031051 -0.38147902 -1.074049 -0.35295373
0000a0 e6 d9 e1 be ce 3e 8e bd f8 b9 dd be 5e 87 0d bf
       -0.44111556 -0.06945573 -0.43305945 -0.5528468
0000b0 f9 ff 1b bf 8c 69 05 bf e9 cc 56 bc 03 d3 13 bf
       -0.6093746 -0.52114177 -0.013110378 -0.57743853
0000c0 e0 7d 0a 3e 6a f2 ba be 40 2d 85 be 1c 54 2c bd
       0.1352458 -0.36513072 -0.26011086 -0.0420724
0000d0 64 fc 11 3e e6 ac 30 bf 8f 9c 0d bf fe 91 18 be
       0.14256436 -0.6901382 -0.55317014 -0.14899442
0000e0 0b 28 05 bf 1f ff a1 3a 84 6b 31 be 92 26 20 bf
       -0.52014226 0.0012359357 -0.1732617 -0.62558854
0000f0 86 ee 9c be 06 55 b6 be 20 2c 11 bf c8 d5 da be
       -0.3065073 -0.35611743 -0.56707954 -0.42741227
000100 aa b3 e1 be 87 f3 c8 be 65 ee f1 be 50 13 3f be
       -0.44082385 -0.39248297 -0.47252193 -0.18659711
000110 0e b9 af be ee b5 8a be b9 22 9e be b2 b2 03 bf
       -0.34320873 -0.27091926 -0.30885866 -0.5144454
000120 a4 e9 0d bf d9 75 b6 be 9a d3 b3 3d 93 7d 2c bf
       -0.5543463 -0.35636786 0.08780594 -0.6737911
000130 38 d0 17 bf ae e5 09 bf 5e f8 07 bf 8e 7c dc be
       -0.5930209 -0.5386609 -0.53113353 -0.43063778
000140 2b fb 3d bf 5b ab e3 be 5f 3f d5 be d8 60 0b bf
       -0.74211377 -0.4446667 -0.4164991 -0.54444647
000150 02 e1 80 be d4 6e a5 be a4 68 c2 be 64 a8 57 be
       -0.25171667 -0.32311118 -0.3797046 -0.2106033
000160 94 7d f2 be 2e 8c 01 bf 19 e5 3d 3d 8e 5f b7 be
       -0.47361434 -0.5060452 0.046361063 -0.3581509
000170 ca 4c 0b bf 3b 8c e7 be 9c 76 1f bf b1 e7 07 bf
       -0.54414046 -0.45224175 -0.6229036 -0.5308791
000180 65 0a ac be ef bb fe be d4 e8 1b bf d6 13 f1 be
       -0.3360168 -0.49752757 -0.6090214 -0.47085446
000190 4c 71 e0 be a1 fb 99 be cc 4e 23 bf 9b fb bd be
       -0.4383644 -0.3007479 -0.6379211 -0.37106022
0001a0 b4 97 e9 be 4c f1 43 bf fd f4 91 be c8 9c 21 bf
       -0.45623553 -0.76540065 -0.28507224 -0.63129854
0001b0 fe 24 f9 be 63 17 1f bf 01 cf 01 bf 07 51 1e bf
       -0.48661035 -0.6214506 -0.5070649 -0.6184239
0001c0 39 ce 23 be b9 1d 46 bf c7 be 39 bf 66 2e 00 bf
       -0.15996636 -0.77389103 -0.7255673 -0.500708
0001d0 62 9d 6d be df d7 c1 be 26 07 b5 be f5 2e 1f bf
       -0.23204568 -0.3786001 -0.35357016 -0.62181026
0001e0 70 45 05 bf 04 58 04 bf 1e 80 d7 be cd ff 99 be
       -0.5205908 -0.516968 -0.42089933 -0.30077973
0001f0 90 89 a9 be 7e f0 25 bf 99 9b e3 be f2 3d 06 bf
       -0.33112764 -0.64820087 -0.4445465 -0.5243827
000200 6f f8 44 bf 55 1d 97 be a0 06 10 bf 1c 09 8e be
       -0.7694158 -0.29514566 -0.5626011 -0.27741325
000210 8c 6a 50 3e 0d 59 16 bf 0c 6b e3 be 6b 49 5e bf
       0.20353144 -0.5872963 -0.44417608 -0.86830777
000220 42 14 e6 be f7 b0 f6 be d4 c8 43 bf 2f b4 96 be
       -0.4493733 -0.48181888 -0.76478314 -0.29434344
000230 d4 49 14 bf b2 01 5e be ce 8e 88 be 38 da ad bb
       -0.5792515 -0.21680334 -0.2667145 -0.0053055547
000240 4b 6d 35 bf c4 07 3c bf d7 21 ea be e4 3e 8b be
       -0.7086989 -0.7344935 -0.45728943 -0.2719642
000250 15 d6 5c bf fc 6d 2e bf 98 b4 2d bf 52 89 0f bf
       -0.86264163 -0.6813657 -0.6785369 -0.5606891
000260 4d a6 0c bf 98 45 1e bf 02 93 55 be 90 df 1b bf
       -0.54941255 -0.6182494 -0.2085686 -0.60888004
000270 45 e4 44 bf a1 c4 a2 bd fe cd dc be a3 ed 50 be
       -0.7691081 -0.0794766 -0.4312591 -0.20403151
000280 c5 45 38 bf b1 9c bc be 98 1a ad be ec d6 fc be
       -0.7198146 -0.36838296 -0.33809352 -0.49382722
000290 a9 8c 9f be 32 89 f0 be be dc 29 bf d6 c0 60 bf
       -0.31162003 -0.46979672 -0.6635245 -0.87794244
0002a0 3d 4d 1e bf 85 e7 73 bf 08 ab 96 be 49 41 53 3e
       -0.61836606 -0.95275146 -0.2942736 0.20630373
0002b0 b7 af 27 bf 82 fe 12 bf 61 d1 94 be 4d 96 6f be
       -0.65502495 -0.574196 -0.29065993 -0.23397179
0002c0 7d 1c 65 be c7 ff aa be 3e ab 02 be b1 81 0f bf
       -0.22374149 -0.33398268 -0.12760636 -0.5605727
0002d0 18 fb f6 be 07 60 62 bc 1f 5d 87 3e ac 5f 96 be
       -0.48238444 -0.01381684 0.26438233 -0.29369867
0002e0 01 0f ad be 5b 5e 88 be e7 b1 b2 be 7a de 1d bf
       -0.3380051 -0.26634488 -0.34901354 -0.616676
0002f0 9c da a7 be ed 42 04 bf e9 d7 4e bd e6 a9 f5 be
       -0.32783973 -0.5166462 -0.050498877 -0.47981185
000300 b6 85 b3 bc 01 9e ea 3d f2 c0 2c bf 19 c3 d4 be
       -0.021914344 0.11455918 -0.6748191 -0.41555098
000310 ce 74 08 bf 46 ea a7 bb 61 36 b1 be 9a 69 0c bf
       -0.5330323 -0.005124363 -0.346118 -0.54848635
000320 9d 7c 44 bf e6 9d e2 be 71 c7 5b be 50 67 cf bd
       -0.76752645 -0.44261092 -0.214628 -0.10127127
000330 6d b3 fa be 46 c2 e5 be 2b 23 b1 be 86 bd 00 be
       -0.48965016 -0.4487478 -0.34597144 -0.12572297
000340 d8 f8 f5 be c9 53 b8 be 23 da 4a bf cf 2e 7b be
       -0.48041415 -0.36001423 -0.792391 -0.24529575
000350 02 eb 03 bf 6c ef 53 be 7e 36 1a bf 32 cf 9e be
       -0.5153047 -0.20696801 -0.602394 -0.31017452
000360 d4 1c 55 bf 4a 36 b3 be 9a 32 94 be 66 f7 25 bf
       -0.83247113 -0.35002357 -0.28944856 -0.64830625
000370 1f 80 35 bf 33 9e 8b be 46 0f b6 bd 51 1f 41 bf
       -0.7089862 -0.27269134 -0.08889632 -0.7543841
000380 14 0c 98 be f9 a8 db be 1d 02 6b be d9 dc db be
       -0.29696715 -0.42902353 -0.22950025 -0.4294193
000390 d5 15 1e bf 9d 71 0b bf ac b8 45 bf ed 8b e8 be
       -0.61752063 -0.54470235 -0.7723491 -0.45419255
0003a0 71 af 29 bf 53 8e 10 bf 12 50 33 bf 53 a4 4e bf
       -0.6628333 -0.5646717 -0.7004405 -0.8071949
0003b0 85 16 3f bf 26 14 c3 be fc a0 97 be 7c cb 2d 3e
       -0.7464374 -0.3810131 -0.2961501 0.16972154
0003c0 2f 7b a2 be 87 09 23 be 16 73 bd be 76 48 5a be
       -0.31734607 -0.15921603 -0.37001866 -0.21316704
0003d0 a5 00 21 bf 3e ae 15 bf 21 ff 43 bf 5b ed 03 bf
       -0.6289161 -0.58469 -0.7656117 -0.5153405
0003e0 de f1 3c bf 3f e2 d4 be 10 1c c9 be 6e 0e be bd
       -0.7380656 -0.41578862 -0.39279222 -0.09280096
0003f0 04 a7 70 be 5d b8 80 3e 9f 7c 63 bf 6d 69 11 bf
       -0.23501211 0.25140658 -0.8886203 -0.5680149

bn1.running_mean f4 [400]
000000 54 59 30 40 32 24 08 c0 2e cb 74 c0 8c 26 a0 3f
       2.7554522 -2.1272092 -3.824901 1.2511764
000010 6e 23 b3 bf 98 b6 56 3e b3 e6 8e bd 43 d9 5c 3f
       -1.3995187 0.20968091 -0.06977596 0.86269015
000020 be 24 87 bf f1 a7 5b c0 4b a3 81 bc 12 d1 a4 bf
       -1.0558088 -3.4321253 -0.015824934 -1.2876303
000030 9b be 1b 40 51 39 bd 3f a1 bd 56 3f 07 32 94 bf
       2.4335086 1.4783117 0.838831 -1.1577767
000040 01 e5 c2 3d 72 50 ec 3e b8 15 2c 3e d4 e2 57 be
       0.09516335 0.46155125 0.1680516 -0.21082622
000050 c2 67 9f c0 15 d2 4a 3f 67 c1 00 c0 cd aa a7 bf
       -4.9814157 0.7922681 -2.0118043 -1.3098999
000060 64 db 98 3e c7 3e 20 c0 8d c0 aa 3f 22 e5 fa bf
       0.29854882 -2.5038316 1.3340012 -1.9601176
000070 77 9c 57 3e 84 2d 4c 3e 94 e4 d5 3f 05 d2 df bf
       0.2105578 0.19939238 1.6710382 -1.7485968
000080 83 d3 03 bf 1b 03 dd bd 4d 9e d8 be c2 18 16 bf
       -0.51494616 -0.10791608 -0.42308274 -0.5863153
000090 f2 0f 42 bf 15 4b c5 bf 75 48 9f 3e fd dc 62 3f
       -0.7580558 -1.5413538 0.31109968 0.8861845
0000a0 40 74 f6 be c0 30 a2 3f 8a 05 af 3e be 9d 5f be
       -0.48135567 1.2671127 0.34183913 -0.21837518
0000b0 f4 cf ae bf 05 e0 d3 bf 67 46 6c 3d da 68 37 bf
       -1.3657212 -1.655274 0.05768433 -0.71644366
0000c0 ad 0f e1 3e 2f 55 41 3e 8e d5 59 bf 5b 89 67 3a
       0.43957272 0.18880151 -0.85091484 0.0008832418
0000d0 69 a3 b9 3d b4 43 80 bf de 22 29 bf 0d 71 85 3e
       0.09064371 -1.0020661 -0.6606883 0.26062813
0000e0 f8 14 d6 3f c8 a5 3b 3f 3a 75 5a bd ef 28 86 3e
       1.6725149 0.7329984 -0.053334452 0.26203105
0000f0 5f 4c e5 3f 7d 15 9e bd ff fd f4 3e df a4 43 3f
       1.7913932 -0.07718942 0.47850034 0.7642345
000100 f2 4c 5a bf 16 3a 66 3e ca e6 00 3f 76 ee 72 bc
       -0.8527366 0.22483096 0.50352156 -0.014827361
000110 72 91 af bd f2 5f 12 40 fc 89 8e 3e 5e 15 21 40
       -0.08572663 2.287106 0.2783965 2.5169291
000120 2f 89 b0 3f 18 67 96 bf 29 13 a0 bf 39 78 8d 3f
       1.3791865 -1.1750212 -1.2505847 1.1052314
000130 60 45 65 bf 58 ec 2d 3f 0b e3 de 3f 54 c2 70 bf
       -0.8955898 0.67938757 1.7413038 -0.9404652
000140 1e 57 91 3f 72 be 7e 3e 54 8e 1f bd 28 15 51 bf
       1.1354711 0.24877337 -0.038954094 -0.81672907
000150 b4 82 26 3e 3d 74 d2 be 81 82 60 bf cd 26 be be
       0.16260797 -0.41104308 -0.87699133 -0.37138978
000160 fa 95 24 c0 2e 12 0f bd ce 80 ae 3d 42 41 48 bf
       -2.5716538 -0.034929447 0.08520661 -0.78224576
000170 78 e4 80 3f 44 37 01 bf ea 8a 33 bf 3c 0f 33 bf
       1.0069723 -0.50474954 -0.7013384 -0.6994512
000180 77 6d c8 be 3e a7 20 3f 95 c0 b7 3c e9 df 9f bf
       -0.39146015 0.6275519 0.022430697 -1.2490207
000190 2b f7 9c 3e 64 03 39 3e 93 01 d9 3e 82 60 88 bd
       0.30657324 0.180677 0.42384014 -0.066590324
0001a0 7c 10 9e 3f 88 c5 e4 bf 85 24 77 3e a7 84 95 bf
       1.2348781 -1.7872782 0.24135025 -1.1681107
0001b0 e7 e0 e3 3b 3e ef 36 c0 fc 54 22 3f 68 3b 1e c0
       0.0069543007 -2.8583522 0.63410926 -2.4723759
0001c0 56 14 2e 3f 29 aa 63 c0 37 f1 2b bf a7 cf 08 3f
       0.6799978 -3.5572608 -0.6716494 0.5344185
0001d0 4e ee b5 bf 41 34 d4 3e 31 f3 92 bf 8a ca 2e c0
       -1.421335 0.41446117 -1.1480466 -2.731112
0001e0 1b dd ca bf bb 54 cb be fb d1 f6 3f d4 71 76 3e
       -1.5848726 -0.39713082 1.9282831 0.2406686
0001f0 65 82 6e bf e7 0d 4c bf 89 78 44 3c bc d4 d0 3c
       -0.93167716 -0.79708713 0.011991628 0.025492065
000200 dd c8 f7 bf 48 37 34 bf 52 99 0f bf fe 50 b1 bf
       -1.9358174 -0.7039685 -0.56093323 -1.3852842
000210 8d eb 8d 3f 3c 4c 78 bf fd ce fc bf 3a d2 48 bf
       1.1087509 -0.96991324 -1.9750668 -0.7844578
000220 6c 4c 29 bf 01 2e 1c bf 25 ea d3 be 0f 75 87 bf
       -0.66132236 -0.61007696 -0.41389576 -1.0582598
000230 30 e7 73 bf f9 78 0c bf 46 5f dd bf 32 1a 20 3d
       -0.9527464 -0.5487209 -1.72947 0.03908748
000240 7b 34 84 3f 47 11 04 c0 91 61 6f 3f 1d b7 06 3d
       1.0328516 -2.0635545 0.9350825 0.032889474
000250 5d ea 1e 3f fe 54 d8 bf c8 51 90 3f 2e 9b 91 3c
       0.6207636 -1.6900938 1.1274958 0.01777419
000260 76 52 2a c0 e9 9d de bf 22 dd b7 3f 99 d0 96 3f
       -2.661283 -1.739194 1.4364359 1.1782409
000270 98 45 f4 be b6 65 5d 3f 8d 9a 32 be 70 3b 3c 3f
       -0.47709346 0.86483324 -0.17441769 0.73528194
000280 de 11 10 3e 3c 53 1d be 77 3d d6 bf 19 71 3b 3e
       0.14069316 -0.15363783 -1.6737508 0.18304862
000290 d0 c7 dc 3e d9 d4 18 c0 34 a6 19 3e bd 81 26 3e
       0.43121195 -2.3879912 0.15004808 0.16260429
0002a0 6f d8 f1 be df 68 81 bf 63 e9 6e 3f 46 0d 08 3f
       -0.47235438 -1.0110129 0.9332487 0.53145254
0002b0 c6 5c 9a bf c5 45 0b bf 8e 50 ac 3f a5 bb bb 3f
       -1.2059562 -0.54403335 1.3462083 1.466664
0002c0 65 ef 54 3f 29 8e aa be c2 4e 24 3f 56 09 3b be
       0.8317779 -0.33311585 0.64182675 -0.1826528
0002d0 05 b2 13 3e 04 ce 94 bd 65 f6 4d bf 17 22 97 bd
       0.14423378 -0.07265857 -0.80454093 -0.07379549
0002e0 84 f6 87 bf ab 1b ca 3f 53 30 c4 bf 98 a7 69 bf
       -1.0622106 1.5789694 -1.5327247 -0.9127135
0002f0 e1 ff 8b be 0d 7a 14 3f b3 b4 8c 3e 96 83 91 bf
       -0.27343658 0.57998735 0.27481613 -1.1368282
000300 ee 86 b8 3f 28 23 5d bd 68 38 06 bf fb 1b e0 bf
       1.4416177 -0.053988606 -0.5242982 -1.7508539
000310 12 ca 60 bc 52 c5 93 3f 01 56 29 bf f3 b0 a7 be
       -0.013720052 1.1544592 -0.66146857 -0.3275219
000320 3f 5e 0f be 88 c2 ca 3e 32 df 08 bf 05 db 12 bf
       -0.14000796 0.3960154 -0.5346557 -0.5736545
000330 27 1d 26 3f d2 44 83 3e b2 9b c0 3f 94 72 92 3f
       0.6488823 0.25638443 1.5047514 1.1441216
000340 e1 83 c6 bf f8 18 fc 3e 41 d2 c9 3e 8e 35 8d 3e
       -1.5508996 0.492378 0.39418224 0.2757992
000350 9d 68 68 3f 2a 73 0e bf bb 82 04 bf 25 96 98 bf
       0.9078463 -0.55644476 -0.5176198 -1.192082
000360 27 f4 82 c0 c3 6a 82 be 93 49 d0 be 9c c1 ac 3e
       -4.0923038 -0.25472078 -0.40681133 0.33741462
000370 81 ab 78 3e bd 17 26 3f c2 5c 1b 3f 93 0c 7c 3f
       0.24284174 0.6487997 0.6068841 0.98456687
000380 9a 86 1b bd e2 e1 c2 bf 4a 10 51 3d bd f1 a3 3f
       -0.037970163 -1.5225184 0.051040925 1.2808148
000390 4f e3 07 3f cc a9 34 be a9 44 cf bf e4 36 96 3f
       0.5308122 -0.17642897 -1.6192828 1.1735501
0003a0 a9 42 e5 3e 4c 07 9a be 49 e5 02 be 7d f9 9c 3f
       0.4477742 -0.30083692 -0.12782778 1.2263638
0003b0 f0 21 ac bf 98 ed ff be 6f 80 9f bf 05 1e 9a be
       -1.3447857 -0.49985957 -1.246107 -0.30101028
0003c0 b6 d7 e5 3e f5 81 3b bf 45 f1 9f bf b0 59 51 3f
       0.44891137 -0.73245174 -1.2495505 0.8177748
0003d0 1b ea c2 bf 53 88 1e bd 47 f0 f8 3f 0c 23 0c be
       -1.5227693 -0.038704228 1.9448327 -0.13685244
0003e0 4c 94 8a bf da 28 90 bf 7f 37 5b 3e 44 e2 34 3f
       -1.0826507 -1.1262467 0.21407889 0.70657754
0003f0 af 59 6a 3b c9 25 87 bf 82 7a 61 bf b8 44 d3 3f
       0.0035759022 -1.0558406 -0.8807756 1.6505346

bn1.running_var f4 [400]
000000 f2 4e d3 40 18 84 17 41 4e 81 78 40 b9 33 8e 40
       6.603387 9.469749 3.8828921 4.443814
000010 f4 19 5b 41 9a d7 22 40 e3 b7 95 40 77 4d 20 41
       13.693836 2.5444093 4.678697 10.018912
000020 37 d6 fc 40 9b c3 10 41 3c 92 72 40 01 39 30 40
       7.9011493 9.047755 3.7901754 2.7534792
000030 5f c9 3e 40 c8 b4 38 41 78 36 f5 3f bb e6 f8 40
       2.9810407 11.544136 1.9157248 7.7781653
000040 a2 80 e0 3d bd c1 a9 40 f1 f5 77 40 20 a2 93 40
       0.10962035 5.3048997 3.874386 4.6135406
000050 0d 63 48 40 97 5c bb 40 b9 f3 f6 3f c6 d3 f3 40
       3.1310456 5.8550525 1.9293128 7.6196012
000060 30 64 50 3f 74 09 9a 40 3b 84 7f 40 a7 88 c4 40
       0.81402874 4.813654 3.9924457 6.141681
000070 f4 0b b2 40 dc b7 f8 40 2e dc c0 40 c9 86 36 41
       5.563959 7.772444 6.0268774 11.407907
000080 da a5 e7 40 a1 a3 31 40 3e 89 b6 40 b7 9e 68 40
       7.2389956 2.775612 5.704253 3.6346872
000090 4b 1d 51 40 88 d0 9f 3f fe 91 37 40 63 44 0c 41
       3.267413 1.2485514 2.8682857 8.766696
0000a0 51 9f 0c 40 8e ef 1b 41 58 42 21 40 66 63 70 40
       2.197224 9.745985 2.5196743 3.7560668
0000b0 95 0f b9 40 ea 1e 5c 40 09 07 4f 3d 64 d8 96 40
       5.783152 3.4393868 0.05054382 4.713915
0000c0 e4 65 83 40 d2 f1 75 40 7f 64 47 40 2b f8 a4 3e
       4.106188 3.8428845 3.1155088 0.32220587
0000d0 46 2e f3 40 72 c5 8e 41 42 64 cd 40 cb f4 21 40
       7.5993986 17.846409 6.4184885 2.530566
0000e0 bb 76 fd 3f 6d ab 17 40 f4 74 16 40 23 e6 cd 40
       1.9801859 2.369838 2.3508883 6.434343
0000f0 6b d5 7f 40 27 b5 91 3e 1d 92 47 40 09 53 80 41
       3.997401 0.2845852 3.118293 16.040545
000100 4f 12 b1 40 94 c2 10 41 f3 12 99 40 ac e4 b3 40
       5.533485 9.047504 4.783563 5.621664
000110 86 c3 3c 40 0a 82 c6 40 ea 4d 0c 41 fc 7c 29 41
       2.9494338 6.203374 8.769022 10.593014
000120 1a 97 83 3f 81 1d 1d 40 b6 71 00 41 4c b8 80 40
       1.0280488 2.4549258 8.027761 4.022497
000130 dd 50 6c 40 f0 7b 21 40 61 d0 a1 40 71 9b f0 40
       3.6924355 2.5231895 5.056687 7.518975
000140 ff 74 b2 40 13 56 8a 3f ee 82 7f 40 85 4b 86 40
       5.5767817 1.0807518 3.9923663 4.1967187
000150 09 81 6f 41 dd 03 38 40 a8 2e 7c 40 5d 98 c8 40
       14.969003 2.8752358 3.9403477 6.268599
000160 92 13 4d 40 d6 83 a8 40 9c 14 b4 41 a8 45 02 40
       3.2043195 5.2660933 22.510063 2.0355015
000170 69 2b 53 41 a0 59 08 40 f4 ff e8 3f 76 85 36 40
       13.198098 2.1304703 1.8203111 2.8518958
000180 ed 29 b6 40 1d e7 20 40 7c a1 91 40 a9 80 0d 41
       5.692618 2.514106 4.5509624 8.843911
000190 0c b3 8b 40 58 b7 8b 40 99 b1 bd 40 72 fd 35 40
       4.3656063 4.366131 5.9279294 2.843594
0001a0 3e 3e 08 41 34 c3 0f 41 3e 59 0c 41 82 9a 22 40
       8.515196 8.985157 8.771788 2.5406804
0001b0 28 36 03 41 bf f3 63 40 ba 40 7f 40 c0 d0 05 41
       8.200722 3.561752 3.9883256 8.363464
0001c0 f7 c3 62 40 bc f8 d3 40 fc 3c ac 40 b7 a5 e1 41
       3.5432107 6.624113 5.3824444 28.205915
0001d0 af 71 97 40 9c 93 de 41 9e 05 09 40 af 6c 38 40
       4.7326274 27.822075 2.1409678 2.8816335
0001e0 2f 7a 0c 40 3b 9d b9 41 77 b3 00 41 a3 5c 56 40
       2.1949575 23.201773 8.043815 3.349404
0001f0 98 5d 62 41 ad 14 03 41 5c 6c 85 40 d5 63 c3 40
       14.14785 8.192548 4.1694775 6.1059365
000200 15 ae e3 40 c3 7d a6 3f 49 a2 35 41 63 51 3e 40
       7.1150002 1.300713 11.35212 2.9737175
000210 de 8a a4 41 ca 52 4c 40 ac dc 1b 40 0e 0a 95 40
       20.567806 3.192553 2.4353437 4.6574774
000220 42 0a 7a 41 4d e7 3e 40 6e 66 35 41 55 4e 08 41
       15.627504 2.9828675 11.337507 8.519124
000230 36 e4 1b 41 ba ad 16 41 ff e5 56 41 e7 90 95 3e
       9.743216 9.417414 13.431151 0.29212114
000240 e7 e1 07 40 d8 3e 80 40 0b bb d6 40 52 ba 13 40
       2.123163 4.0076714 6.7103324 2.308247
000250 3d 31 aa 40 76 a3 01 41 2e 2c 7d 40 0c 05 80 40
       5.3185105 8.102407 3.9558215 4.000616
000260 c7 0e 90 41 ae 6b 7e 40 6c 00 8f 40 0c 27 ae 40
       18.007215 3.9753222 4.4688015 5.4422665
000270 b9 e6 f3 40 a5 69 73 40 20 03 4a 40 d5 d6 08 41
       7.6219144 3.803323 3.1564407 8.552449
000280 fb 62 14 41 37 92 11 41 76 07 fa 40 f3 24 3f 41
       9.274165 9.098197 7.8134108 11.946521
000290 8e c9 fa 40 91 83 f9 41 ae 4c 0f 40 57 77 9a 3f
       7.837104 31.189241 2.2390552 1.206767
0002a0 de 07 22 41 13 bc 91 3f db af ab 40 a6 1b c9 41
       10.126921 1.1385521 5.3652167 25.1385
0002b0 f5 31 5a 40 69 fa c7 40 b1 e8 13 40 34 41 6f 40
       3.4092991 6.2493176 2.3110774 3.7383547
0002c0 36 de 25 40 c6 30 94 3e 58 66 9d 40 d8 fe c3 3e
       2.5916877 0.2894346 4.918743 0.38280368
0002d0 93 56 fb 40 34 46 18 3e 48 7a b9 41 dc 1b 69 40
       7.854318 0.1487053 23.184708 3.6423254
0002e0 d8 db 87 40 6e fe 44 40 9d 4e 56 40 a7 6e 67 3f
       4.2455864 3.0780292 3.3485482 0.9040322
0002f0 bd 1b 0f 40 d6 2b 85 3f cf 32 11 40 b8 9f 00 41
       2.236068 1.0404003 2.268726 8.038994
000300 0a 7d be 40 4b 19 d3 40 61 77 6d 40 28 ef 3a 41
       5.9527636 6.5968375 3.7104113 11.683388
000310 39 b3 85 40 b3 a2 3a 41 e9 dd 41 40 dc 79 89 40
       4.178128 11.6647215 3.0291693 4.2961254
000320 1d d5 85 40 99 7f ab 41 ba 93 d3 40 38 0d de 3f
       4.182265 21.437304 6.611783 1.7347784
000330 80 71 c0 3f 31 be 94 40 fb 88 79 41 84 81 80 40
       1.5034637 4.6482167 15.5959425 4.01581
000340 09 37 c1 40 6e 1e 26 41 58 43 fb 3f c7 00 f2 41
       6.037968 10.382429 1.9629927 30.25038
000350 35 ee f9 3f 45 a2 1d 40 5c e2 05 40 60 f6 82 40
       1.952582 2.4630291 2.0919409 4.092575
000360 fe 92 d9 40 50 1e 3f 40 ae fb 88 40 2d 58 6a 40
       6.7991934 2.9862251 4.2807226 3.6616318
000370 4b 0b db 40 3b 57 f8 40 55 3f 40 40 b3 18 ef 40
       6.8451285 7.7606483 3.0038655 7.471765
000380 2c 85 9a 40 a7 7d 79 40 ee ab b9 3e 41 6e e7 3f
       4.8287563 3.8982942 0.36263984 1.8080522
000390 7b f3 46 40 43 13 2e 41 4b cc 08 41 98 63 97 40
       3.1086109 10.879703 8.549876 4.7309074
0003a0 89 c0 72 40 66 85 eb 40 e4 75 30 40 1f ab c9 40
       3.7930014 7.360034 2.7571955 6.302139
0003b0 1f de 7d 41 30 8e 84 40 a2 3d 21 40 78 05 67 41
       15.866729 4.142357 2.5193868 14.438835
0003c0 37 56 d5 40 b0 62 8c 40 02 c0 4f 40 8f b9 d5 40
       6.6667743 4.387047 3.2460942 6.678901
0003d0 8d 63 93 40 24 67 03 41 cb 34 a5 40 df 59 86 40
       4.605902 8.212681 5.1626945 4.1984706
0003e0 af 65 13 40 13 e2 51 40 89 6b 58 40 ee 99 7e 40
       2.3030813 3.2794235 3.3815634 3.9781451
0003f0 26 1e 43 40 e5 bd c2 41 19 94 0d 40 be 1b 1f 41
       3.048715 24.342722 2.2121642 9.944273

fc2.weight f4 [300, 404]
000000 b7 eb 04 bd c5 a7 37 be dc 35 de 3c 3a bb ad 3e
       -0.032451358 -0.17935093 0.027125292 0.33931905
000010 39 1d 1c bd af 32 13 3e b4 21 a4 3d 81 81 8d bd
       -0.038113806 0.14374803 0.08014241 -0.069094665
000020 31 44 9f bf a6 8c 74 bf aa 1c 00 bf 38 f6 65 bf
       -1.2442685 -0.9552711 -0.5004374 -0.89828825
000030 80 91 29 be 8c 2d 97 3e a6 4b 84 bf cc b1 85 be
       -0.1655941 0.29526937 -1.0335586 -0.2611221
000040 e2 68 0f bd b5 5d 6a be 07 71 a4 3e a3 c4 26 be
       -0.035012133 -0.22887309 0.32117483 -0.16285948
000050 fe f6 b1 3e 93 58 f6 3d f0 92 6f 3d 6b 11 b3 bc
       0.34758753 0.12028613 0.05848974 -0.021858891
000060 c8 3b 20 3e f6 45 f7 3c 30 b4 c4 bd 8a 20 7e 3e
       0.15647805 0.030184727 -0.096046805 0.248171
000070 2e 2d 73 be 07 0c 5d be 25 38 6a be 10 58 f5 be
       -0.23747703 -0.2158662 -0.2287298 -0.4791875
000080 40 a4 a9 be 83 b4 f0 be 81 e8 f8 3e c4 78 c8 3d
       -0.33133125 -0.4701272 0.48614886 0.09788659
000090 7a ce 84 be 8a ac 79 bd 7c f4 a8 3e d2 33 2f bf
       -0.2593878 -0.06095556 0.32999027 -0.68438447
0000a0 0c bd b7 3e 16 ed c0 be 04 1b ad 3d f0 a2 09 bf
       0.3588642 -0.37680882 0.084524184 -0.5376425
0000b0 59 23 ed be ce 92 31 bf 6e f0 6f bb 77 fc 33 3e
       -0.4631603 -0.6936463 -0.0036611813 0.17576776
0000c0 7c bc 43 bf 73 78 f6 be 8a 9e cb be dd 10 40 3d
       -0.7645948 -0.4813877 -0.39769393 0.046891082
0000d0 b2 4b e1 bd c5 c9 c3 bc 80 8d c2 bd 0e d5 1b bd
       -0.11000766 -0.023899922 -0.09499645 -0.03804498
0000e0 4b db 35 be c4 1d 7c be 50 d0 a0 be ad 52 07 3e
       -0.17759435 -0.2462073 -0.3140893 0.13215132
0000f0 0a c0 0c bf 8f b7 e0 3e f8 d7 b1 be 9d 25 0f be
       -0.5498053 0.43890044 -0.34735084 -0.13979192
000100 72 ce d5 bd 4e 61 af bd 87 cd 90 3d 08 95 c6 be
       -0.10439767 -0.08563481 0.07070451 -0.38785577
000110 86 1b 71 be db 46 b3 3d 2b d7 49 3d 4a 2f 0f bf
       -0.23545656 0.08753749 0.049277466 -0.5593153
000120 2b 9b 6a bf cd 6d c2 bd 40 7e 12 bf 7d 0c 72 3e
       -0.9164302 -0.09493599 -0.5722389 0.23637576
000130 e9 65 b1 3d 14 47 a8 bd d9 12 db 3b 8f 27 02 be
       0.08662016 -0.08216682 0.0066855964 -0.12710403
000140 80 dd 8f be 8b 56 dd 3e 87 cd b2 be a3 32 4b bd
       -0.2809868 0.4323009 -0.3492243 -0.049608838
000150 b9 45 74 be d9 86 1f be 30 37 a0 be 8d ff 47 be
       -0.23854722 -0.15578784 -0.31292105 -0.19531079
000160 c5 60 bc 3e b0 27 2c bf 12 56 8a be d3 61 72 bf
       0.3679258 -0.6724806 -0.2701879 -0.9468052
000170 d7 05 79 3a a4 cc 9c bd 9a 46 be 3e c1 a2 63 3e
       0.00094994664 -0.076562196 0.3716324 0.22230054
000180 56 98 22 bd 43 d4 22 3f 09 d4 c7 3c 83 46 5b 3c
       -0.03969606 0.63605136 0.024393098 0.0133835105
000190 e4 65 84 bf 82 7b b5 bc 24 27 78 be 75 bc 4c bd
       -1.0343595 -0.02215362 -0.24233681 -0.049984414
0001a0 13 13 fd 3e de 2d f9 3d b1 53 a5 be 9a 28 8e bd
       0.49428615 0.121669516 -0.32290414 -0.06941338
0001b0 81 27 2c be f6 ab 5e be 65 96 04 3f f8 c2 2f 3e
       -0.16811945 -0.21745285 0.51791984 0.17164218
0001c0 cc 40 dd bc 0d 77 0c be 5e cb 15 bf c3 fe 42 bc
       -0.027008437 -0.1371729 -0.5851344 -0.01190156
0001d0 07 36 27 bf f5 d6 cd be 63 d6 b4 be 80 83 52 bf
       -0.65316814 -0.40203062 -0.35319814 -0.82231903
0001e0 85 57 04 be e2 45 b3 bc 79 29 96 be 43 e8 28 bf
       -0.12924011 -0.021883909 -0.29328516 -0.65979403
0001f0 64 c8 0f bf b5 23 0c bf 5f 87 6b be 66 13 07 3e
       -0.56165147 -0.54741985 -0.23000859 0.13190994
000200 bf 81 ec bd c1 21 17 3f da 8f 20 be da d5 2f bf
       -0.115481846 0.5903588 -0.15679875 -0.68685687
000210 17 5b 32 3e 63 35 16 3e 13 05 4a 3e 29 15 ea 3d
       0.1741756 0.14668803 0.19728498 0.11429817
000220 7a 18 13 bf c4 c9 b6 be 8b 73 07 bf cf 25 86 bf
       -0.57459223 -0.3570081 -0.5291068 -1.0480288
000230 a4 0b bb 3e 40 05 27 be 96 21 8a be 70 79 ae 3c
       0.3653232 -0.16310596 -0.2697875 0.02129814
000240 46 c2 fa bc 5d ca d9 be be b6 60 3e cc a5 52 3e
       -0.030610215 -0.42537203 0.2194471 0.20571059
000250 81 4e d2 3e b8 76 d7 be 13 17 04 bf 62 2c bf be
       0.4107552 -0.42082763 -0.5159771 -0.3733855
000260 98 eb 8b be 71 d4 cc bc b1 a9 83 bf 85 c9 43 3e
       -0.2732818 -0.025003644 -1.0286161 0.19119842
000270 38 c4 74 be c6 63 fc be e4 72 37 3e 31 7f 11 be
       -0.23902977 -0.4929487 0.17914921 -0.14208676
000280 83 fa 73 3e ec 3a 07 bf 5e ba 05 3e 96 bf 49 bc
       0.23826031 -0.5282428 0.13059375 -0.012313744
000290 fc de b5 bd 7a 6d 3d be a1 d6 d4 be 83 d4 a7 3d
       -0.088804215 -0.18498793 -0.4157 0.0819483
0002a0 76 f5 57 be 17 11 a4 be 63 15 ae 3d 58 38 1a 3b
       -0.2108973 -0.3204429 0.08500173 0.0023532119
0002b0 50 b4 99 be 92 93 a8 be 39 d8 09 bf 32 e4 2e bf
       -0.3002038 -0.32925087 -0.53845555 -0.6831695
0002c0 da d2 83 3d a7 96 97 be 05 57 cc be d9 c7 68 3e
       0.06436701 -0.29607126 -0.3991014 0.22732486
0002d0 b9 e7 89 be 11 e2 61 3d 3f 9e 2e bf f5 d3 7f bd
       -0.26934603 0.055147234 -0.68210214 -0.062457997
0002e0 c9 d8 67 3e 55 04 30 bf 7b bb ce bd 1d 65 ce 3c
       0.2264129 -0.6875661 -0.10094353 0.025194699
0002f0 22 c7 60 be 62 62 08 3f 70 b6 8a be 5c 7a fe 3d
       -0.21950963 0.5327512 -0.27092314 0.12425682
000300 de b6 c3 bb 29 ea c2 be 8a 35 80 be 7a fb c7 bd
       -0.005972727 -0.38069275 -0.25040847 -0.09764762
000310 77 54 a3 bd 63 9e 8c 3e 83 2f c4 3d 33 b9 f5 be
       -0.07975095 0.2746459 0.09579375 -0.47992858
000320 8a 6b ea be 79 19 19 bf b2 51 62 3d 17 3d 87 be
       -0.4578517 -0.59804493 0.055253692 -0.26413795
000330 82 6a 02 bf 4b 07 89 3e 1b 91 02 bf 38 dc 6c 3e
       -0.5094377 0.26763377 -0.51002663 0.23130882
000340 40 86 25 be 88 f7 28 be 65 d6 3b 3e e0 25 8c be
       -0.16164494 -0.16500676 0.18343504 -0.27372646
000350 33 72 a9 be e2 91 81 bb 3a 3f 50 bf e0 c7 d5 be
       -0.3309494 -0.003954158 -0.81346476 -0.41754055
000360 aa fd 0c be 17 46 a5 be 8d 99 eb be 82 ad 6c 3e
       -0.1376864 -0.32280037 -0.46015587 0.23113063
000370 d0 6b b5 3d 48 c7 e1 be e5 88 1c 3e 6f fb fd 3d
       0.08858454 -0.44097352 0.15286596 0.12401473
000380 b1 59 1a 3e dc 2c 87 be a9 43 3c bf e9 80 84 3d
       0.15073277 -0.26401412 -0.7354074 0.064699
000390 23 23 02 bf 8f 79 2f bf 09 a3 70 3e bc 43 6a be
       -0.50834864 -0.6854486 0.23499693 -0.22877401
0003a0 26 9c 00 3e ef a5 0b bf fd 20 ef bd 59 1e cf 3d
       0.12559566 -0.5455007 -0.11676214 0.1011321
0003b0 5e 21 95 be 98 b2 08 bc 3f 9b 59 3e c1 8e 5a 3b
       -0.2912702 -0.008343361 0.21250628 0.0033349248
0003c0 45 5c d4 be 7d 6f a4 be fd be 25 bf 14 67 a6 be
       -0.41476646 -0.3211631 -0.6474455 -0.32500517
0003d0 7b 16 d9 be b7 3c a8 bf 27 65 15 bd e6 6b 21 3e
       -0.42399964 -1.3143529 -0.03647342 0.15763816
0003e0 ce 18 84 be 20 92 c8 be 8f 96 5d be 35 95 9a 3e
       -0.25800174 -0.39173985 -0.21639465 0.3019196
0003f0 fc d9 fa bd 5a 30 fd be c7 8a a9 3d 79 56 7d be
       -0.122486085 -0.49450952 0.08278423 -0.24740018
