checkpoint_actor.pth (torch_old, 548258 bytes, 10 tensors)

fc1.weight f4 [400, 33]
0	0xbc8dc2b2	-0.017304752
1	0x3ed18804	0.40924084
2	0xbeeda585	-0.46415344
3	0xbe8434e9	-0.25821617
4	0x3de3112c	0.1108726
5	0xbe0a5f53	-0.13512926
6	0xbed1f4bf	-0.4100704
7	0x3e17ec63	0.14836268
8	0x3f07fc6b	0.53119534
9	0x3e0950c5	0.13409717
10	0xbe7cf462	-0.247026
11	0x3e3c9f1a	0.18420067
12	0xbe14186d	-0.14462443
13	0xbea9ebd2	-0.3318773
14	0x3ed28336	0.4111573
15	0xbdbf0f52	-0.09329094
16	0xbd929eba	-0.07159181
17	0xbe280be8	-0.16410792
18	0xbf6e2f93	-0.9304134
19	0x3ec3df2e	0.3825621
20	0xbd6d0e03	-0.05787469
21	0x3ed31963	0.41230306
22	0xbd49fdcd	-0.04931431
23	0x3ecb9daa	0.39768726
24	0x3e41d676	0.18929467
25	0x3e0afae8	0.13572276
26	0x3ea335ea	0.3187707
27	0xbc8e93db	-0.017404487
28	0xbdecce50	-0.115627885
29	0x3c42acd8	0.0118820295
30	0x3d1e975f	0.038718577
31	0x3d01129b	0.031511884
32	0x3d813da3	0.063105844
33	0xb8a05726	-7.645627e-05
34	0x3dd2804f	0.10278379
35	0xbd96fc8c	-0.07372388
36	0x3e312727	0.17300092
37	0x3e2cdf9d	0.16882177
38	0x3e9597ec	0.2921747
39	0xbf0558fe	-0.52088916
40	0x3de88bb0	0.11354768
41	0x3ec096b8	0.3761499
42	0xbe240ec6	-0.1602126
43	0xbe91d489	-0.28482464
44	0x3e8d4e3c	0.2759875
45	0x3d896ee0	0.06710601
46	0xbeaf37db	-0.34222302
47	0x3e6327b0	0.22183108
48	0xbc32ac05	-0.01090527
49	0x3d448c17	0.047985163
50	0x3e9f9e59	0.31175497
51	0x3e143265	0.14472349
52	0x3e812067	0.25220034
53	0xbd99a783	-0.075026534
54	0x3f025ba5	0.5092109
55	0x3df5cea4	0.12002304
56	0xbeebe025	-0.46069446
57	0xbd1382ab	-0.036013287
58	0x3ea28954	0.31745398
59	0x3d6a5f3b	0.057219725
60	0x3d47ec45	0.04880931
61	0xbe7527e1	-0.23940994
62	0x3d23b911	0.039971415
63	0x3d3b5a69	0.04574052
64	0xbc6ab3ec	-0.014325123
65	0x3f6eac7f	0.9323196
66	0x3e3e8e20	0.18608904
67	0xbe3083ae	-0.17237732
68	0x3e4b3ac3	0.19846635
69	0xbe678ea6	-0.2261301
70	0x3cdabdfd	0.026701922
71	0x3e765cf3	0.24058895
72	0x3d6e14d5	0.058125336
73	0xbe1cc246	-0.15308484
74	0x3f03868d	0.51377183
75	0x3e512883	0.2042561
76	0x3dd4aeaa	0.10384877
77	0xbc909856	-0.017650764
78	0x3d6054bf	0.05476832
79	0xbe74f89e	-0.23922965
80	0x3d3a0e97	0.04542407
81	0xbf0d1c29	-0.55121094
82	0x3e8c67ac	0.27422845
83	0xbeead537	-0.45865795
84	0xbe2e6b1a	-0.17033044
85	0xbe85df61	-0.26146987
86	0x3df94e57	0.12173145
87	0x3a381314	0.0007021886
88	0xbe6f10ea	-0.23346296
89	0x3d077766	0.03307285
90	0x3c98bddb	0.018645218
91	0xbdfe47b4	-0.1241602
92	0x3e847ae6	0.25875014
93	0x3d1b860e	0.03796964
94	0x3f1042c3	0.5635187
95	0xbcd327bd	-0.025775785
96	0x3d228892	0.039681025
97	0x3bb6da70	0.005580239
98	0xbf468065	-0.77539665
99	0xbeab6848	-0.33477998
100	0x3f2f1759	0.68395
101	0x3eab5680	0.33464432
102	0x3e78781c	0.24264568
103	0xbcba3491	-0.022730144
104	0xbee70a09	-0.45124844
105	0xbf02dddf	-0.511198
106	0x3d97acfb	0.0740604
107	0x3eb939cb	0.36176905
108	0x3d423308	0.04741195
109	0xbe448bcf	-0.19193958
110	0x3e8cd9d6	0.27509946
111	0xbdf48f48	-0.11941391
112	0x3ea7b89e	0.3275804
113	0xbeb0cf86	-0.34533328
114	0xbeeacfa6	-0.45861548
115	0xbde3ae3c	-0.11117217
116	0x3d0ad376	0.03389307
117	0x3e57bb96	0.21067652
118	0x3d847422	0.06467463
119	0xbdbc032c	-0.091802925
120	0x3e32f374	0.17475682
121	0xbec42817	-0.38311836
122	0xbcd401ba	-0.02587973
123	0xbe111d6b	-0.14171378
124	0xbe9eb2e8	-0.3099587
125	0xbe21f320	-0.15815401
126	0x3c825d0b	0.015913507
127	0x3e7fc505	0.249775
128	0xbc656054	-0.014000017
129	0x3c93f695	0.018061915
130	0x3cf67182	0.030083422
131	0x3f13d886	0.57752264
132	0x3e9ee659	0.31035116
133	0xbeef4b3b	-0.46737084
134	0x3e5bcfef	0.21466039
135	0xbedf726a	-0.43641979
136	0x3d58a40c	0.052890822
137	0xbf0acebd	-0.5422171
138	0xbed2806c	-0.41113603
139	0xbd8a4430	-0.06751287
140	0x3eb2eb17	0.34944984
141	0x3ddff424	0.10935238
142	0xbd1655f3	-0.03670306
143	0x3d435f0d	0.04769807
144	0xbd96f09e	-0.07370113
145	0xbeee4f9c	-0.46545112
146	0x3e7e1054	0.24810916
147	0xbe87462d	-0.26420727
148	0x3e488e78	0.19585598
149	0xbe04af4d	-0.12957497
150	0xbedce585	-0.4314386
151	0x3e5ba057	0.21447884
152	0x3dc146b5	0.094373144
153	0x3e308d67	0.1724144
154	0x3ddf0d2e	0.10891186
155	0xbe0c25b9	-0.13686265
156	0x3ce14056	0.027496498
157	0xbe12f9f7	-0.14353167
158	0x3f3d7cef	0.7401876
159	0x3d218bbb	0.039439898
160	0x3e877340	0.26455116
161	0xbcaad52a	-0.020853598
162	0xbd160d4f	-0.036633786
163	0xbc268348	-0.010163136
164	0xbf1d4f82	-0.61449444
165	0x3ec566f2	0.38555104
166	0x3e909e28	0.28245664
167	0xbeab0a49	-0.33406284
168	0xbeb1afa5	-0.3470432
169	0x3e3c7e50	0.1840756
170	0xbea82be9	-0.32846
171	0x3ed202e5	0.41017833
172	0x3f332fa9	0.699946
173	0x3f1f2415	0.6216443
174	0x3d3c450e	0.045964293
175	0x3d600ef9	0.05470178
176	0xbe2cf905	-0.16891868
177	0xbf321852	-0.6956836
178	0xbe3b648b	-0.18300073
179	0xbcfa5fdb	-0.030563286
180	0x3eb3fd8a	0.35154372
181	0xbe3d4fad	-0.18487425
182	0xbe52f0c6	-0.2059966
183	0x3d9ed46e	0.077553615
184	0x3c97f135	0.018547634
185	0x3e123c64	0.1428085
186	0x3e4d3f10	0.20043588
187	0xbed41edd	-0.41429797
188	0xbe987954	-0.29780066
189	0xbe9c19e9	-0.30488518
190	0xbee21161	-0.44153884
191	0xbde99c50	-0.11406767
192	0xbd2e5539	-0.042561743
193	0xba00a959	-0.0004908047
194	0xbd40f405	-0.047107715
195	0xbd09464c	-0.033514306
196	0x3c4f0804	0.012636188
197	0x3ecb7b2a	0.39742404
198	0xbe04f753	-0.12984972
199	0xbf03d004	-0.5148928
200	0xbef6d025	-0.48205677
201	0xbcdd3044	-0.027000554
202	0x3e32366b	0.17403571
203	0x3e283676	0.16427025
204	0xbf24f6ab	-0.64438885
205	0xbe5dc473	-0.2165697
206	0xbe88993b	-0.26679406
207	0xbe141702	-0.14461902
208	0xbdd1a3e1	-0.102363355
209	0xbedbd5af	-0.42936465
210	0xbd5fc004	-0.05462648
211	0xbdf626b9	-0.120191045
212	0x3e7d8bf9	0.24760427
213	0x3e49c387	0.19703494
214	0xbda6a9d6	-0.081378624
215	0xbf26970b	-0.65074223
216	0x3dfe20b3	0.12408581
217	0xbf33037f	-0.6992721
218	0xbe58b3b3	-0.211623
219	0xbdd34140	-0.1031518
220	0x3d5e9d0e	0.054348998
221	0xbdeb3ba3	-0.11485984
222	0xbe08ae30	-0.13347697
223	0x3f0f9ce6	0.56098783
224	0xbdb10d49	-0.08645112
225	0x3c9c5a6e	0.019086089
226	0xbe85a7d5	-0.26104608
227	0x3cd8dea6	0.026473355
228	0x3d17bdd1	0.037046257
229	0x3d0e4079	0.034729455
230	0xbf9cb292	-1.2241995
231	0xbf1963b1	-0.5991774
232	0x3f28e7e1	0.6597882
233	0xbecb72dd	-0.3973607
234	0xbed10d66	-0.40830535
235	0xbe22bc90	-0.15892243
236	0x3e84b927	0.2592251
237	0x3e43473e	0.19070145
238	0xbe1d01a0	-0.15332651
239	0x3dc6caf9	0.09706683
240	0x3a5f8682	0.0008526818
241	0xbd912bc0	-0.07088423
242	0xbd6e6305	-0.0581999
243	0xbd65d46c	-0.056110784
244	0xbc80da50	-0.0157291
245	0xbed6ded1	-0.4196687
246	0xbe2079cb	-0.1567146
247	0x3b489364	0.003060543
248	0xbdd8089e	-0.105485186
249	0x3e3f7a37	0.18698965
250	0x3dc9e7aa	0.098586395
251	0x3eced3a6	0.4039585
252	0x3e3f9185	0.18707855
253	0xbe82bfe8	-0.25537038
254	0x3b915435	0.004435087
255	0xbe526323	-0.2054563

fc1.bias f4 [400]
0	0x3e0b6153	0.13611345
1	0xbe0f09d7	-0.13968597
2	0x3daccfc4	0.08438066
3	0xbdbf931e	-0.09354232
4	0x3b2d1368	0.0026409272
5	0xbccecb6c	-0.025243483
6	0xbca4e79c	-0.020129971
7	0xbdb0d442	-0.08634235
8	0xbe03936a	-0.12849203
9	0xbe2d13a5	-0.16902025
10	0xbe119bc7	-0.1421958
11	0x3dbc2d5a	0.091883376
12	0xbdf7e553	-0.12104287
13	0xbd6e0200	-0.058107376
14	0x3e13c2e1	0.14429809
15	0x3d4c52b7	0.04988357
16	0x3e206b4c	0.1566593
17	0x3e29dfa6	0.16589221
18	0x3db3eebc	0.08785769
19	0x3dd735cd	0.105083086
20	0xbe0bd948	-0.13657105
21	0xbd9b234e	-0.07575093
22	0xbe1b5d7b	-0.15172379
23	0xbd2ee91e	-0.042702787
24	0x3ddb348c	0.10703382
25	0xbca11056	-0.01966111
26	0x3b60a042	0.0034275209
27	0xbe196c51	-0.14982726
28	0x3d239dc9	0.039945398
29	0x3df4e916	0.1195852
30	0x3d2f2b14	0.042765692
31	0xbda00095	-0.07812611
32	0x3d9499cb	0.07255896
33	0xbbd1859a	-0.0063941004
34	0x3dcfaffd	0.10140989
35	0x3df974b2	0.12180461
36	0xbdbf15ef	-0.093303554
37	0x3cdb9590	0.026804715
38	0xbd5a15b3	-0.05324335
39	0xbd3b02fd	-0.045657147
40	0xbe2d393b	-0.16916363
41	0x3e246c05	0.16056831
42	0x3d808839	0.062759824
43	0xbc71e2ad	-0.014763516
44	0xbe09700a	-0.13421646
45	0xbdb0ac24	-0.08626583
46	0x3d8df81c	0.06932089
47	0x3d964bfa	0.0733871
48	0x3dead768	0.11466867
49	0xbdb15e1c	-0.08660528
50	0x3e06b590	0.13155198
51	0xbda3a5bc	-0.07990596
52	0x3da93561	0.08262134
53	0x3cad946c	0.021188937
54	0x3c1c6fdf	0.0095481565
55	0x3c62ad62	0.013835283
56	0xbe22e5c2	-0.15907958
57	0x3cd17756	0.0255696
58	0x3e12c87b	0.1433429
59	0xbd218230	-0.039430797
60	0x3ddfeaff	0.10933494
61	0x3d0c289a	0.03421841
62	0x3db4df7a	0.08831687
63	0xbdb81ab3	-0.089894675
64	0x3d9e5995	0.0773193
65	0x3e0d278a	0.13784614
66	0xbdbc9b11	-0.09209264
67	0x3e174252	0.14771393
68	0xbd656ebe	-0.056013815
69	0xbccc001c	-0.024902396
70	0xbe244c7a	-0.16044798
71	0x3dcd97bc	0.10038707
72	0x3d2fee51	0.042951886
73	0x3e1578a1	0.14596798
74	0xbdc01d93	-0.09380641
75	0x3ceae5c1	0.028674008
76	0xbc7c0dbc	-0.015384134
77	0x3e189e7b	0.14904206
78	0x3d3b7d44	0.04577376
79	0xbe06ca75	-0.13163169
80	0x3dcd5d6d	0.10027585
81	0x3e0667a0	0.13125467
82	0x3d31d0af	0.043411907
83	0x3d6c5d95	0.057706434
84	0x3dbf0fc0	0.09329176
85	0x3d594032	0.053039737
86	0x3daa6aab	0.083211266
87	0x3e2c2410	0.16810632
88	0xbd6eaf80	-0.05827284
89	0xbe09b7eb	-0.13449065
90	0x3b8d0401	0.004303456
91	0xbd78898b	-0.060678046
92	0x3a5b8c0e	0.0008375057
93	0x3da7d5ff	0.081951134
94	0xbd44dfb7	-0.048064914
95	0xbc47e373	-0.012200224
96	0x3da131c9	0.07870824
97	0xbe0326ae	-0.12807724
98	0xbda138d8	-0.0787217
99	0x3cc77ab0	0.024350494
100	0x3ddfce1a	0.10927983
101	0x3bb5ca85	0.005547824
102	0x3cc87037	0.02446757
103	0x3e104790	0.14089799
104	0x3e2d981b	0.16952555
105	0xbbee46de	-0.0072716316
106	0xbd307fb3	-0.043090533
107	0xbd1da895	-0.03849085
108	0xbd96ef61	-0.07369877
109	0x3defcbb6	0.11708777
110	0xbd6819c3	-0.056665193
111	0x3db6357f	0.08896922
112	0xbdf1b192	-0.11801447
113	0xbdca7376	-0.09885304
114	0x3df18d65	0.11794547
115	0xbd925bfa	-0.071464494
116	0xbd8d27a9	-0.0689233
117	0xbd558437	-0.052128043
118	0xbd0c3a4a	-0.034235276
119	0xbd274e0b	-0.040845912
120	0x3c615cfc	0.013755079
121	0xbd1a4fcd	-0.03767376
122	0x3d528933	0.051400375
123	0x3dfff7ff	0.124984734
124	0xbe081b4b	-0.13291661
125	0x3e19fcc9	0.15037836
126	0x3dcd4de4	0.10024622
127	0x3d5b6b6a	0.053569235
128	0xbaac1fe8	-0.0013132067
129	0x3e0a9297	0.13532482
130	0x3df0f127	0.11764746
131	0xbdd1f091	-0.102509625
132	0x3d0f765a	0.03502498
133	0xbdf42059	-0.11920232
134	0x3df5ba66	0.11998443
135	0x3dbabe9b	0.09118386
136	0x3c951188	0.018196836
137	0x3e0d642e	0.13807747
138	0x3d079dc8	0.033109456
139	0xbd755615	-0.059896547
140	0xbd0995fa	-0.033590294
141	0xbe0cc9c3	-0.13748841
142	0x3d99d9a3	0.07512214
143	0x3c085570	0.008321151
144	0x3d449fed	0.04800408
145	0xbdc334de	-0.09531568
146	0x3ce617a7	0.02808745
147	0xb9984e07	-0.00029049834
148	0x3e1f84d4	0.15578014
149	0x3dc7f6fc	0.097639054
150	0x3e1a3e5d	0.15062852
151	0xbe2d7da8	-0.16942465
152	0xbd6599e8	-0.05605498
153	0xbc0002b2	-0.007813143
154	0x3e25d50e	0.16194555
155	0x3cf10c61	0.029424848
156	0xbd899a45	-0.06718878
157	0x3de0043b	0.10938307
158	0xbe1838ac	-0.14865369
159	0x3d86cd6f	0.06582152
160	0xbe24fe10	-0.16112542
161	0x3e07a193	0.1324523
162	0x3e2d8647	0.16945754
163	0x3c1a4915	0.009416838
164	0x3dbc8259	0.09204549
165	0x3e1a2aa5	0.1505533
166	0xbe1a1313	-0.15046339
167	0xbd915970	-0.07097137
168	0xbd246994	-0.04013975
169	0xbd885bf3	-0.06658163
170	0x3e2b9837	0.16757284
171	0x3dd86392	0.105658665
172	0x3dc0c86a	0.09413226
173	0x3e10a026	0.14123592
174	0xbd456552	-0.04819233
175	0xbb5c91e2	-0.003365629
176	0x3dbc6f7d	0.09200952
177	0x3d665a27	0.05623832
178	0xbd685e9e	-0.05673086
179	0x3ba81d58	0.005130451
180	0x3e20fff6	0.15722641
181	0xbe28d419	-0.16487159
182	0x3e302d28	0.17204726
183	0xbe104215	-0.14087708
184	0x3c84f1b4	0.016228534
185	0x3cfd9c18	0.03095822
186	0xbe290772	-0.16506746
187	0xbd99c26d	-0.07507787
188	0x3dbe04ad	0.092782356
189	0xbe2e9ee7	-0.17052804
190	0xbd8b4338	-0.0679993
191	0xbda30b24	-0.07961109
192	0x3c0e2cb3	0.008677649
193	0xbe053605	-0.13008888
194	0x3de070d2	0.10959019
195	0xbe051d40	-0.12999439
196	0xbd9b4b8d	-0.075827695
197	0x3dfbbc59	0.12291784
198	0x3e28968a	0.16463676
199	0x3cbf2a3f	0.023335574
200	0xbda85bf9	-0.082206674
201	0x3c571580	0.013127685
202	0xbd914e7e	-0.07095049
203	0x3e161e40	0.14659977
204	0xbd80b2b8	-0.06284088
205	0x3ca61f7e	0.020278689
206	0x3c7f2d1f	0.015574723
207	0xbe2f412e	-0.17114708
208	0xbd5b9da4	-0.053617135
209	0x3db5acc6	0.088708445
210	0x3c96b6d3	0.018397724
211	0x3ce6f930	0.028194994
212	0xbdb5b8c3	-0.08873131
213	0x3e1c8998	0.15286863
214	0xbe0aaf01	-0.13543321
215	0xbe02f8cc	-0.12790221
216	0xbd088364	-0.03332843
217	0x3dbdf972	0.092760935
218	0xbddaaa34	-0.10676995
219	0xbd55f845	-0.05223872
220	0x3d10057b	0.035161477
221	0x3d75067b	0.059820633
222	0xbd60a08b	-0.054840606
223	0x3dc61453	0.09671845
224	0x3dcc8a27	0.09987288
225	0x3d07b638	0.03313276
226	0x3cdde0df	0.027084766
227	0x3e20ac6d	0.15690775
228	0x3d84b953	0.0648066
229	0xbe0b4fb0	-0.13604617
230	0xbd067380	-0.032824993
231	0x3d88799a	0.06663819
232	0xbd85c6c7	-0.065320544
233	0x3df25bd9	0.11833925
234	0xbd475a5c	-0.048670158
235	0x3d459778	0.048240155
236	0x3c5be3ba	0.013420993
237	0x3be1c89e	0.0068903705
238	0xbc601089	-0.013675817
239	0xbbce9ee3	-0.006305562
240	0xbcfe8630	-0.031069845
241	0xbc75c87e	-0.015001414
242	0xbd6cc972	-0.0578093
243	0x3de118cb	0.10991057
244	0x3db1b3b3	0.08676853
245	0x3e07b767	0.13253556
246	0x3df8a5a0	0.121409655
247	0x3dcd7cd6	0.10033576
248	0xbe1d0257	-0.15332924
249	0x3e0c0367	0.13673173
250	0x3e227a2a	0.15866914
251	0xbccf9b2d	-0.025342548
252	0xbd22b439	-0.039722655
253	0xbd50fdb7	-0.05102321
254	0xbdc2649e	-0.094918475
255	0x3d1c98eb	0.03823177

bn1.weight f4 [400]
0	0x3f16698e	0.58754814
1	0x3f1e61f5	0.6186822
2	0x3f1f0bf7	0.6212763
3	0x3f1a0851	0.6016894
4	0x3f8d0e47	1.1019982
5	0x3eee3b85	0.46529785
6	0x3f28e117	0.6596846
7	0x3f67a51e	0.90486324
8	0x3f2fd206	0.68679845
9	0x3f44a575	0.7681497
10	0x3f1fcb67	0.6241974
11	0x3f494daa	0.7863413
12	0x3f8cf883	1.101334
13	0x3f046c76	0.51728
14	0x3f19e0b2	0.6010848
15	0x3f46eaf5	0.77702266
16	0x3f1b9177	0.60768837
17	0x3f7ee464	0.99567246
18	0x3f29b332	0.66289055
19	0x3f55ce1f	0.8351764
20	0x3f150f0e	0.58226097
21	0x3f476ba6	0.77898633
22	0x3f3abb0b	0.72941655
23	0x3f6900e1	0.91016966
24	0x3f4bfcc7	0.7968258
25	0x3ef989bd	0.48737898
26	0x3f81eb36	1.0149906
27	0x3f20a294	0.62748075
28	0x3f86159e	1.0475347
29	0x3f242f07	0.6413426
30	0x3f61314d	0.8796585
31	0x3f5a4b7d	0.85271436
32	0x3f45532c	0.77080035
33	0x3f0f09d7	0.5587439
34	0x3f75c642	0.9600564
35	0x3fac04be	1.3438947
36	0x3f20f33e	0.6287116
37	0x3f088732	0.5333129
38	0x3f59023c	0.84769034
39	0x3f508de6	0.8146652
40	0x3efdbf68	0.49560094
41	0x3f3b15c2	0.73080075
42	0x3f555897	0.833383
43	0x3f8613b1	1.0474759
44	0x3f36658a	0.71248686
45	0x3c0934b6	0.008374384
46	0x39c8f1c7	0.0003832711
47	0x3fa12314	1.258883
48	0x3f1b4f55	0.60667926
49	0x3f222684	0.6334002
50	0x3f31a424	0.69391084
51	0xbf09129d	-0.53544027
52	0x3f5d1fd8	0.86376715
53	0x3f92c24e	1.1465547
54	0x3f378c29	0.7169824
55	0x3f1e39c4	0.61806893
56	0x3f525d38	0.8217349
57	0x3f843267	1.0327882
58	0x3f6390c3	0.88892764
59	0x3f2de0eb	0.6792132
60	0x3f24c44b	0.6436202
61	0x3f57f4b8	0.84357786
62	0x3f773839	0.96570164
63	0x3fbecd6b	1.4906439
64	0x3f598910	0.84974766
65	0x3f227860	0.6346493
66	0x3f0d3321	0.5515614
67	0x3efdf83a	0.49603444
68	0x3f2c06f8	0.67198133
69	0x3f594c8f	0.84882444
70	0x3f140ecc	0.5783508
71	0x3f7e4e45	0.9933818
72	0x3f3678a8	0.71277857
73	0x3eeacd9e	0.45859998
74	0x3f3951a3	0.7239019
75	0x3f0db3d9	0.5535255
76	0x3ee23480	0.4418068
77	0x3f200828	0.62512445
78	0x3ad92c84	0.0016569053
79	0x3f0d3357	0.55156463
80	0x3f426beb	0.7594592
81	0x3f0b3e4f	0.5439195
82	0x3f608674	0.8770516
83	0x3f2a3261	0.6648312
84	0x3f6910ac	0.91041064
85	0x3f52e948	0.8238721
86	0x3f247c9a	0.64252627
87	0x3f86d503	1.0533756
88	0x3f282f93	0.6569759
89	0x3f98c255	1.1934305
90	0x3f09c671	0.5381842
91	0x3f555d8c	0.83345866
92	0x3f4fe719	0.81212
93	0x3f019a0a	0.5062567
94	0x3f7bbd1c	0.98335433
95	0x3f1302cd	0.5742615
96	0x3f3f3b4b	0.7469985
97	0x3f5e12fe	0.8674773
98	0x3f8c672e	1.0968988
99	0x3f66a5aa	0.90096533
100	0x3f36b545	0.71370345
101	0x3fadbd92	1.3573477
102	0x3ee5a8f0	0.44855452
103	0x3f2fc121	0.68654066
104	0x3f1ba545	0.60799056
105	0x3f73aadc	0.95182586
106	0x3f38d9cf	0.7220735
107	0x3f576943	0.8414499
108	0x3f1ef0b2	0.6208602
109	0x3f5ffc4f	0.8749437
110	0x3f37682f	0.71643347
111	0x3f3b6e0c	0.73214793
112	0x3f5b6428	0.856997
113	0x3f435f7c	0.7631757
114	0x3f60f9a2	0.8788091
115	0xbabdbd60	-0.0014475994
116	0x3f6ae1c7	0.9175076
117	0x3f4e06f6	0.8047937
118	0x3f379623	0.71713465
119	0x3f18d2e9	0.59696823
120	0x3f374e38	0.7160373
121	0x3f41e6bd	0.75742704
122	0x3f33e6f3	0.70274276
123	0x3f194906	0.5987705
124	0x3f4a7725	0.7908805
125	0x3f483f4b	0.7822158
126	0x3f4f5fbc	0.81005454
127	0x3f3f0195	0.7461179
128	0x3f1b5dc7	0.6068997
129	0x3efea577	0.49735615
130	0x3f77ab4b	0.9674575
131	0x3f8e3465	1.110974
132	0x3ed5cce7	0.4175789
133	0x3f460944	0.7735789
134	0x3f3a0b91	0.726739
135	0x3f52cbed	0.82342416
136	0x3f87bdbe	1.060478
137	0x3f8c4b33	1.0960449
138	0x3f174258	0.5908561
139	0x3f522b40	0.82097244
140	0x3f0766c1	0.52891165
141	0x3f68f881	0.91004187
142	0x3f38a87c	0.72132087
143	0x3ba367a5	0.0049867206
144	0x3f30e775	0.69103175
145	0x3f4a2e08	0.7897649
146	0x3f2847ef	0.6573476
147	0x3f35f52c	0.7107723
148	0x3f89f1f4	1.0776963
149	0x3f15d703	0.58531207
150	0x3ec3c0f7	0.38233158
151	0x3f8da9be	1.1067426
152	0x3f286fa9	0.6579538
153	0x3f018335	0.5059083
154	0x3f2a92a5	0.6663001
155	0x3f2ea1dd	0.68215734
156	0x3f4107aa	0.7540232
157	0x3f4c9764	0.79918504
158	0x3f1f48ee	0.62220657
159	0x3f222ad9	0.6334663
160	0x3f44bf63	0.7685453
161	0x3ee9ebe0	0.4568777
162	0x3f83edf3	1.0306991
163	0x3f50fc8d	0.8163536
164	0x3ef997d4	0.48748648
165	0x3f338bd6	0.7013525
166	0x3f2d58cd	0.67713624
167	0x3f5d0fbb	0.8635213
168	0x3f1b067c	0.6055677
169	0x3f1a997c	0.6039045
170	0x3f210206	0.6289371
171	0x3f00b5fc	0.50277686
172	0x3f51df82	0.8198167
173	0x3efba531	0.4914947
174	0x3f54f8a5	0.831919
175	0x3f53eb07	0.827805
176	0x3f2119d5	0.6293004
177	0x3f4f8a6a	0.8107058
178	0x3f54a197	0.83059067
179	0x3ef804c2	0.4844113
180	0x3f28973b	0.6585576
181	0x3bb63f56	0.0055617495
182	0x3f36e944	0.71449685
183	0x3f2e22a6	0.6802162
184	0x3f093c67	0.5360779
185	0x3eec7c1f	0.46188447
186	0x3f116782	0.56798565
187	0x3f16ba4f	0.58878034
188	0x3f1c0082	0.60938275
189	0x3f1d7147	0.6150097
190	0x3f532dd2	0.8249179
191	0x3f4337a8	0.762568
192	0x3f061c97	0.52387375
193	0x3f0bf735	0.54674083
194	0x3f5658f6	0.83729494
195	0x3f65726a	0.89627707
196	0x3f5f6264	0.8725951
197	0x3f00b6cb	0.5027892
198	0x3efb3cee	0.49069923
199	0x3f1ae376	0.6050333
200	0x3f793451	0.97345454
201	0x3f247b03	0.642502
202	0x3f3ccf22	0.7375356
203	0x3f3b4acf	0.73161024
204	0x3f20f003	0.6286623
205	0x3f37db75	0.7181924
206	0x3f539b8c	0.8265922
207	0x3f545bbb	0.8295247
208	0x3f10b60a	0.5652777
209	0x3f44c419	0.7686172
210	0x3f85ccc0	1.045311
211	0x3f8ef759	1.1169235
212	0x3f3eb70d	0.74498063
213	0x3f506dca	0.81417525
214	0x3f0c5b8c	0.5482719
215	0x3f4985d5	0.78719836
216	0x3f5caa49	0.86197335
217	0x3f39d890	0.72596073
218	0x3f43a006	0.7641605
219	0x3f3fdb39	0.7494388
220	0x3f13df22	0.5776235
221	0x3f0be805	0.5465091
222	0x3f1e1a4f	0.61758894
223	0x3f07e82b	0.53088635
224	0x3f3dd2ad	0.7414959
225	0x3f403831	0.7508574
226	0x3f5629e2	0.8365766
227	0x3f2234b2	0.63361657
228	0x3f286102	0.6577302
229	0x3f8d0c40	1.1019363
230	0x3f4a4ecf	0.790265
231	0x3f87d0ec	1.0610633
232	0x3f2924fe	0.6607207
233	0x3f55669b	0.8335969
234	0x3f483d11	0.7821818
235	0x3f6b09c4	0.91811776
236	0x3f4bc1b2	0.7959243
237	0x3f1e1e58	0.6176505
238	0x3f7127bd	0.9420126
239	0x3f4c4aeb	0.79801816
240	0x3f1ec369	0.6201692
241	0x3f1a8ace	0.6036805
242	0x3f3943fb	0.72369355
243	0x3f967a91	1.1756154
244	0x3f1d17ed	0.6136463
245	0x3f250fc8	0.64477205
246	0x3f5c10db	0.8596322
247	0x3f3bc968	0.73354197
248	0x3f1be7f2	0.60900795
249	0x3f7e243b	0.99274033
250	0x3f3a8007	0.72851604
251	0x3f21e04a	0.6323286
252	0x3f567de1	0.83785826
253	0x3f3a83f0	0.7285757
254	0x3f3f3d08	0.747025
255	0x3f29edb4	0.6637833

bn1.bias f4 [400]
0	0xbf674a79	-0.9034801
1	0xbf75e44f	-0.96051496
2	0xbef500f4	-0.4785229
3	0xbf1b7594	-0.60726285
4	0xbf563c32	-0.836856
5	0xbeca953b	-0.3956698
6	0xbf04d298	-0.5188384
7	0xbf48debc	-0.78464866
8	0xbf1e7bf9	-0.6190792
9	0xbf64820b	-0.8926093
10	0xbf643f44	-0.89159036
11	0x3cfd48ce	0.030918505
12	0xbf62ea21	-0.886385
13	0xbea9d006	-0.33166522
14	0xbf0ae6b8	-0.542583
15	0xbf31e896	-0.6949552
16	0xbee4741e	-0.4461984
17	0xbedcf815	-0.43158022
18	0xbf097f76	-0.53710115
19	0xbf00dfc1	-0.5034142
20	0xbf11e779	-0.56993824
21	0xbf4bd1ce	-0.7961701
22	0xbf492fa8	-0.7858834
23	0xbf522c5d	-0.82098943
24	0xbf34181a	-0.70349276
25	0xbf1fe99e	-0.62465847
26	0xbefaad13	-0.4896017
27	0xbef5e271	-0.48024324
28	0xbec8845e	-0.39163488
29	0xbf085d03	-0.53266925
30	0xbf1f5bf8	-0.6224971
31	0xbf5183c8	-0.8184171
32	0xbf35e6a5	-0.7105506
33	0xbf0a7e03	-0.5409853
34	0xbe9e2336	-0.3088624
35	0xbf1dbbed	-0.61614877
36	0xbefdd760	-0.4957838
37	0xbef0ad9f	-0.47007462
38	0xbed83f8b	-0.4223598
39	0xbf420024	-0.75781465
40	0xbecddcd8	-0.40207553
41	0xbf302c29	-0.68817383
42	0xbf1dad83	-0.6159288
43	0xbf4232f5	-0.75859004
44	0xbea70b5d	-0.32625857
45	0xbd92ee73	-0.07174387
46	0xbc6e4294	-0.014542241
47	0xbf1bb9c2	-0.6083032
48	0xbefa3418	-0.4886787
49	0xbebb4d8f	-0.3658261
50	0xbef1cd2f	-0.47226855
51	0xbeaf87bf	-0.34283254
52	0xbe13dd6e	-0.14439937
53	0xbf25456c	-0.64559054
54	0xbeb571dd	-0.35438433
55	0xbf0831a3	-0.5320074
56	0xbedd23a9	-0.4319127
57	0xbf8339fb	-1.0252069
58	0xbf12020f	-0.5703439
59	0xbf130e54	-0.5744374
60	0xbf5c2ccf	-0.8600587
61	0xbf474823	-0.77844447
62	0xbdd0ac0d	-0.10189066
63	0xbed9df56	-0.42553204
64	0xbd92a601	-0.07160569
65	0xbf4486ee	-0.76768386
66	0xbf256b17	-0.6461653
67	0xbe194c49	-0.14970507
68	0xbee38791	-0.44439366
69	0xbf029eb1	-0.51023394
70	0xbf471f76	-0.7778238
71	0xbf82d0be	-1.0219953
72	0xbf590795	-0.84777194
73	0xbece190b	-0.4025348
74	0xbd371b3c	-0.044703707
75	0xbded5fed	-0.11590562
76	0xbf0ad199	-0.5422607
77	0xbf1cd8aa	-0.61268103
78	0xbc29dbd3	-0.010367352
79	0xbf6e5d97	-0.93111557
80	0xbea04f7a	-0.31310636
81	0xbf2dcd4e	-0.67891395
82	0xbf6afc16	-0.917909
83	0xbf26fc3a	-0.6522862
84	0xbf1f6723	-0.6226675
85	0xbecdbe9c	-0.40184486
86	0xbf33d8be	-0.702526
87	0xbed46c3f	-0.41488835
88	0xbf5532e7	-0.83280796
89	0xbf694ee4	-0.91136
90	0xbf236706	-0.63829076
91	0xbf741569	-0.9534517
92	0xbf4122b8	-0.754436
93	0xbf007011	-0.50171
94	0xbf41dd3a	-0.7572819
95	0xbf232fe9	-0.6374498
96	0x3d44b3d4	0.04802306
97	0xbeda48d8	-0.426337
98	0xbf88f505	-1.0699774
99	0xbf5089cd	-0.8146027
100	0xbf1b642a	-0.60699713
101	0xbedb5bdf	-0.4284353
102	0xbeff2ce3	-0.49838933
103	0xbf4052a2	-0.7512609
104	0xbef3e84b	-0.47638163
105	0xbf8e9239	-1.1138374
106	0xbf3293e9	-0.69756943
107	0xbec77a1e	-0.38960356
108	0xbf2658dc	-0.6497934
109	0xbe1844ee	-0.14870045
110	0xbf168c51	-0.58807856
111	0xbf28f066	-0.6599182
112	0xbe5d5df5	-0.21617873
113	0xbf6da441	-0.92828757
114	0xbf15a4e8	-0.5845475
115	0xbc55f3bb	-0.013058598
116	0xbf783232	-0.9695159
117	0xbf34c52d	-0.70613366
118	0xbf4477d8	-0.7674537
119	0xbf512610	-0.81698704
120	0xbf809e16	-1.0048244
121	0xbefd14a5	-0.49429813
122	0xbf34d5a0	-0.70638466
123	0xbf4deed2	-0.80442536
124	0xbf1b492c	-0.60658526
125	0xbecee578	-0.40409446
126	0xbf26ad0a	-0.65107787
127	0xbf7bf42c	-0.9841945
128	0xbeb7a9b3	-0.35871658
129	0xbf30eb51	-0.69109064
130	0xbe09575e	-0.13412234
131	0xbe264691	-0.16237856
132	0xbee462a1	-0.44606498
133	0xbe826c4e	-0.25473255
134	0xbf3eee64	-0.74582505
135	0xbf4ecabb	-0.8077809
136	0xbf2b5980	-0.6693344
137	0xbebe8ae3	-0.37215337
138	0xbf347064	-0.70483994
139	0xbfbabed5	-1.4589487
140	0xbef3a7d8	-0.47588992
141	0xbf52865e	-0.8223628
142	0xbeb2676d	-0.34844533
143	0xbd18721f	-0.03721821
144	0xbf1b1f18	-0.6059432
145	0xbf367201	-0.71267706
146	0xbf1196a5	-0.5687049
147	0xbf25f2ef	-0.6482381
148	0xbea97caf	-0.3310294
149	0xbf1f1082	-0.62134564
150	0xbe2168cf	-0.15762638
151	0xbeff32af	-0.49843356
152	0xbf541113	-0.82838553
153	0xbf124ced	-0.5714863
154	0xbf26b8b0	-0.6512556
155	0xbf4ba2af	-0.7954511
156	0xbf20e95f	-0.62856096
157	0xbeb50146	-0.35352534
158	0xbee87a15	-0.4540564
159	0xbf1f96b6	-0.6233934
160	0xbf88329c	-1.0640445
161	0xbe85f002	-0.26159674
162	0xbed51798	-0.41619563
163	0xbf029622	-0.51010334
164	0xbea15abb	-0.31514534
165	0xbec8c3e8	-0.39211965
166	0xbec86a06	-0.3914339
167	0xbf33a79f	-0.70177644
168	0xbf1e12e1	-0.61747557
169	0xbf04cad3	-0.51871985
170	0xbf86485b	-1.0490831
171	0xbf45c7ce	-0.77258
172	0xbf5ec70a	-0.8702246
173	0xbf044626	-0.5166954
174	0xbef6f766	-0.48235625
175	0xbf506da9	-0.8141733
176	0xbec944c1	-0.39310268
177	0xbf8335a5	-1.0250746
178	0xbf643f2a	-0.8915888
179	0xbf1349fc	-0.57534766
180	0xbf264072	-0.64942086
181	0xbd13506f	-0.03596538
182	0xbf1d4623	-0.61435145
183	0xbe8dfd00	-0.27732086
184	0xbf206962	-0.626608
185	0xbf0d9bd9	-0.5531593
186	0xbef38ba2	-0.4756747
187	0xbf16e154	-0.58937573
188	0xbf141d8c	-0.57857585
189	0xbefdfef0	-0.49608564
190	0xbf15d6b8	-0.5853076
191	0xbf07c0eb	-0.53028744
192	0xbf22dd40	-0.6361885
193	0xbf160e8b	-0.5861594
194	0xbf1f06d9	-0.62119824
195	0xbf0498df	-0.5179576
196	0xbf32d68c	-0.6985862
197	0xbf291d64	-0.6606047
198	0xbef11f2f	-0.47094104
199	0xbf429093	-0.7600185
200	0xbfa05abe	-1.2527692
201	0xbf0d6934	-0.5523865
202	0xbe5d2c89	-0.2159902
203	0xbf48fdd1	-0.78512293
204	0xbf2548f1	-0.64564425
205	0xbf28b975	-0.65907985
206	0xbef6e22a	-0.48219424
207	0xbf16fe4c	-0.58981776
208	0xbec1998e	-0.37812465
209	0xbf25389e	-0.64539516
210	0xbef0668d	-0.4695324
211	0xbefce07d	-0.4939002
212	0xbf33734f	-0.7009782
213	0xbf5a6d5e	-0.8532313
214	0xbeac88bb	-0.33698067
215	0xbf8188f4	-1.011992
216	0xbef54cc7	-0.4791014
217	0xbf405fea	-0.75146353
218	0xbf2de32f	-0.6792478
219	0xbf573973	-0.84072036
220	0xbf3b771d	-0.7322863
221	0x3e445b60	0.19175482
222	0xbf00fe90	-0.5038843
223	0xbf07dd6f	-0.53072256
224	0xbf382ed1	-0.71946436
225	0xbf311d08	-0.69184923
226	0xbf23f2a4	-0.64042115
227	0xbec10501	-0.3769913
228	0xbececdcc	-0.40391386
229	0xbf2e8ff4	-0.68188405
230	0xbf492e23	-0.78586024
231	0xbf0ee7cd	-0.5582245
232	0xbf4eb13d	-0.80739194
233	0xbe9eb141	-0.3099461
234	0xbf65b1b4	-0.8972428
235	0xbf0969cb	-0.5367705
236	0xbf33fe55	-0.70309955
237	0xbec157cd	-0.377623
238	0xbe3898c3	-0.18027024
239	0xbf082c9f	-0.53193086
240	0xbf1c246b	-0.6099307
241	0xbf195270	-0.59891415
242	0x3e2b346c	0.16719216
243	0xbe927c10	-0.28610277
244	0xbef75704	-0.48308575
245	0xbf1f6341	-0.62260824
246	0xbef2ef77	-0.47448322
247	0xbf758f0b	-0.9592139
248	0xbef57e0d	-0.47947732
249	0xbf412e8c	-0.7546165
250	0xbf2cd50e	-0.67512596
251	0xbf24cdbf	-0.64376444
252	0xbe55461f	-0.2082753
253	0xbe2a34c9	-0.16621698
254	0xbf007301	-0.5017548
255	0xbd95cbf6	-0.07314293

bn1.running_mean f4 [400]
0	0xc024ea16	-2.5767875
1	0xbf7c795b	-0.98622674
2	0x3db7cde4	0.089748174
3	0xbf58b464	-0.84650254
4	0x3dbacdce	0.091212854
5	0xbf87402b	-1.0566458
6	0x3f173b7e	0.5907515
7	0xbfa1fb1b	-1.2654756
8	0x3ee5b842	0.4486714
9	0x3e731e14	0.23741943
10	0xbeb5e8c4	-0.3552915
11	0x3efd65a6	0.49491614
12	0xbf881a4c	-1.0633025
13	0x3f4edac0	0.80802536
14	0xc005f09d	-2.0928109
15	0x3e88fdf2	0.26756245
16	0x3fb9081e	1.4455602
17	0xbee5a36e	-0.4485125
18	0xc084aad6	-4.145854
19	0x3eecae71	0.46226838
20	0x3e99edda	0.3006428
21	0xbf9e6efc	-1.237762
22	0x3e42e726	0.19033489
23	0xbf38347c	-0.71955085
24	0xbf6bfdf8	-0.921844
25	0xbef55ba7	-0.47921488
26	0xbc096930	-0.008386895
27	0xbf9a772d	-1.206762
28	0x3f5d4d9d	0.86446553
29	0x3f2bda2b	0.6712977
30	0x3fea43a0	1.8301888
31	0x3e8e60b2	0.27808148
32	0x3fbb683b	1.4641184
33	0xbfa8e7fd	-1.3195797
34	0x3f81c32b	1.0137686
35	0xbf2cf3f0	-0.6755972
36	0xc0044d70	-2.0672264
37	0xbea4b44b	-0.32168803
38	0xbd249119	-0.04017744
39	0xbf822d4a	-1.0170071
40	0xbe9324ce	-0.28739017
41	0xbe0eaadd	-0.13932367
42	0xbfaad524	-1.3346295
43	0xbf0b7533	-0.54475707
44	0x3e6b28d7	0.22964798
45	0xbdb5f185	-0.08883957
46	0xbdb48c6e	-0.08815847
47	0xbf581b51	-0.8441668
48	0xbf8fde09	-1.1239635
49	0xbfe243f3	-1.7676986
50	0x3de8dbe4	0.11370066
51	0x3fadbbea	1.3572972
52	0xbf6417f0	-0.89099026
53	0xbf093af9	-0.5360561
54	0xbf853570	-1.0406933
55	0xbfa16c24	-1.2611127
56	0xbe213da7	-0.15746175
57	0xbe88f0b7	-0.2674615
58	0xbdb327f8	-0.08747858
59	0xc05deef1	-3.4677088
60	0xc0017de5	-2.023309
61	0x3f4cc37d	0.7998579
62	0x3fe46175	1.7842242
63	0x3cec8b38	0.028874978
64	0x3fed399e	1.8533208
65	0xc0028902	-2.0396123
66	0x3f92f05c	1.1479602
67	0x3f817e23	1.0116619
68	0x3fab7ae2	1.3396876
69	0xbe4b274e	-0.19839212
70	0xbfec8dbb	-1.8480753
71	0xbd89ca9d	-0.067280985
72	0xc02ed2f9	-2.7316267
73	0x400aa3f7	2.1662576
74	0xbd2e59b4	-0.042566016
75	0xbdb04b3a	-0.08608098
76	0xc057e3b1	-3.3732722
77	0xbfdaec2f	-1.7103328
78	0x3e0bbee9	0.13647045
79	0xc02e5bd2	-2.7243543
80	0x3d5e387f	0.054253098
81	0xbfc9e115	-1.5771815
82	0xbf8da1b3	-1.1064972
83	0xbecb6c58	-0.39731097
84	0x3f85a0d1	1.0439702
85	0xbfce94d2	-1.6139166
86	0xc02b2e67	-2.6747072
87	0x3e6161fb	0.22010033
88	0xbfee58cd	-1.862085
89	0xbf38fb3e	-0.72258365
90	0xbf7aae44	-0.9792216
91	0xc028dbdc	-2.6384192
92	0x3f8e626f	1.112379
93	0xc07fbae6	-3.9957824
94	0xbdfcd4aa	-0.1234525
95	0xbf973910	-1.1814289
96	0x3ecfa15d	0.40552798
97	0xbe0a1210	-0.13483453
98	0xbf15e481	-0.58551794
99	0xbf72f4ee	-0.94904983
100	0xbf472dc0	-0.77804184
101	0x3ea4808e	0.3212933
102	0xc00e9c5d	-2.2282937
103	0x3f2f0d11	0.6837931
104	0xbe1b1b2e	-0.15147087
105	0xbf758968	-0.9591279
106	0xbfc92f03	-1.5717472
107	0x40154139	2.3321059
108	0xbf5d7b74	-0.865165
109	0xbe286e23	-0.16448264
110	0xc01ed988	-2.482027
111	0xbfa0457e	-1.2521207
112	0x3e301ec0	0.1719923
113	0xbff9e462	-1.9522822
114	0x3d77a8dc	0.06046377
115	0x3ee19342	0.4405766
116	0x3ebcfae1	0.36910155
117	0xc00c9702	-2.1967168
118	0x3efedbcd	0.4977707
119	0xbf1fe3f1	-0.62457186
120	0xbf89b48f	-1.0758227
121	0x40114b7b	2.270232
122	0xbf72ad3c	-0.94795585
123	0xbf70e24b	-0.94095296
124	0xbf6b5cf3	-0.91938704
125	0x3fbab376	1.4586017
126	0xbfb12efb	-1.3842462
127	0xbfea7d3b	-1.8319467
128	0x3f64a4ea	0.8931414
129	0xbf75ca9a	-0.9601227
130	0xbf29f9d5	-0.6639684
131	0xbedce5f2	-0.43144184
132	0xbfde6dbf	-1.7377242
133	0x3e647542	0.22310355
134	0x3f987b6f	1.1912669
135	0xbfb4ff82	-1.4140475
136	0x3f127672	0.57211983
137	0xbe8dfde9	-0.2773278
138	0x3fd361f6	1.651427
139	0xbf3c8425	-0.73639137
140	0xbfd6716a	-1.6753361
141	0xc00e5a24	-2.2242517
142	0x4096a004	4.707033
143	0xbea52b85	-0.32259765
144	0xbe07a640	-0.13247013
145	0xbf6a84fe	-0.9160918
146	0x3f792101	0.97315985
147	0xbec53de0	-0.3852377
148	0x3fa98650	1.3244114
149	0x3f6211a4	0.8830817
150	0x3f344fc5	0.7043422
151	0x3cf70909	0.030155675
152	0xbf08f860	-0.5350399
153	0xbfd4a41c	-1.6612582
154	0xbf7c6b72	-0.9860145
155	0xbeb5b634	-0.35490572
156	0xbf4313c6	-0.76202047
157	0x3ef4d880	0.47821426
158	0x3fec6e71	1.8471204
159	0x3f29467b	0.6612317
160	0xbf4870df	-0.7829723
161	0x3ed96c87	0.42465612
162	0x3ee38020	0.4443369
163	0xbf95562a	-1.166692
164	0x3ff253a3	1.8931774
165	0xbf4bfe0a	-0.7968451
166	0xbf53be5c	-0.8271234
167	0x3fd9080c	1.6955581
168	0x3f48eb74	0.7848427
169	0xbf93875f	-1.1525687
170	0xc0786901	-3.881409
171	0xc02de146	-2.7168746
172	0xbfbd6bc4	-1.4798512
173	0xc002bbe7	-2.0427186
174	0xbf8011a6	-1.0005386
175	0xc06ba7e7	-3.682123
176	0xbfd64a20	-1.6741371
177	0xc013865b	-2.3050754
178	0xc022b883	-2.5425117
179	0x3ffcb7c7	1.9743584
180	0xc03479f7	-2.8199441
181	0xbdeeaee1	-0.11654449
182	0x3f93184b	1.1491789
183	0xbfb573e5	-1.4175993
184	0xc011fb3a	-2.2809587
185	0xbeb1837a	-0.3467062
186	0xc044addf	-3.0731122
187	0x3e5d79dc	0.21628517
188	0x3fce1d8d	1.6102768
189	0xbecd3749	-0.40081242
190	0x3f1f8c7b	0.6232373
191	0xbf1ce661	-0.6128903
192	0xbec4281a	-0.38311845
193	0xbdab07ec	-0.0835112
194	0xbe8aa7a4	-0.27081025
195	0xbf787e97	-0.9706816
196	0xbceb1f68	-0.0287015
197	0x3c1fe595	0.009759326
198	0xbf98feda	-1.1952775
199	0x3e3f28f3	0.18667965
200	0xbe0fa703	-0.14028554
201	0x4025cf59	2.5907805
202	0x3fa65cd6	1.2997081
203	0xbf21982f	-0.6312284
204	0x3eaf68dc	0.3425969
205	0x40005c0e	2.0056186
206	0x3f40e822	0.75354207
207	0x3fcf6ae4	1.6204495
208	0xbff39119	-1.9028655
209	0xbf033c48	-0.51263857
210	0xbd833a65	-0.06407622
211	0xbe8aa224	-0.27076828
212	0xbfb4fea9	-1.4140216
213	0x3fe26ae6	1.7688873
214	0x3ed77447	0.420809
215	0xc04a24a8	-3.1584873
216	0x4040a8fc	3.010314
217	0xbf40c17d	-0.7529524
218	0xbecced2f	-0.40024707
219	0xc03644f4	-2.8479586
220	0x3ef0275a	0.46905023
221	0x4010517d	2.2549736
222	0xbf6e67d0	-0.93127155
223	0x3f87f131	1.0620481
224	0xc01c5235	-2.4425175
225	0xbf09d2c5	-0.53837234
226	0xbfc1f81e	-1.5153844
227	0xbe8f0632	-0.27934414
228	0x3e61b127	0.22040235
229	0xbf3c6777	-0.73595375
230	0xbffca527	-1.97379
231	0xbf4dc711	-0.80381876
232	0xbfdc37bc	-1.7204509
233	0x4012eb4f	2.295612
234	0xbf8c403c	-1.0957103
235	0x3f531026	0.82446516
236	0x3fb04bab	1.3773092
237	0xbf541bcb	-0.8285491
238	0xbdaa6f2a	-0.08321984
239	0x3ffdab3e	1.9817884
240	0x3e32240d	0.17396565
241	0xbf8f92a1	-1.1216623
242	0x3fecdd61	1.850506
243	0x3fa47fcc	1.28515
244	0xbf29192b	-0.6605403
245	0x3d5291a8	0.05140844
246	0x4026a6d2	2.603932
247	0xc0176512	-2.3655438
248	0x3f0dede3	0.5544111
249	0xbf84b513	-1.036776
250	0xbf4b34e1	-0.7937756
251	0xc05cc2e2	-3.4493947
252	0xbe6dee8e	-0.23235533
253	0xbea45d48	-0.32102418
254	0x3f80da71	1.0066663
255	0x3f8a5106	1.0805976

bn1.running_var f4 [400]
0	0x40cf95f1	6.4870534
1	0x40f787be	7.73532
2	0x400c08e1	2.188042
3	0x3ff9bc52	1.9510596
4	0x4108dbdb	8.553676
5	0x410662f0	8.399155
6	0x40ffc76e	7.9930944
7	0x401fb0a8	2.4951572
8	0x4094fe8c	4.6560726
9	0x40f4a1fe	7.6447744
10	0x405b689e	3.4282603
11	0x4092380a	4.5693407
12	0x402eedb4	2.7332582
13	0x4117953c	9.473934
14	0x4130c4df	11.048064
15	0x4076ac62	3.8542714
16	0x402300f1	2.5469325
17	0x408a1e1f	4.316177
18	0x40698dea	3.6492867
19	0x3f888aaa	1.0667317
20	0x414e3802	12.888674
21	0x406d3240	3.706192
22	0x40b94059	5.789105
23	0x40c37aa9	6.108723
24	0x4019ff84	2.4062204
25	0x41a55c35	20.670023
26	0x40984058	4.7578545
27	0x408173ca	4.0453844
28	0x40f1028a	7.53156
29	0x40726d6f	3.7879293
30	0x410d17b4	8.818287
31	0x4169f8d5	14.62325
32	0x408f627a	4.480771
33	0x410778e2	8.467012
34	0x409f79f9	4.9836392
35	0x409bba3e	4.8664846
36	0x4049b17e	3.1514583
37	0x41595c40	13.585022
38	0x4030b678	2.761137
39	0x40121408	2.2824726
40	0x404415a9	3.063822
41	0x406f8f83	3.7431343
42	0x40acae3b	5.3962684
43	0x402c0bae	2.6882129
44	0x4138bd06	11.546148
45	0x3e0facd0	0.14030766
46	0x3e3736ab	0.17891948
47	0x40bc6bf5	5.8881783
48	0x40a04ff8	5.009762
49	0x4111875f	9.09555
50	0x407bc30b	3.9337795
51	0x4084ff97	4.1562
52	0x40338acd	2.8053467
53	0x408a7be4	4.3276234
54	0x4065e30b	3.5919826
55	0x409c9da3	4.894243
56	0x40886200	4.261963
57	0x4055283c	3.3305807
58	0x40c56fc1	6.169892
59	0x41211896	10.068502
60	0x40da0af3	6.8138366
61	0x3feef0ec	1.8667274
62	0x40de358e	6.9440374
63	0x40316da3	2.7723167
64	0x413d190e	11.818617
65	0x40737cfd	3.8045037
66	0x40975f89	4.730412
67	0x3fdf290d	1.7434403
68	0x3fd1c5be	1.6388471
69	0x40b20e4e	5.564246
70	0x403cbe81	2.9491274
71	0x4117ffb6	9.499929
72	0x40ccff95	6.406199
73	0x3f8edf12	1.1161826
74	0x40385f3d	2.880813
75	0x3f716b58	0.9430442
76	0x400a65c4	2.1624613
77	0x403d5645	2.9583905
78	0x3e3ec51c	0.18629879
79	0x40ca76d0	6.3270035
80	0x40d3a019	6.613293
81	0x4109762a	8.591349
82	0x4007495b	2.1138523
83	0x40b03390	5.5062943
84	0x4096c818	4.7119255
85	0x41a296ba	20.323597
86	0x40274782	2.6137395
87	0x4072401b	3.7851627
88	0x40e84c85	7.259341
89	0x4081dc1e	4.05812
90	0x40a982ec	5.2972317
91	0x40c88a4a	6.266881
92	0x40577a4b	3.3668392
93	0x403ab29b	2.9171512
94	0x40a29a0e	5.0813055
95	0x40d3a40d	6.6137757
96	0x40e79cd7	7.2378955
97	0x402f5831	2.7397578
98	0x3ec5d019	0.38635328
99	0x403e88c0	2.9770966
100	0x40261764	2.5951777
101	0x409f816d	4.984549
102	0x4081eaff	4.059936
103	0x411e1d74	9.882191
104	0x40a411e5	5.1271844
105	0x4044b355	3.0734456
106	0x40f371c3	7.607637
107	0x41b8d352	23.103184
108	0x407ff939	3.9995863
109	0x41367d4b	11.405589
110	0x4102ea79	8.182244
111	0x3ff9ebbb	1.9525064
112	0x41187d75	9.530629
113	0x410268d7	8.150596
114	0x410b9fb3	8.726489
115	0x3f42520a	0.7590643
116	0x40183795	2.3783925
117	0x41455bb8	12.334892
118	0x4072451a	3.7854676
119	0x405babaf	3.4323537
120	0x3fda6e81	1.7064973
121	0x4187bb14	16.966347
122	0x405bfbfb	3.4372547
123	0x40bb5e18	5.855236
124	0x404b5ce8	3.1775455
125	0x4117998d	9.474988
126	0x40d54162	6.6642313
127	0x4098c723	4.7743087
128	0x40951a73	4.6594787
129	0x4018b213	2.3858688
130	0x410a9121	8.660432
131	0x40cdc933	6.4308105
132	0x40a69d59	5.2067075
133	0x41315b5b	11.084804
134	0x40e74816	7.2275496
135	0x40b9cf7a	5.8065767
136	0x4038651f	2.881172
137	0x40856378	4.168392
138	0x408fad0a	4.489873
139	0x4014a540	2.322586
140	0x411d173d	9.818173
141	0x4124299c	10.260159
142	0x41420add	12.127652
143	0x3e99f046	0.30066127
144	0x41937b67	18.435255
145	0x40c4a518	6.145153
146	0x40aeed13	5.4664397
147	0x3f94edac	1.1635032
148	0x40097fdb	2.1484287
149	0x409338da	4.60069
150	0x40bba658	5.8640556
151	0x40567cf6	3.351377
152	0x400488c6	2.070848
153	0x40972240	4.722931
154	0x40b640fe	5.6954336
155	0x41266e7f	10.401977
156	0x406b0673	3.6722686
157	0x3fd6e43f	1.6788405
158	0x415d4532	13.829393
159	0x40d40533	6.6256347
160	0x407d2bee	3.9558063
161	0x3fef913b	1.8716196
162	0x3faf456c	1.3693061
163	0x406e47ad	3.7231247
164	0x4045edc3	3.0926368
165	0x40a26b01	5.075562
166	0x4075315d	3.831138
167	0x3ffbb7ae	1.966543
168	0x409ab5a2	4.834672
169	0x4100731f	8.028106
170	0x409cab9f	4.89595
171	0x40b969b5	5.7941537
172	0x4114c5c8	9.298286
173	0x40c3c629	6.1179395
174	0x4152cd1f	13.175078
175	0x40aff64b	5.498815
176	0x41994900	19.160645
177	0x40152df1	2.330929
178	0x40507292	3.2569928
179	0x401e9e3a	2.4784074
180	0x410ec601	8.923341
181	0x3d83fa0b	0.06444176
182	0x40d71ce4	6.7222767
183	0x3ff9c4ee	1.9513223
184	0x401ed690	2.4818459
185	0x40ea31de	7.3185873
186	0x417110ab	15.066569
187	0x4029c928	2.6529026
188	0x40bed2d7	5.9632373
189	0x3fb099c9	1.3796932
190	0x40bd89c7	5.9230685
191	0x418e3110	17.773956
192	0x40eeef9d	7.4667497
193	0x407f3151	3.987385
194	0x4109438e	8.578993
195	0x413ce28b	11.805308
196	0x3fc7c023	1.560551
197	0x40881df5	4.253657
198	0x41106ca5	9.026525
199	0x40262321	2.595894
200	0x40a6b9e2	5.210191
201	0x41183de6	9.515112
202	0x409fe5f0	4.9968185
203	0x4099e9ec	4.809805
204	0x40e3547f	7.1040645
205	0x40b60066	5.6875486
206	0x410967d6	8.587851
207	0x411516b9	9.318048
208	0x40e3ede2	7.1227884
209	0x4118621b	9.523952
210	0x4071df2c	3.7792463
211	0x4032d8a6	2.7944732
212	0x4028d523	2.6380088
213	0x40e5f1d7	7.1857715
214	0x401dfe50	2.468647
215	0x41345cd5	11.272664
216	0x40fbb691	7.866036
217	0x40206136	2.5059333
218	0x403792ad	2.8683274
219	0x40b3d2dc	5.6194897
220	0x41caa70f	25.331572
221	0x40997c32	4.7964106
222	0x403ab832	2.9174924
223	0x41c85364	25.040718
224	0x40ddcbd5	6.931132
225	0x40fbafad	7.865195
226	0x411557ba	9.333918
227	0x4064c88b	3.5747402
228	0x41474622	12.454622
229	0x4113e4d2	9.243364
230	0x412143ac	10.079021
231	0x408ec4f5	4.4615426
232	0x41958c8e	18.69363
233	0x4083cfe6	4.119128
234	0x40bf0786	5.9696684
235	0x40e8c517	7.274059
236	0x40a7e29a	5.2464113
237	0x4068aaff	3.6354368
238	0x4112ae3c	9.167538
239	0x40f4bedc	7.6482983
240	0x40859b16	4.1751814
241	0x4119956f	9.598983
242	0x4022ff8c	2.5468473
243	0x412070c6	10.027533
244	0x403d3873	2.9565704
245	0x401ea07a	2.4785447
246	0x407e8064	3.9765863
247	0x4114141c	9.2549095
248	0x4087265b	4.223432
249	0x4026734a	2.6007867
250	0x3fee680c	1.8625503
251	0x40d3f3cb	6.62351
252	0x400f152b	2.235667
253	0x417045cf	15.017043
254	0x4122d274	10.17638
255	0x406e8661	3.7269518

fc2.weight f4 [300, 400]
0	0x3eb99aea	0.36251003
1	0x3e8f1b33	0.2795044
2	0xbda446a2	-0.08021285
3	0x3eca129b	0.3946732
4	0xbf1e5f04	-0.6186373
5	0xbf2b93a4	-0.67022157
6	0x3da25717	0.07926767
7	0x3d9e342f	0.07724797
8	0x3e34c0ae	0.17651626
9	0xbdfdb524	-0.123880655
10	0xbec610ac	-0.38684595
11	0xbeae0788	-0.3399012
12	0xbe029e17	-0.12755619
13	0x3eb0c316	0.3452384
14	0x3e6cf5fd	0.23140712
15	0x3d6dac5d	0.058025707
16	0x3e9d24d9	0.30692175
17	0xbf1aa1f4	-0.6040337
18	0xbe17189b	-0.1475548
19	0xbd9ac338	-0.07556766
20	0xbde3eb69	-0.11128885
21	0xbab67c8b	-0.0013922615
22	0xbed0ef38	-0.4080751
23	0x3d82ef32	0.06393279
24	0xbf5867b3	-0.8453323
25	0x3e327977	0.17429148
26	0xbfba1e82	-1.454056
27	0xbdea0934	-0.114275366
28	0xbf170e4f	-0.5900621
29	0x3e819837	0.25311443
30	0x3d4fb8e0	0.05071342
31	0x3c5c4cf4	0.013446081
32	0x3ec14a6d	0.37752095
33	0x3e8391ef	0.25697276
34	0xbec14b56	-0.3775279
35	0xbf890f01	-1.0707704
36	0x3ed9feaf	0.4257712
37	0xb83fe9a7	-4.5755554e-05
38	0xbe3da5de	-0.18520305
39	0x3ef3b653	0.4760004
40	0xbee1e63d	-0.4412097
41	0xbeb32f6f	-0.34997126
42	0x3e095f3b	0.13415234
43	0xbd32170a	-0.043479003
44	0xbc02ccb8	-0.007983379
45	0x3d1cbe9c	0.038267717
46	0x3d4ca757	0.049964275
47	0xbf1f4929	-0.6222101
48	0xbe13cadf	-0.14432858
49	0xbe60c507	-0.2195016
50	0xbd9f5414	-0.077797085
51	0xbe3e1d62	-0.18565896
52	0x3e2f550d	0.17122288
53	0xbdf8b351	-0.12143577
54	0xbf1ac352	-0.60454285
55	0x3ebd3950	0.36957788
56	0x3ef223c7	0.4729292
57	0xbe27a470	-0.16371322
58	0x3dd27b0b	0.10277375
59	0xbe14839d	-0.14503331
60	0x3f32a615	0.6978467
61	0xbdd058cc	-0.10173187
62	0xbe1fb8ef	-0.1559789
63	0xbebedca4	-0.3727771
64	0xbedcb50d	-0.4310688
65	0xbe45ce1d	-0.19316907
66	0xbe105413	-0.14094572
67	0xbea2dc58	-0.31808734
68	0xbefa058f	-0.48832366
69	0xbe87e9a1	-0.26545432
70	0xbd93d06c	-0.07217488
71	0x3e928978	0.28620505
72	0xbea5fd10	-0.32419634
73	0xbf1e341b	-0.61798257
74	0xbf99a761	-1.2004205
75	0x3dd83dba	0.105586484
76	0xbcddc4ca	-0.027071375
77	0xbe0bc564	-0.13649517
78	0xbd1219c9	-0.035669122
79	0xbee7220e	-0.4514317
80	0xbd5b3046	-0.053512834
81	0xbded1253	-0.11575761
82	0xbdaba69a	-0.08381386
83	0xbdc01907	-0.093797736
84	0xbe34710d	-0.1762125
85	0x3e30d29e	0.17267844
86	0xbf4f69c7	-0.8102078
87	0xbee2df93	-0.443112
88	0xbe132b50	-0.14371991
89	0x3ebd2f17	0.3694999
90	0xbda78dc1	-0.08181334
91	0xbed98506	-0.424843
92	0x3e837fb8	0.2568338
93	0x3eb41065	0.35168758
94	0x3ef10a83	0.47078332
95	0x3e5f4ab7	0.21805845
96	0xbe3218b3	-0.17392235
97	0xbf0ca08c	-0.54932475
98	0xbf9ca26d	-1.2237068
99	0xbe777042	-0.24163917
100	0xbc6dbacd	-0.014509869
101	0xbe27f70b	-0.16402833
102	0x3dc7c075	0.09753505
103	0x3e30183f	0.17196749
104	0xbdbb6a0e	-0.09151088
105	0xbe1ce316	-0.15321001
106	0xbd9a068a	-0.075207785
107	0x3e10b7fb	0.14132683
108	0xbd91bfeb	-0.071166836
109	0x3ed5855d	0.4170331
110	0x3e2ef354	0.1708501
111	0x3e3e4dac	0.18584317
112	0xbd66818a	-0.05627588
113	0xbecf4d45	-0.4048864
114	0xbdcfa2b7	-0.10138457
115	0x3c9ef2d5	0.0194029
116	0x3d5054ac	0.050862
117	0x3ed4ee63	0.41588125
118	0xbe60d1e7	-0.21955071
119	0xbee8fe5d	-0.45506564
120	0x3dc6e4fa	0.097116426
121	0x3e6744c7	0.2258483
122	0x3e6be871	0.23037888
123	0xbe46a4f0	-0.19398856
124	0xbf754779	-0.95812184
125	0xbf549501	-0.8303986
126	0x3f1a134d	0.601857
127	0x3e2bebfd	0.16789241
128	0x3e6b3cf9	0.22972478
129	0x3ebf3d74	0.37351573
130	0xbf4b4601	-0.7940369
131	0xbf1b37b0	-0.6063185
132	0xbe01e840	-0.12686253
133	0xbe81a14d	-0.25318375
134	0xbea34b32	-0.31893307
135	0xbd158d1a	-0.036511518
136	0xbfd9cb19	-1.7015105
137	0xbea409ae	-0.32038635
138	0x3f19139d	0.5979555
139	0x3e48836e	0.19581386
140	0x3f0b13d6	0.5432714
141	0xbf22a103	-0.63526934
142	0xbd1012e7	-0.035174277
143	0xbc21d1d8	-0.009876691
144	0xbeae1b67	-0.3400528
145	0x3c7fdf82	0.015617253
146	0x3dd5cf86	0.104399726
147	0xbd88cc25	-0.066795625
148	0x3e95f0e3	0.29285344
149	0x3ead2429	0.3381665
150	0x3ebabc85	0.36471954
151	0xbf826e6b	-1.0189947
152	0xbf01d396	-0.5071348
153	0xbd08ea24	-0.03342642
154	0x3ef5bc6b	0.47995314
155	0xbebacbab	-0.3648351
156	0xbd96cb2e	-0.07362972
157	0xbe4f35d2	-0.20235375
158	0x3ec6a74b	0.3879951
159	0x3e70e941	0.2352648
160	0x3e8136f9	0.25237253
161	0xbf5b8c14	-0.8576062
162	0xbd9d846f	-0.07691275
163	0xbee3b554	-0.4447428
164	0x3e82f5b5	0.25578085
165	0xbe158c80	-0.14604378
166	0x3e4cdba6	0.20005664
167	0xbf35610b	-0.708512
168	0xbda25aa6	-0.07927446
169	0xbf331960	-0.69960594
170	0xbe64bd59	-0.22337855
171	0x3fbf4908	1.4944162
172	0x3eb57cdb	0.3544682
173	0x3ecedc0d	0.4040226
174	0xbe0ba48d	-0.1363699
175	0x3ccc0bfb	0.024908056
176	0x3e09d268	0.1345917
177	0xbf10d077	-0.5656809
178	0xbeedbf83	-0.46435174
179	0x3e8129ed	0.252273
180	0xbeb6f2ae	-0.35732025
181	0xbd1fe20a	-0.039033927
182	0xbf631850	-0.8870897
183	0x3e485ba8	0.19566214
184	0x3e4e7545	0.20161922
185	0x3d357bcf	0.044307526
186	0xbdfcc76a	-0.12342723
187	0xbec3cf96	-0.38244313
188	0x3dd49e34	0.10381737
189	0xbf58ef17	-0.8473982
190	0xbf1557d8	-0.58337164
191	0xbe8a4d37	-0.27012035
192	0x3d5c541e	0.053791158
193	0x3e42f703	0.1903954
194	0x3da16372	0.07880296
195	0x3e9f73ea	0.31143123
196	0xbde675ba	-0.11252923
197	0x3eab2917	0.33429787
198	0xbddb1ce3	-0.10698869
199	0xbe36eb3a	-0.1786317
200	0xbe0143bd	-0.12623496
201	0xbdb3c823	-0.087784074
202	0xbe5205cf	-0.20510028
203	0xbcf3a613	-0.029742276
204	0x3e7e102f	0.24810861
205	0xbc9dfd3b	-0.019285789
206	0xbe9e8479	-0.30960444
207	0x3e5101f0	0.20410895
208	0x3d029a49	0.03188542
209	0xbf1eef47	-0.6208386
210	0xbe05dc1a	-0.13072243
211	0xbf489fb1	-0.7836867
212	0xbc74ef3e	-0.014949618
213	0x3e2af8ce	0.16696474
214	0x3d31c7d9	0.04340348
215	0x3f20391e	0.62587154
216	0xbe5e759f	-0.21724556
217	0xbe828ea2	-0.25499445
218	0x3e617ae5	0.22019537
219	0xbd2817b2	-0.041038223
220	0xbe02da97	-0.12778698
221	0xbe12985f	-0.14315937
222	0xbeb1ee05	-0.34751907
223	0x3e1ac133	0.15112762
224	0x39f29e84	0.0004627594
225	0x3e846830	0.2586074
226	0xbf503fc2	-0.81347287
227	0x3e8ed100	0.2789383
228	0x3f077396	0.52910745
229	0x3d1c45ca	0.038152494
230	0x3ef4ea29	0.478349
231	0xbe83786a	-0.25677806
232	0x3e403dfe	0.18773648
233	0xbf263b41	-0.64934164
234	0xbcbc8300	-0.023011684
235	0xbe7d8bb0	-0.24760318
236	0x3d1139c3	0.035455476
237	0x3ee72fe3	0.45153722
238	0xbfe4a6c8	-1.7863398
239	0x3df3b541	0.11899806
240	0x3e8d1fdb	0.27563366
241	0xbba213db	-0.0049462146
242	0xbfbbb6f1	-1.4665204
243	0xbd9e6dd8	-0.07735795
244	0xbf28cb16	-0.65934885
245	0x3d082919	0.03324232
246	0x3cbf7d89	0.02337529
247	0xbcd6d189	-0.026222961
248	0x3e7993ad	0.2437274
249	0x3e4079e9	0.18796505
250	0xbe5a8f3b	-0.213437
251	0x3e26611b	0.1624798
252	0xbf0c4b49	-0.54802376
253	0x3f183c1f	0.5946674
254	0x3d994b3c	0.07485053
255	0x3d3c70fa	0.04600618
